cart_pole_v1_r3.model (torch, 6253 bytes, 4 tensors)

layers.0.weight f4 [128, 4]
0	0x3d4b016f	0.049561914
1	0xbe97951c	-0.2960595
2	0xbf2e4b23	-0.680834
3	0xbe540ca2	-0.20707944
4	0xbd019949	-0.031640325
5	0x3f5af22c	0.85525775
6	0x3f2318df	0.63709825
7	0xbf2c5126	-0.6731132
8	0x3d8e62e4	0.06952456
9	0x3d9043a1	0.07044149
10	0x3dfc23cd	0.12311516
11	0xbe5a9894	-0.21347266
12	0x3ee63e95	0.4496962
13	0xbfaac125	-1.3340193
14	0xc0c17377	-6.045345
15	0xc0006e6f	-2.0067403
16	0xbdd2b4a9	-0.102883644
17	0x3e93d8d6	0.2887637
18	0xbe480afb	-0.19535439
19	0xbdce7693	-0.1008121
20	0xbdb0e8a2	-0.08638121
21	0xbde43836	-0.11143534
22	0xbf2117aa	-0.62926733
23	0xbec59c77	-0.38595936
24	0x3f459c20	0.7719135
25	0xbf3a2518	-0.7271285
26	0xbfe74dd5	-1.8070627
27	0x3e96d143	0.2945653
28	0x3eea6bb3	0.45785293
29	0xbe8c5c5f	-0.27414224
30	0xbfa9c399	-1.3262817
31	0x3e90775a	0.28216058
32	0xbec80d54	-0.3907267
33	0x3e9d4dde	0.3072347
34	0xbeb180c9	-0.34668568
35	0xbcb2f6f9	-0.021846281
36	0xbf076dfc	-0.529022
37	0x3ed5ca55	0.4175593
38	0xbeb40bc5	-0.3516523
39	0x3ddfec37	0.10933726
40	0x3fc028fa	1.5012505
41	0xbe6df226	-0.23236904
42	0xc0842322	-4.1292887
43	0xbfeefc14	-1.8670678
44	0x3f85fe3b	1.046821
45	0xbf645fd6	-0.89208734
46	0xbfc8d6bb	-1.569053
47	0x3e82f87f	0.25580212
48	0x3fc27096	1.5190609
49	0xbf23d7c6	-0.6400112
50	0xc0a292f9	-5.080441
51	0xc0022e88	-2.03409
52	0x3f084461	0.5322934
53	0xbf0a9d09	-0.54145867
54	0xc0946bf8	-4.63818
55	0xc00bb587	-2.1829545
56	0x3ee7a7ff	0.45245358
57	0xbe919bc8	-0.28439164
58	0xbe31ec19	-0.1737522
59	0xbe25f9de	-0.16208598
60	0xbe46194a	-0.19345585
61	0xbdd54a7d	-0.10414598
62	0xbe99aedf	-0.3001623
63	0xbf01d4fb	-0.5071561
64	0x3f861b10	1.0477009
65	0x3f918269	1.1367923
66	0x3ed7d4cb	0.42154536
67	0x3ef2fd7c	0.47459018
68	0x3f5ca707	0.86192364
69	0x3ea7a88c	0.3274578
70	0x3eb0287a	0.3440588
71	0x3e6018df	0.21884488
72	0x3fd5c3af	1.6700343
73	0x3d901f0b	0.07037171
74	0xc044be94	-3.074132
75	0xbf7874a0	-0.97052956
76	0x3e75c927	0.24002515
77	0x3de4572f	0.111494415
78	0xbf4e3007	-0.80542034
79	0x3db6dc4a	0.089287356
80	0xbd24dec8	-0.040251523
81	0x3e626628	0.22109282
82	0xbf53b48c	-0.8269737
83	0xbe98cf2f	-0.2984557
84	0x3f6f9cc4	0.9359858
85	0x3f8b8658	1.0900373
86	0xbe85ae44	-0.26109517
87	0x3ea5c48a	0.3237651
88	0x3d3c8f01	0.046034817
89	0x3e74ef56	0.23919424
90	0xbef2b8db	-0.4740666
91	0x3e29a976	0.1656855
92	0xbd6b2dba	-0.057416655
93	0x3e51219b	0.20422976
94	0xbf198b38	-0.59978056
95	0xbe30cf17	-0.17266499
96	0x3fbb571c	1.4635959
97	0x3ea6164a	0.3243888
98	0xbf15363a	-0.5828587
99	0x3ef63c71	0.48092988
100	0xbebdffc8	-0.37109208
101	0x3edaa007	0.42700216
102	0xbf1c9f62	-0.611807
103	0xbd99bd5b	-0.0750682
104	0xbf27487e	-0.6534499
105	0xbf21ce54	-0.63205457
106	0xbe39faef	-0.1816213
107	0xbf4c4295	-0.79789096
108	0x3fcb2dc2	1.5873339
109	0xbe8c6a56	-0.27424878
110	0xbe9892f8	-0.29799628
111	0x3e873bca	0.26412803
112	0xbeadfc79	-0.33981684
113	0xbdb74dc6	-0.08950381
114	0xbdcc95bf	-0.09989499
115	0xbeea8086	-0.4580118
116	0xbce6d5f3	-0.02817819
117	0x40312ff4	2.7685518
118	0x40b99e18	5.8005486
119	0x401d2b38	2.4557629
120	0xbecacb8d	-0.39608422
121	0xbd76d8d0	-0.060265362
122	0x3d1c8af2	0.038218446
123	0xbea7914f	-0.3272805
124	0xbed70fe1	-0.42004302
125	0x3ebb78e4	0.3661567
126	0x3e077145	0.13226803
127	0x3da1b209	0.07895286
128	0x3f9a354b	1.2047514
129	0x3f526b56	0.8219503
130	0xbf835237	-1.0259465
131	0x3f0fbc0c	0.5614631
132	0xbdd5e4a3	-0.104439996
133	0xbe1089c6	-0.14115056
134	0xbea9f014	-0.33190978
135	0xbe4a6470	-0.19764876
136	0x3f8da9fa	1.1067498
137	0x3ead0796	0.3379485
138	0xbf4bb650	-0.7957506
139	0x3edff01e	0.43737882
140	0x3f1324a9	0.57477814
141	0xbed0b5b7	-0.40763637
142	0xbf4a6416	-0.7905897
143	0xbeee40b8	-0.4653375
144	0x3e4be57c	0.1991176
145	0x3e6ea5fc	0.23305506
146	0xbf15e600	-0.5855408
147	0x3e16c627	0.14724027
148	0x3fbe3e2b	1.4862722
149	0x3f030c25	0.51190406
150	0xbe789b4c	-0.24277991
151	0xbcbcbc65	-0.023039052
152	0xbdb0e637	-0.0863766
153	0xbba02a0d	-0.0048878253
154	0xbf521f05	-0.8207858
155	0xbddcdc3a	-0.107841924
156	0xbe9416e7	-0.28923723
157	0x3eeeec1e	0.46664518
158	0xbf07c461	-0.53034025
159	0xbd7e0c8d	-0.062023688
160	0x3df36ff1	0.118865855
161	0x3d2bf84f	0.041984852
162	0xbe2b9a37	-0.16758047
163	0xbdee1161	-0.116244085
164	0x3ea33e14	0.318833
165	0xbfa49304	-1.2857366
166	0xbfd6f41d	-1.6793247
167	0xbcb888e8	-0.02252622
168	0x3f4175c7	0.7557034
169	0x3fa338c1	1.2751695
170	0x3e11d5a5	0.14241655
171	0x3f17b28b	0.5925681
172	0x3fa45cb0	1.2840786
173	0x3f7690f3	0.96314925
174	0x3e267efc	0.16259378
175	0x3eeee553	0.46659335
176	0x3f1f5a92	0.62247574
177	0x3ebfeed6	0.37486905
178	0xbe8570f2	-0.26062733
179	0xbee736ea	-0.45159084
180	0xbf33831e	-0.70121944
181	0xbf419076	-0.75611055
182	0xbf7f1e61	-0.9965573
183	0xbfc19a67	-1.5125245
184	0xbeb97359	-0.36220816
185	0x3dcf3569	0.10117609
186	0xbee052cc	-0.4381317
187	0xbedcfa35	-0.43159643
188	0x4005e590	2.0921364
189	0x3dbe8573	0.09302797
190	0xc06e9eef	-3.7284505
191	0xbf91dd3f	-1.1395644
192	0x3f59b194	0.8503659
193	0x3f9820ca	1.1885006
194	0x3ec62844	0.38702595
195	0x3e6596b5	0.22420771
196	0x3ed07a19	0.40718153
197	0xbe392dda	-0.18083897
198	0xbe7f5b55	-0.24937184
199	0xbe493b36	-0.19651493
200	0xc0ae3e76	-5.4451246
201	0x3f135f74	0.57567525
202	0x408c6a36	4.387965
203	0x3f6dfefd	0.92967206
204	0x3fe348fb	1.7756647
205	0x3d9fd73a	0.07804723
206	0xc08103c9	-4.031712
207	0xbfa80b74	-1.3128495
208	0x3f768fec	0.9631336
209	0x3f5151f3	0.8176567
210	0xbe73276e	-0.2374551
211	0xbde84f12	-0.113432065
212	0x402e1cc0	2.7205048
213	0x3eb5e0b5	0.35523
214	0xc080e073	-4.0273986
215	0xbf66e3b8	-0.9019122
216	0xbcb901e2	-0.022583906
217	0xbe9fa3fd	-0.311798
218	0xbf0f6e8f	-0.56028074
219	0xbe960538	-0.29300857
220	0xbda8a9ff	-0.08235549
221	0x4025a52d	2.5882065
222	0x40b07f71	5.515557
223	0x401ee811	2.4829142
224	0xbe853622	-0.26017863
225	0xbd45901d	-0.04823314
226	0xbf15ec32	-0.5856353
227	0xbe9e25aa	-0.3088811
228	0x3f3d59f3	0.73965377
229	0xbf2b0a2d	-0.668124
230	0xbfc12530	-1.5089474
231	0x3ea8ec72	0.32992893
232	0xbece06c2	-0.4023953
233	0x3eeaaafa	0.4583357
234	0x3c8f38cf	0.017483143
235	0x3e2d2976	0.16910347
236	0x3f87dc63	1.0614132
237	0x3fa09d94	1.2548089
238	0xbc9d3766	-0.019191455
239	0x3f1b455d	0.60652715
240	0x3fa3fb71	1.2811109
241	0x3f843c8a	1.0330975
242	0xbd9ac0af	-0.07556283
243	0x3eeeba9d	0.4662675
244	0xbe9d1bd4	-0.30685294
245	0xbd9ef143	-0.07760861
246	0xbdcfca33	-0.10145988
247	0xbe9a49f0	-0.30134535
248	0x3e76170f	0.24032234
249	0xbd98e879	-0.07466216
250	0xbe12b784	-0.14327818
251	0xbef60131	-0.48047784
252	0x3f963ee9	1.1737949
253	0x3f4a4c05	0.79022247
254	0xbce9bbce	-0.028531935
255	0x3ea15f64	0.3151809

layers.0.bias f4 [128]
0	0x3fe2a3dc	1.7706256
1	0x3f8f0486	1.1173255
2	0x3fb75c9c	1.4325137
3	0x3ee92bfd	0.45541373
4	0x3fc9b742	1.5759051
5	0x3fbcbde4	1.474545
6	0x3f11d906	0.56971776
7	0x3f8de94b	1.108682
8	0x3faa2dc7	1.329522
9	0x3fa855cc	1.3151183
10	0xbf65ef97	-0.8981871
11	0x3f80cbac	1.0062156
12	0x3e9e1d5f	0.30881783
13	0xbf8b87f6	-1.0900867
14	0x3fef086a	1.8674443
15	0x3fd1a632	1.6378844
16	0x3f55df90	0.83544254
17	0xbba8838e	-0.0051426357
18	0x3e065858	0.13119638
19	0x3fcc6950	1.5969639
20	0x3ff02f71	1.8764478
21	0x3f7319e9	0.9496141
22	0x3fc8742a	1.566045
23	0x3fc970a6	1.5737503
24	0x3f327717	0.69712967
25	0x3fc74b39	1.5569831
26	0x3fd5999d	1.6687504
27	0x3f2157da	0.63024676
28	0x3fbf36e5	1.4938627
29	0xbe62ab0b	-0.2213556
30	0x3fe5a9a2	1.7942393
31	0x3fae806a	1.3632939
32	0xbef66f83	-0.48131952
33	0x3fcf2636	1.6183536
34	0x3f020ffc	0.5080564
35	0x3fbf5932	1.4949095
36	0x3fe27325	1.7691389
37	0x3f42abaa	0.7604319
38	0x3fdc8391	1.7227651
39	0x3fdb3b8d	1.7127548
40	0x3fb1583d	1.3855053
41	0x3f4e5ba5	0.8060859
42	0x3f608018	0.87695456
43	0x3f835504	1.026032
44	0x3f8a6c80	1.0814362
45	0xbf10fa11	-0.5663157
46	0x3fe6d579	1.8033897
47	0x3d954719	0.072889514
48	0x3f9d6599	1.229663
49	0x3fcb9739	1.5905524
50	0x3e349396	0.17634425
51	0xbf0f0d38	-0.55879545
52	0x3f930807	1.1486825
53	0xbee33c99	-0.4438217
54	0x3fdbd065	1.7172972
55	0xbe9454e7	-0.28971025
56	0x3fcb6dbe	1.5892866
57	0x3f6a4340	0.91508865
58	0x3fb38668	1.4025393
59	0x3f958e98	1.1684141
60	0x3f881c01	1.0633546
61	0x3fb2db2e	1.3973138
62	0x3fa90403	1.3204349
63	0x3f433463	0.7625181
64	0x3fdc9b3c	1.7234874
65	0x3fc717a4	1.555409
66	0x3f95f6b3	1.1715912
67	0x3fbc101b	1.4692415
68	0x3ff52869	1.9152957
69	0x3fc9ca06	1.5764778
70	0x3fa82598	1.3136473
71	0x3f6e25af	0.9302625
72	0x3fb79c6f	1.4344615
73	0x3fe0643f	1.7530593
74	0x3d7e1815	0.062034685
75	0xbe5333bd	-0.20625205
76	0xbe8e6b57	-0.2781627
77	0x3fe26ff5	1.7690417
78	0x3fe53541	1.7906877
79	0xbed1f958	-0.41010547
80	0xbe73450f	-0.23756813
81	0xbf07527f	-0.52860254
82	0x3fa796c1	1.3092881
83	0x3fb4079b	1.4064821
84	0xbf0126a6	-0.504496
85	0xbf05b1c5	-0.5222438
86	0x3fe409ff	1.781555
87	0x3f37fb2b	0.71867627
88	0x3f9c261c	1.219913
89	0x3f463d13	0.7743694
90	0xbd6abcec	-0.057309076
91	0x3fd2afe0	1.6459923
92	0xbd24ff20	-0.04028237
93	0x3fdd9158	1.730998
94	0x3fb69693	1.4264702
95	0x3f781949	0.9691358
96	0x3fb18389	1.3868266
97	0xbed52958	-0.41633105
98	0xbf877ea4	-1.0585523
99	0x3fc7df9a	1.5615113
100	0x3f8fbad2	1.1228888
101	0x3fd16fc4	1.6362233
102	0x3f6a13fe	0.91436756
103	0x3fa14ae0	1.2600975
104	0x3e3b4e93	0.18291692
105	0xbec55e69	-0.38548592
106	0x3fc18c94	1.5121026
107	0x3f735f1d	0.95067006
108	0xbef50283	-0.4785348
109	0x3fb136d7	1.3844861
110	0xbdeb5b32	-0.114920035
111	0x3f966f0b	1.1752638
112	0xbe889f3a	-0.2668398
113	0xbedf1298	-0.43568873
114	0x3fc6a067	1.5517701
115	0x3fdf5bd7	1.7449902
116	0x3fbbeaad	1.4680992
117	0x3fce39aa	1.6111348
118	0x3fb9aca3	1.450581
119	0x3fc9891c	1.5744967
120	0x3fbfa0a2	1.4970896
121	0x3f851de2	1.0399745
122	0x3f8d1928	1.1023302
123	0x3f805fac	1.0029197
124	0x3e48b9c6	0.19602117
125	0xbe00d885	-0.12582596
126	0x3fbd9d8b	1.4813703
127	0x3f6bc475	0.92096645

layers.2.weight f4 [2, 128]
0	0x3f59a238	0.8501315
1	0x3f090ad8	0.5353217
2	0x3f503d06	0.81343114
3	0xbfedf761	-1.8591119
4	0x3f4529e7	0.7701706
5	0x3f6bac11	0.9205943
6	0x3db2cb27	0.087301545
7	0x3f3d50ca	0.739514
8	0x3f6690a0	0.9006443
9	0x3f4fb1dc	0.81130767
10	0xc026126e	-2.5948749
11	0x3eb27aa6	0.34859198
12	0xc03d8cc3	-2.9617164
13	0xc00d334d	-2.2062562
14	0x3f550698	0.83213186
15	0x3f4ef0db	0.80836266
16	0x3f65aaaf	0.8971357
17	0xbf7305d0	-0.94930744
18	0x3d527b8e	0.051387362
19	0x3f50db06	0.81584203
20	0x3f66ed99	0.90206295
21	0x3f5ddca0	0.8666477
22	0x3f713314	0.94218564
23	0x3f31dd62	0.6947843
24	0x3f03000a	0.51171935
25	0x3f66e2ed	0.9019001
26	0x3f45bafe	0.7723845
27	0x3ecd3585	0.40079895
28	0x3f62c349	0.8857923
29	0xc07a4aad	-3.9108078
30	0x3f4eb378	0.807426
31	0x3f4b904f	0.7951707
32	0x3cc5bbf1	0.024137469
33	0x3f64f74f	0.8943986
34	0x3ed4a65d	0.41533175
35	0x3f84a5c2	1.0363085
36	0x3f61053e	0.87898624
37	0x3f8d2d28	1.1029406
38	0x3f76fc02	0.96478283
39	0x3f6be441	0.9214516
40	0x3f2020bb	0.6254994
41	0x3f3ff604	0.74984765
42	0x3f8258a5	1.0183302
43	0x3f8304a8	1.0235796
44	0x3f4ac1c0	0.7920189
45	0x3ec1fc15	0.37887636
46	0x3f384be4	0.719908
47	0xbe9b6ab9	-0.3035486
48	0x3f4b3585	0.7937854
49	0x3f5d2d59	0.8639732
50	0xc03d9783	-2.9623725
51	0xc027696e	-2.61581
52	0x3f3e9e78	0.74460554
53	0xc02aedff	-2.6707761
54	0x3f59d96f	0.850974
55	0xc04c9a0a	-3.1969018
56	0x3f79f735	0.97642833
57	0x3ec23aa6	0.3793537
58	0x3f46c4bc	0.7764394
59	0x3f53bcc6	0.8270992
60	0x3f75d0aa	0.9602152
61	0x3f6a6193	0.91555136
62	0x3f451e4f	0.7699937
63	0x3f5d1944	0.8636668
64	0x3f686107	0.9077305
65	0x3f4a7a1f	0.7909259
66	0x3f65723b	0.89627427
67	0x3f5ad125	0.8547538
68	0x3f62257e	0.8833846
69	0x3f726882	0.94690716
70	0x3f71b4b8	0.9441638
71	0x3f89b384	1.0757909
72	0x3f6c55e9	0.9231859
73	0x3f667097	0.9001555
74	0xc089f106	-4.310672
75	0xc04fcf13	-3.2470138
76	0xc0012e07	-2.0184343
77	0x3f4bc847	0.79602474
78	0x3f52b828	0.8231225
79	0xbd5e1bed	-0.05422585
80	0xbf0661e2	-0.5249311
81	0xc02df055	-2.7177937
82	0x3f5996dc	0.8499582
83	0x3f3b42b9	0.73148686
84	0x3b264b2a	0.002537439
85	0xbee9f8fe	-0.45697778
86	0x3f5fb0b5	0.8737901
87	0x3f4c2250	0.79739857
88	0x3f10c859	0.56555706
89	0x3edbed68	0.42954564
90	0xc062b0dd	-3.5420449
91	0x3f3b655c	0.7320154
92	0xc02f8ff1	-2.7431605
93	0x3f568aa7	0.83805317
94	0x3f791f15	0.9731305
95	0x3f6698fe	0.900772
96	0x3f679221	0.9045735
97	0xc0270d7f	-2.6101987
98	0xc026ece5	-2.608209
99	0x3f3636da	0.71177447
100	0xbfef2050	-1.8681736
101	0x3f2b4402	0.66900647
102	0x3f8a66f6	1.0812671
103	0x3efb44b4	0.49075854
104	0xbf622d2c	-0.88350177
105	0xc0497a25	-3.14808
106	0x3f869c4f	1.0516452
107	0x3f5da064	0.8657286
108	0xc0274ddb	-2.614127
109	0x3f48ae2b	0.7839076
110	0xbfe3db4a	-1.7801297
111	0x3f3b04ab	0.73054
112	0xbc888864	-0.016666599
113	0xbd88340a	-0.06650551
114	0x3f740f0c	0.9533546
115	0x3f789c00	0.9711304
116	0x3f7fe998	0.9996581
117	0x3f826af2	1.0188887
118	0x3f5733e9	0.84063584
119	0x3f5dbb14	0.86613584
120	0x3f7f9fcc	0.99853206
121	0xbf99724c	-1.1988006
122	0x3f8201ad	1.0156761
123	0x3f60adbc	0.877651
124	0xc0159f2c	-2.33784
125	0xc07ab2fd	-3.9171746
126	0x3f6f6a8f	0.9352197
127	0x3f584928	0.8448663
128	0x3f8f9e3f	1.1220168
129	0x3f20cfce	0.62817085
130	0x3f43f8e7	0.7655167
131	0xc03f1167	-2.9854372
132	0x3f379cb0	0.7172346
133	0x3f7d7636	0.990085
134	0x3f04e54d	0.51912385
135	0x3f1b3219	0.6062332
136	0x3f848e01	1.0355836
137	0x3f440637	0.76571983
138	0xbfc20aa2	-1.5159495
139	0x3f2c8096	0.67383707
140	0xc01503f0	-2.3283653
141	0xbfd251c8	-1.6431208
142	0x3f5f0684	0.8711932
143	0x3f84d9da	1.0378983
144	0x3f12b917	0.57313675
145	0xbece280a	-0.40264922
146	0xbfda4844	-1.7053304
147	0x3f3de96c	0.741843
148	0x3f5a6347	0.85307735
149	0x3f68325f	0.9070186
150	0x3f743f1c	0.954088
151	0x3f2cfc71	0.67572695
152	0x3eaba2e4	0.33522713
153	0x3f427779	0.7596355
154	0x3fa4a86d	1.28639
155	0x3f619afd	0.8812712
156	0x3f872154	1.0557046
157	0xc04c27ca	-3.1899285
158	0x3f8d2d36	1.1029422
159	0x3f87d899	1.0612975
160	0xbfa278ac	-1.2693076
161	0x3f94ffb5	1.1640536
162	0x3eaa5b80	0.33272934
163	0x3f7827e7	0.96935886
164	0x3f4b9d8e	0.79537284
165	0x3f6d2983	0.92641467
166	0x3f8232bf	1.0171736
167	0x3f658cbd	0.89667875
168	0x3ef0afe1	0.47009185
169	0x3fcf3e20	1.6190834
170	0x3f801eb0	1.0009365
171	0x3f75e4bd	0.9605215
172	0x3f3da69d	0.74082357
173	0x3fb640ca	1.4238522
174	0x3f773081	0.96558386
175	0xbfe7f24f	-1.8120822
176	0x3f5ba58b	0.85799474
177	0x3f5c1881	0.8597489
178	0xc075f2bd	-3.8429406
179	0xbfeec48b	-1.865373
180	0x3f4a0d38	0.7892642
181	0xc00462c9	-2.0685294
182	0x3f8e1b43	1.110207
183	0xc04a6040	-3.1621246
184	0x3f8f33f4	1.118773
185	0x3f39c633	0.72568053
186	0x3f5cd478	0.862617
187	0x3f56250f	0.83650297
188	0x3f5e3bf8	0.86810255
189	0x3fb0b353	1.3804725
190	0x3f28e85f	0.6597957
191	0x3f4bdb65	0.79631644
192	0x3f592cd1	0.8483401
193	0x3f73af08	0.9518895
194	0x3f6a7bda	0.9159523
195	0x3f70e5e4	0.94100785
196	0x3f5cc336	0.8623537
197	0x3f71d9c0	0.94472885
198	0x3f2c517c	0.67311835
199	0x3f6c65dd	0.9234293
200	0x3f6ecc4d	0.9328049
201	0x3f5be5c6	0.8589748
202	0xc022e5a6	-2.5452666
203	0xbfbfcced	-1.4984413
204	0xc013a611	-2.307011
205	0x3f5b3133	0.8562195
206	0x3f51e2b1	0.8198653
207	0x3bfc83e6	0.007706153
208	0xbfb31412	-1.39905
209	0xc01a1860	-2.4077377
210	0x3f665c44	0.89984536
211	0x3f511b95	0.8168271
212	0x3bb12a72	0.005406671
213	0xbf0bf3fa	-0.54669154
214	0x3f6a7877	0.91590065
215	0x3f4ce6c3	0.80039614
216	0x3f02afb7	0.5104937
217	0x3f8fc90b	1.1233228
218	0xc0130516	-2.2971854
219	0x3f678450	0.9043627
220	0xbfc502d8	-1.5391493
221	0x3f5bc33b	0.85844773
222	0x3f93efe6	1.1557586
223	0x3f22005c	0.632818
224	0x3f72c282	0.94828045
225	0xc06f22be	-3.7364955
226	0xbfe99445	-1.8248373
227	0x3f6f87a0	0.9356632
228	0xc08b23b5	-4.348109
229	0x3f65607c	0.8960035
230	0x3f7d572a	0.98961127
231	0x3f91e44e	1.1397798
232	0xbfbe54a7	-1.4869584
233	0xc06e2c61	-3.7214587
234	0x3f61bdd2	0.8818027
235	0x3f4c459b	0.7979371
236	0xbff8b09a	-1.9428895
237	0x3f4f324a	0.8093611
238	0xc01e1526	-2.4700408
239	0x3f33a805	0.7017825
240	0x3fa7f499	1.312152
241	0xbbeda034	-0.0072517637
242	0x3f8b1b1e	1.086765
243	0x3f6f685c	0.93518615
244	0x3f6c5ede	0.92332256
245	0x3f82bec9	1.0214473
246	0x3f865a50	1.0496311
247	0x3f3d110c	0.73854136
248	0x3f6fa455	0.93610126
249	0xc08c8cc2	-4.3921824
250	0x3f55eb9e	0.8356265
251	0x3f8050b2	1.0024626
252	0xc040ffc5	-3.015611
253	0xc041a604	-3.0257578
254	0x3f42c2a4	0.7607825
255	0x3f37055d	0.7149256

layers.2.bias f4 [2]
0	0x3f46bb92	0.7762996
1	0x3f7de8d3	0.99183387
