extreame_harsh_v1_r2_model.pth (torch, 6427 bytes, 4 tensors)

layers.0.weight f4 [128, 4]
000000 c2 27 b4 3f e0 48 0f 40 19 7b b7 40 55 d8 d3 3f
       1.4074633 2.238823 5.7337766 1.6550394
000010 a2 6e f8 bd fc 2f ec 3d 5e 6b 93 bd b3 a5 3f 3e
       -0.121304765 0.1153259 -0.07198213 0.18715553
000020 20 42 08 3f 36 81 97 3e b9 3b e2 3e 6d 29 8d 3e
       0.532259 0.29590768 0.4418619 0.27570668
000030 79 2c c2 3e 6a 10 3b 3f 33 5f 2c 3e da f4 8b 3d
       0.37924555 0.7307192 0.1683319 0.06833811
000040 40 c2 00 40 a4 ee e5 3e fd b1 00 3f 2a 1a b5 3d
       2.011856 0.4490863 0.5027159 0.08842881
000050 3d c7 dc bc 3b 3f 9e bb 24 6a 3e 3f 02 72 36 3e
       -0.026950473 -0.004829315 0.7438071 0.17816928
000060 d8 0b 00 bf d0 76 0c 3f ff ab 92 40 71 55 ef 3f
       -0.5001807 0.54868793 4.5834956 1.869795
000070 2a 4b be 3f c6 f5 50 3f 69 a9 20 3e c9 4f 2a 3e
       1.4866688 0.8162502 0.15689625 0.16631998
000080 12 f3 fc 3e d4 28 17 3f 8f 15 51 3e 53 e6 f0 3e
       0.49404198 0.59046674 0.2041838 0.47050723
000090 3e 06 88 be 85 6b d0 3e 21 04 2b be 8c 22 1f bf
       -0.26567262 0.4070703 -0.16700794 -0.6216209
0000a0 52 e7 91 be f3 da d9 be 88 6c 0f 40 42 b1 1c 3f
       -0.28496796 -0.42549857 2.2409992 0.61207974
0000b0 9a 50 37 bf 00 67 c6 bf cf cf 9a c0 fc b6 a6 bf
       -0.71607363 -1.5500183 -4.8378673 -1.3024592
0000c0 01 e0 3f 3f be 4a 99 be 57 d4 dc be 0f 2d bc bd
       0.7495118 -0.29939836 -0.43130752 -0.09188282
0000d0 e9 46 46 c0 8e 13 92 bf 39 fe 41 c0 d0 de 4a bf
       -3.098078 -1.1412218 -3.0311415 -0.79246235
0000e0 0f e8 3b 3f 3e 79 14 3d 03 43 c5 bd 15 5e 80 bd
       0.7340097 0.036248438 -0.09631922 -0.06267945
0000f0 c8 8c d5 3f e8 a6 2b 3f db 09 84 be 71 84 08 bf
       1.6683588 0.67051554 -0.2578877 -0.5332709
000100 56 87 b2 3f bd ff 85 3e 90 17 87 bd d5 cf 75 3f
       1.3947551 0.26171675 -0.06596291 0.9602025
000110 5f 00 45 3f 7a 20 0e 3d 54 0a b8 be 25 f8 29 bc
       0.7695369 0.03469894 -0.3594538 -0.010374104
000120 d7 e9 c2 3e c2 89 17 3f a5 ee 01 bf 95 c4 25 3c
       0.3806903 0.59194577 -0.5075477 0.01011767
000130 85 b7 ff 3f 0a f5 16 3f cf 7b fc be 02 de ae 3e
       1.9977881 0.5896765 -0.49313208 0.34153754
000140 c0 2e 10 3e e0 5b d7 bd c8 35 68 3e 60 d8 fb 3c
       0.14080334 -0.10515571 0.22676766 0.030742824
000150 82 97 b3 3e 0f 7f 9f 3f 6e d3 47 3f 91 16 21 3f
       0.3507653 1.246065 0.7805699 0.6292506
000160 90 b5 ec 3b 17 d3 1d 3f 43 c7 bf be 0b 1c b2 bf
       0.0072237924 0.6165022 -0.37456712 -1.3914808
000170 f8 0a 1c 40 59 0b 83 3f 89 14 04 c0 d2 a5 a3 3e
       2.4381695 1.0237838 -2.0637534 0.31962448
000180 82 95 d5 3d 4f c2 a7 3f 20 83 2f 3f 3a ee 8f 3e
       0.10428907 1.3106173 0.68559456 0.2811144
000190 25 57 3d 3f 18 ae f9 be c6 6d 8a be fe bc 36 be
       0.73961097 -0.48765635 -0.27036875 -0.17845532
0001a0 16 85 0d c0 fd 88 cf be d3 78 2f 3f 96 e1 38 be
       -2.211248 -0.405342 0.6854374 -0.18054804
0001b0 15 e3 02 40 8c d9 65 3f 76 c2 03 40 32 57 1d 3f
       2.04511 0.89785075 2.058744 0.61461174
0001c0 3d 37 69 be 67 f7 2b 3f b1 92 07 3f 22 dc c5 3e
       -0.22774978 0.6717438 0.5295821 0.3864451
0001d0 e6 2a ab 3f 24 4a 45 3f 03 b6 dc 3e 1e c9 66 3e
       1.3372467 0.77066255 0.43107614 0.22537658
0001e0 0b 05 c1 3f 81 e5 05 3f 0a 08 fe bd a4 57 0f 3e
       1.5079664 0.5230332 -0.12403877 0.13998276
0001f0 6e 25 c7 3f 33 46 82 3f 3a e4 07 c0 aa 40 0c 3f
       1.5558298 1.0177673 -2.1233048 0.5478617
000200 32 29 ab 3e 11 59 f5 3e 6f ae 00 bf 7b 0b cb 3e
       0.33429867 0.47919515 -0.50266165 0.39657196
000210 f5 4f e5 3f f5 76 24 3f 67 29 41 bf 63 16 44 be
       1.7915026 0.64244014 -0.754538 -0.19149165
000220 8b 87 e3 3f f4 a2 34 bf 2d 67 8c c0 f0 85 5d bf
       1.777574 -0.70561147 -4.3875947 -0.865325
000230 58 a5 6a 3f 0d 40 16 be 1c 9b f0 be 52 61 06 3e
       0.91658545 -0.14672871 -0.4699334 0.13123062
000240 ed 48 fd 3f 67 65 ca 3e 06 f3 bb be 7c dd e1 bc
       1.978788 0.3953049 -0.3670885 -0.027571432
000250 7e e9 09 40 47 f6 3e 3f ee b3 4f bf ab 0b 2d 3e
       2.1548762 0.7459454 -0.81133926 0.16898982
000260 be fd f7 3f c8 73 2d 3f b0 aa cf be 97 26 05 3f
       1.9374311 0.67754793 -0.40559912 0.5201201
000270 e5 bb b2 3e 2b a9 d9 3d cb 66 fd be e6 ac 13 3d
       0.34908977 0.10627969 -0.49492487 0.03605356
000280 5d 20 0e 3f 6c 53 d7 3e 50 39 34 bf c1 05 b4 be
       0.5551813 0.42055833 -0.7039995 -0.3516064
000290 9c 28 c6 3f 4f 69 4e 3f 2b 11 bd 3f d7 a3 09 3f
       1.5481143 0.8062944 1.4770864 0.53765625
0002a0 c9 75 f2 3f 7f 80 14 3f 13 44 d5 be 56 af 46 be
       1.8942195 0.5800857 -0.416535 -0.19402823
0002b0 f1 c0 2c 3f 94 b0 7f 3e 5e b6 a9 be e1 ca 5d 3e
       0.67481905 0.24969703 -0.33146948 0.21659423
0002c0 2e f8 64 3f 89 53 4b bf 0c 05 41 bf 08 97 73 3e
       0.8944119 -0.7942434 -0.75398326 0.23788083
0002d0 4e 5e 41 3f b0 b7 90 3d ba 5b 82 3d d9 4c 19 3d
       0.7553452 0.070662856 0.06365152 0.037426803
0002e0 9c ab d5 3f 80 ee 06 3f 9b 27 84 3f 83 86 d7 3e
       1.6692996 0.5270767 1.0324587 0.42094812
0002f0 ca 76 ea 3f d5 0f 78 3f a1 46 e6 3f 14 12 2a 3f
       1.8317502 0.9689916 1.7990304 0.66433835
000300 af a1 76 3f 7e f8 fe be cb c1 64 bf 24 0e 07 3e
       0.9634046 -0.4979896 -0.89358205 0.13188988
000310 33 ac c5 3f 99 f0 c0 3f 0f ef a0 40 23 02 8d 3f
       1.5443176 1.5073425 5.029182 1.1016277
000320 47 26 b4 3f b5 24 0f 3f 87 68 ab 3e 6f 68 2d bc
       1.4074181 0.55915385 0.33478186 -0.010583981
000330 02 bd 95 bf 7b 6e 88 3e 6b d0 60 40 b7 72 00 3f
       -1.1698306 0.2664679 3.5127208 0.5017504
000340 91 7b 55 3f bd 29 74 3e ef f5 1d bf de 5a 29 bf
       0.8339167 0.23844047 -0.6170339 -0.6615428
000350 6b 1e b8 3e ac 8a 88 3f 1d 7d 0d 3f 4a 52 ce 3e
       0.35960707 1.0667319 0.5526903 0.40297157
000360 7a ef 91 3f 67 89 31 bf 77 3b 7a c0 05 16 21 bf
       1.1401207 -0.69350284 -3.9098794 -0.62924224
000370 08 6b 43 3f 5d a3 87 3d a6 d9 2d be 68 15 4b 3e
       0.7633519 0.06622956 -0.16977558 0.19832385
000380 5e e3 2f 3f de 09 8f 3d 67 82 04 bf 0d 97 b4 bd
       0.6870631 0.06984304 -0.5176148 -0.08817873
000390 40 09 16 3f ad db cb 3d 1c 95 22 3e b6 9d cb be
       0.58607864 0.09954009 0.15877193 -0.3976876
0003a0 70 ca b0 bf 59 c9 cd be b6 71 9a 3f 71 ec a0 3a
       -1.3811779 -0.4019268 1.2065952 0.0012277496
0003b0 54 0a 9d 3f 0d 92 bc 3d 07 b7 73 3d bd 3c 28 3e
       1.2268777 0.092075445 0.05950072 0.1642942
0003c0 70 93 04 c0 cc 78 f6 be 7b 2d 80 3f a5 78 0b 3e
       -2.0714989 -0.48139036 1.001388 0.13620241
0003d0 6b c2 64 3f 47 e6 43 be b0 df 77 be 3f 92 e6 3d
       0.8935916 -0.19130813 -0.24206424 0.11258363
0003e0 57 1f 8d 3e 6b eb 98 3f 7b 86 95 3f df 22 11 3f
       0.27562973 1.1946844 1.1681665 0.56693834
0003f0 87 61 94 bf 53 bd 65 3e 2e 17 d7 3f e8 d9 46 3e
       -1.1592263 0.22435503 1.6803949 0.19419062

layers.0.bias f4 [128]
000000 84 6d 49 be 82 a2 fb 3f 0f 09 b6 3f ae 6d 00 40
       -0.19670683 1.9658968 1.4221514 2.0066943
000010 17 08 1a bf 0b bf 04 40 a4 4a b7 bf 00 9c 16 3e
       -0.60168594 2.0741603 -1.4319654 0.14707947
000020 67 30 c5 3f fa cb 4d be 27 11 f6 3d c9 6d 4b bf
       1.5405396 -0.20097342 0.1201499 -0.79464394
000030 bc d1 a5 3f 07 bc 03 bd 04 b6 d2 3f a2 d0 02 be
       1.2954631 -0.03216174 1.6461797 -0.127749
000040 6a 03 58 bf 1c d6 d8 3f 7d 82 f5 3f c3 20 b0 be
       -0.8438021 1.6940341 1.9180447 -0.34399995
000050 ee 13 d7 be 20 82 d9 3f 78 f8 34 bf cf 43 0f 3d
       -0.42007393 1.6992836 -0.70691633 0.034976777
000060 5f e8 89 3f f8 5c 8e 3f 59 c2 0d 3f 70 ae 24 3b
       1.0774039 1.1122122 0.55374676 0.0025128387
000070 d9 40 fb 3f e0 d5 6a bd e2 6e e7 3c ad bc c8 bd
       1.9629165 -0.057332873 0.028251115 -0.09801612
000080 6e e6 00 40 16 a4 13 bf 9f fd 5d 3f e2 3d f1 3f
       2.0140643 -0.5767225 0.8671512 1.884701
000090 1d 75 61 bd d2 df db 3c 46 bb c4 be ec 9b eb 3f
       -0.05504333 0.026840124 -0.38424128 1.8406959
0000a0 27 6b 81 3f 97 74 de be 78 7b a2 3e 6b 6f d6 3f
       1.0110825 -0.43448326 0.31734824 1.6752752
0000b0 4a 6a 96 3f ed cd a7 3f 2f 90 f5 be 6e 68 a3 bb
       1.1751187 1.3109719 -0.47961566 -0.004986814
0000c0 a6 45 d6 3f f2 8f 03 3d be 83 f9 3d bb df 98 bf
       1.6740005 0.0321197 0.12183331 -1.1943277
0000d0 34 e4 4c 3f b0 15 dc 3f 08 21 b6 be cf cf d8 3f
       0.8003571 1.7194118 -0.35572076 1.6938418
0000e0 26 4f c0 3f 30 5f ab 3f c3 8f 01 3f 25 21 a7 be
       1.5024154 1.3388424 0.5060999 -0.32642475
0000f0 ea 96 6d 3f e9 4c e2 3f 72 58 ae 3f 69 58 97 3f
       0.928084 1.7679721 1.3620741 1.1823856
000100 1a 02 ef 3f 56 d9 02 40 74 0c 6a 3e 4f d7 90 bf
       1.8672516 2.0445151 0.22856313 -1.1315707
000110 87 60 e0 bd d8 b2 9b be 1a ef 79 3d 06 69 03 3f
       -0.10955911 -0.30409884 0.06101904 0.5133213
000120 95 ba a5 bd 76 76 aa 3f a7 e5 fe 3f 21 eb 9b 3f
       -0.08092228 1.3317401 1.9913834 1.2181131
000130 a3 83 8a be b5 81 b8 be f6 4e e9 3f 94 d9 23 3f
       -0.27053556 -0.3603646 1.8227222 0.6400387
000140 f4 4f 06 40 5e b8 85 3e 06 0b e4 3f a4 27 b6 be
       2.09863 0.26117224 1.7815864 -0.35577118
000150 f6 f6 8f 3c db 16 bf 3f ae af 87 3e 94 38 0c 40
       0.017573815 1.492885 0.2650122 2.1909533
000160 55 70 ed 3f 2b 15 c9 3f 89 0b b6 3f 92 b9 cc be
       1.8549906 1.5709585 1.422227 -0.3998533
000170 e8 f2 85 3e cb 14 08 40 10 91 99 3f 8f 1e a5 3e
       0.26161885 2.126269 1.1997395 0.32249877
000180 75 cd cf 3f fc 0d 79 39 cb 97 9c 3e 60 2a bc bc
       1.6234576 0.000237517 0.3058456 -0.022969425
000190 03 06 03 40 11 79 08 40 46 9d df 3f f9 a3 44 be
       2.047242 2.1323893 1.7469871 -0.19203176
0001a0 77 ba d7 3f 19 bc bd be 42 cf e3 be f8 a4 02 bf
       1.685378 -0.3705757 -0.44494063 -0.5103297
0001b0 ad 2c 86 3e 85 6c 02 40 4f 40 12 3f fb 63 78 bf
       0.2620596 2.0378735 0.5712938 -0.9702756
0001c0 f3 4d d8 3f 6e 82 08 3f 4d 2c 01 40 1a 15 1e bf
       1.6898788 0.5332402 2.018329 -0.6175095
0001d0 8f e4 f0 3f 9e 5e e6 3f db 35 31 bf 8c 1f 16 3f
       1.881975 1.7997625 -0.692228 0.58641887
0001e0 8f d9 02 40 d5 f2 e3 3f 05 8f ea 3c a1 5e ed be
       2.0445287 1.7808481 0.02863265 -0.4636126
0001f0 9f 54 0b 40 95 70 f8 3e ce c9 0d bf 93 0a 08 40
       2.1770399 0.48523393 -0.55386055 2.1256454

layers.2.weight f4 [2, 128]
000000 3f 44 46 c0 fb 57 84 3f 62 5a 6e 3f 4f 39 8b 3f
       -3.0979154 1.033935 0.93106663 1.0876864
000010 cd 69 79 3f bf 7b 63 3f d3 61 19 c0 44 a8 bd 3e
       0.97427064 0.88860697 -2.3965957 0.3704244
000020 da c5 81 3f 97 43 3d 3e 6e 6e 0d bf 2c ad 00 c0
       1.0138505 0.18482815 -0.5524663 -2.0105696
000030 c3 03 21 3f 43 66 19 c0 ae f1 cd 3f 8c 98 5e 3e
       0.62896365 -2.3968666 1.608938 0.2173788
000040 10 cb f9 3e d8 f3 2d 3f 62 29 a2 3f 5c 91 70 3f
       0.48787737 0.679502 1.2668879 0.939718
000050 df 74 87 3b 42 b5 ad 3f 3a 56 54 bf 41 c6 99 bf
       0.004133805 1.357094 -0.8294407 -1.2013627
000060 55 c7 81 3f d2 10 01 3f 58 63 ac 3f 58 54 05 c0
       1.0138956 0.5041629 1.3467817 -2.083273
000070 cb 8f 64 3f 63 2b 06 3d 10 8e 9f 3e 9b 84 e4 bf
       0.8928191 0.03275622 0.31163073 -1.7852968
000080 ce 4a 8f 3f 7f d6 ea 3e 0a 89 00 c0 c2 a4 c7 3f
       1.1194704 0.45866773 -2.0083642 1.5597155
000090 a7 61 ca 3d 00 f2 f9 3e f7 de 3c 3f 44 82 93 3f
       0.09881907 0.48817444 0.7377772 1.1524129
0000a0 f6 37 bb 3e 0c d1 06 3f 9b 3b e9 3d 7e cb d7 3f
       0.36566132 0.5266273 0.11388322 1.6858976
0000b0 01 1a 65 3f 9f 4d d5 3e a6 fe 52 3f 15 fc fe bf
       0.89492804 0.41660783 0.8241981 -1.9920679
0000c0 a2 00 b2 3f bd 7d 11 c0 df e4 bb 3e 94 34 30 c0
       1.3906443 -2.2732995 0.36698052 -2.753209
0000d0 ae ce 8e 3e d5 f7 b5 3f 06 1b 13 c0 1b f7 7a 3f
       0.2789206 1.4216257 -2.2985244 0.98033303
0000e0 27 45 16 3f 72 35 bf 3e 05 99 e1 be c4 43 e1 3b
       0.5869927 0.37345463 -0.44062057 0.0068745334
0000f0 74 ee c3 3f a0 fc 64 3f 28 d4 9c 3f 31 03 21 3f
       1.5307145 0.89447975 1.2252245 0.62895495
000100 12 9a b8 3f 7c 84 81 3f 9c d6 71 3e c7 1f 67 c0
       1.4422019 1.0118556 0.23617023 -3.6113145
000110 f8 6b 1e c0 11 e5 26 3f f6 c7 c6 bf 2b ce 9f 3e
       -2.47534 0.6519328 -1.5529773 0.3121198
000120 0c fd 26 3e 7f f3 a2 3f e4 82 74 3f d0 97 88 3f
       0.16307467 1.2730559 0.95512223 1.067133
000130 57 c8 ad bf 80 21 f5 3e 7c ef 7f 3f 4b e3 af bf
       -1.3576764 0.4787712 0.999748 -1.3741239
000140 00 d5 5e 3f aa 72 af 3e 47 ff df 3f 00 bb 33 bc
       0.8704376 0.3426717 1.749978 -0.010969877
000150 b4 fa ee bf 8d 01 12 3f 2a b5 63 3e 9e b8 86 3f
       -1.8670259 0.57033616 0.22237077 1.0525091
000160 9c b9 c5 3f de c6 a7 3f 1c ba 16 3f ba c9 66 3f
       1.5447268 1.3107564 0.5887773 0.9015156
000170 e5 61 96 3e 70 45 86 3f 53 98 45 3f 9b ad 3e 3e
       0.29371563 1.0489941 0.77185553 0.18620913
000180 bd 3c 87 3f ed 6a 04 c0 be 44 2f c0 f8 24 9a bf
       1.0565411 -2.0690262 -2.7385707 -1.2042532
000190 23 14 b1 3f 10 50 7a 3f 85 d0 61 3f 5e 89 2e be
       1.383427 0.97778416 0.882088 -0.17044589
0001a0 21 a4 8a 3f 53 16 0f 3f b7 79 44 3f bd 6b a2 bf
       1.0831338 0.5589344 0.7674822 -1.2689129
0001b0 25 a9 97 3e 18 ae b5 3f b0 c5 ad bf 22 4a f6 bf
       0.29621235 1.4193754 -1.3575954 -1.9241374
0001c0 29 2d 3a 3f 9c ae 58 c0 c7 98 4c 3f ef 02 55 3f
       0.7272516 -3.3856573 0.7992062 0.832076
0001d0 8f d7 ae 3f 32 6f 80 3f 0e 64 2e c0 c7 c1 f2 bf
       1.3659533 1.0033934 -2.7248569 -1.8965386
0001e0 f4 9f 55 3f 50 cc 3f 3f 17 91 40 3e 6d aa 2c 3f
       0.83447194 0.7492113 0.18805347 0.6744755
0001f0 bc 35 94 3f 71 7c fe 3f df 55 7e bf 0e 91 70 3f
       1.1578898 1.9881727 -0.9934978 0.93971336
000200 61 aa 57 c0 65 9c 9a 3f 54 c4 a0 3f 9f 9b 83 3f
       -3.369774 1.2078978 1.2559915 1.0281867
000210 e1 c1 4a 3f d3 3f 9d 3f 40 84 f6 bf 6c 19 f2 3e
       0.79202086 1.2285103 -1.925911 0.4728502
000220 46 4e 9f 3f a6 45 40 bf fe 64 c4 be 79 b5 32 c0
       1.2445762 -0.75106275 -0.383583 -2.7923262
000230 39 01 38 3f bc da 0f c0 66 37 b1 3f 4b 55 bf be
       0.71876866 -2.2477255 1.3845031 -0.3736976
000240 08 25 a7 3e 3e 41 17 3f 1f 2f 83 3f 09 aa a5 3e
       0.3264544 0.59083927 1.0248755 0.3235629
000250 ab cd 9a 3d c7 5a 9f 3f 4f 76 08 3e ac d8 bc bf
       0.07558759 1.2449578 0.13326381 -1.4753623
000260 bc 0c e6 3e 9c 9d 05 3f 58 a2 87 3f 73 21 14 c0
       0.4493159 0.5219362 1.0596418 -2.3145416
000270 15 f4 90 3f 7a de 32 3f 1d 96 c0 3e 8f f6 e9 bf
       1.1324488 0.6987072 0.37614527 -1.8278369
000280 f9 b2 96 3f 09 d8 94 3e 8f 49 15 c0 15 bf c8 3f
       1.1773368 0.29071072 -2.3326147 1.5683314
000290 8a b4 69 3e 23 af 54 3f 73 85 67 3e fa 74 81 3f
       0.22822776 0.8307974 0.226095 1.0113823
0002a0 74 0d 0d 3e 55 52 20 3f 58 87 15 3f 9b 48 ce 3f
       0.13774663 0.6262563 0.58409643 1.6115907
0002b0 55 ce fe 3f 26 4d f7 3e c7 d6 5c 3f 02 cc 18 c0
       1.9906718 0.48301047 0.86265224 -2.3874516
0002c0 ba df ae 3f f9 84 18 c0 80 e3 1e 3f 85 9b 2f c0
       1.3662026 -2.383116 0.6206589 -2.7438672
0002d0 ed 46 aa 3d cf d5 9a 3f 09 07 00 c0 e6 8c 91 3f
       0.08314309 1.2096499 -2.0004294 1.1371124
0002e0 5d 0e 10 3f 64 c4 a5 3e 3b 4d ab 3e f0 8c 81 3f
       0.56271917 0.32376397 0.3345736 1.0121136
0002f0 99 b0 54 3f cd d8 80 3f 1e e4 68 3f d1 f6 73 3f
       0.83081967 1.0066162 0.9097308 0.95298487
000300 15 3f 97 3f 24 c7 91 3f cb 7c 06 3f 0e 16 19 c0
       1.1816126 1.1388898 0.5253417 -2.391971
000310 cf 0f 24 c0 d1 e5 69 3f b4 2e e1 bf 53 53 83 bf
       -2.5634649 0.91366297 -1.7592378 -1.0259804
000320 67 35 36 3f ca 19 80 3f aa 13 9c 3f 99 62 d6 3e
       0.71175236 1.000787 1.2193501 0.418721
000330 39 19 8f bf d5 f5 0d 3f 08 16 93 3f fd 6e 20 c0
       -1.1179572 0.55453235 1.1491098 -2.5067742
000340 67 b5 82 3f 72 1f 22 3f 65 d6 c8 3f d4 86 7f bc
       1.021161 0.6332923 1.5690428 -0.01559611
000350 f3 9e e0 bf 40 f9 1e 3f 9d 64 0e 3f 8d bb 83 3f
       -1.7548507 0.62099075 0.55622274 1.0291611
000360 40 d3 9e 3f 3d fc 8e 3f 4a 39 45 3f 75 eb 44 3f
       1.2408218 1.1170727 0.7704054 0.7692178
000370 39 01 19 3f 64 bb 93 3f 10 97 78 3f d0 49 10 3f
       0.5976749 1.1541562 0.97105503 0.5636263
000380 c1 4b 91 3f 18 17 03 c0 01 95 3c c0 ab 5f 82 bf
       1.1351243 -2.0482845 -2.9465945 -1.0185446
000390 a3 79 9c 3f bb 6a 90 3f cc eb a5 3f de 63 40 bf
       1.222462 1.1282572 1.2962584 -0.75152385
0003a0 85 97 9b 3f 34 70 6c 3f aa 10 15 3f 21 28 cd be
       1.2155615 0.9235871 0.5822855 -0.40069678
0003b0 0d 03 27 3f cc 11 9e 3f 1c 4e ea bf e7 62 2f c0
       0.6523903 1.2349181 -1.8305087 -2.7404115
0003c0 1e 75 7c 3f 6f 59 12 c0 2f 9b 68 3f b5 5b 5d 3f
       0.98616207 -2.2867086 0.9086179 0.8646806
0003d0 bf 87 b3 3f c5 1f 90 3f c7 2e 31 c0 ac f3 bf bf
       1.4025801 1.1259695 -2.76848 -1.4996238
0003e0 45 0a 5d 3f be 76 53 3f 4c 16 8f 3e d6 b8 14 3f
       0.86343795 0.8260306 0.279467 0.5809454
0003f0 cc e0 7f 3f e5 6c 83 be 51 1e 68 bf ef 87 6f 3f
       0.9995239 -0.25669017 -0.9067126 0.93566793

layers.2.bias f4 [2]
000000 59 bc 8a 3f ce bd 8b 3f
       1.0838729 1.0917299
