models/acrobat_v1_500epoch.model (torch, 7829 bytes, 4 tensors)

layers.0.weight f4 [128, 6]
00000000: 1c83 923f bb66 abbf b47f 6b3e af6a 98bd
00000010: 97c1 1c3f 4bbe cbbd 353e b43f bbe9 cabe
00000020: 9618 873e a225 9f3d f776 073f c3a0 80bd
00000030: a1cc ae3f c044 b7bd 9c98 393f 0a6f 693e
00000040: f630 65be 623e cfbe 67b9 43be c93a 343e
00000050: 6b57 56be a987 f53e 1bfe 12be 6046 f7bb
00000060: 62e2 83bf 53a7 bd3f cff9 56bf 3206 2f3e
00000070: becb 353d f6bc 4e3f c702 1b3f 81e4 24bf
00000080: 7a7f 26bf 671d 68bd e2e9 da3c 5615 433e
00000090: 2226 e43f b39a 053f 0825 bdbc 83cb 5b3f
000000a0: 2d51 5abe 90c8 d4bd 0c47 233f b757 bf3e
000000b0: 02d3 99bf ad7b 5fbe ed35 a93e 8097 68be
000000c0: afbb 763f c941 62bf 7a32 763e 4985 d53e
000000d0: 7644 aabf 9ad3 d6be 2df7 e5bb 399b 0040
000000e0: 5491 d2bf b18c abbf 2d4e febe 80df dfbd
000000f0: 729d 89bf cc05 56bf a774 cabf d6ea b7bd
00000100: b6de 4f3e bac3 223c 0814 aabe 128d b53e
00000110: e5f2 17bf 1e93 ac3e cc6d 39bf 4ac4 863e
00000120: ef28 083f 70cd 53be 2a92 4cbe c71e 7dbe
00000130: 73e4 65be 9b3d 483c dc1d ccbf f9b7 d83e
00000140: 4716 16bf 9839 ab3e efc7 253f 8728 89bc
00000150: bc0f b53c d342 26be e8ad 84be e9aa 5e3d
00000160: f504 24be 1aa5 5ebd f183 c63e cd5e 813f
00000170: 68be ca3e 9382 53be b5cc 8b3f 227e 9e3f
00000180: 984b 683f e969 a6bd 7e80 b8be df29 e5be
00000190: 0fe7 93bd bb9f d83d 4ba7 ab3f d8c1 9d3d
000001a0: e257 b73d 80c6 d03d a006 0a3f 2cdf 93bc
000001b0: a751 5e3f 86fa f63f a4e0 163f 37da 2cbe
000001c0: a341 53be e5b5 94bd 8f8b a13f d6e8 c3be
000001d0: 1c6d d13f 9c62 d1be 28d6 3ebe af9c 9cbe
000001e0: ce7c db3d 283f 0040 44b2 a93f a2f6 a0bf
000001f0: a4a7 d7be 4f94 d0bd e053 6bbe 44c5 b3bf
00000200: ea00 2ec0 2edf ccbc 6876 983d 11c0 d4be
00000210: 73f9 bc3f ba4a 233f a575 183d c59c 0cbd
00000220: 6c83 f5be 7117 3abe 1447 393f 8b16 9dbf
00000230: 89f8 bd3f 4ec4 a03e 924b 96be db18 e1be
00000240: edd6 323f 751e 6a3e 0263 01be f7e2 e43d
00000250: 03bc b3be 7c94 c33c b900 dfba bbca 39be
00000260: b335 f9bd 4553 01bd d5f3 09be 4449 87bd
00000270: 80a5 cb3d e7b3 8bbf 35a4 f5bf c74b ecbe
00000280: cfd8 563d f039 133f ae04 ee3e 5f55 423f
00000290: 6b3c c7bf a677 a23d 56b3 32bb b8e5 2ebd
000002a0: 5196 0e3f 784b 9b3f e2c7 e53e 1435 debf
000002b0: 106b d13e 160c 143f 4a3f bf3e e300 95bf
000002c0: 0772 b83f a9db 17bd 1b0c 8fbe a12c d5be
000002d0: 2d81 a53f f80c cfbe 3ec4 3dbf 37cb 46bf
000002e0: cc63 c53d a68e b9bd 534a a93f 56db 243f
000002f0: f592 14be ddc8 c43e 4064 81be 08e8 963e
00000300: fcba 65bd 27be e6bd 72d4 94bd 63d6 3dbd
00000310: 964f babd cf9f ebbc 7763 9cbf c9c1 8f3f
00000320: b078 85bf 4390 963e 3896 87be 94b4 2cbe
00000330: 1f92 7c3f d481 343d 79a3 5a3e fafd a83f
00000340: 7790 b8be d235 0abf 9139 c53f 3771 13be
00000350: 83b7 193e bb34 123e 4892 37be 21bc 403e
00000360: ef55 553f d472 20be fbfc 5abe f11a 0dbf
00000370: ead9 2b3d 8ca5 943d c737 ed3f d5b7 723f
00000380: 66b0 b7bf c6b1 4cbf 78f7 b53f b34e cc3e
00000390: 38e7 593e b7b1 a53f bcbb d63b e7fc cb3e
000003a0: 6e7e 8f3c 5b05 de3e 054e 353d 3c24 e33e
000003b0: e13e 69bf 54c1 48bf 1d6e 0cbf b1e1 923f
000003c0: 2d15 55be 36db 50bf 33fa e9be 349c 91bc
000003d0: 34cb 9cbf 09be 6cbf e309 0a3f 22a2 503f
000003e0: 54b9 38bf 6554 cc3e 2226 243d 0aed 5cbd
000003f0: 0a52 913f 833e 7f3e 31e2 8b3e f72c 413e
1.1446261 -1.3390726 0.22997934 -0.07442223 0.61232895 -0.09948405 1.4081484 -0.39631447
0.26385945 0.0777085 0.529159 -0.06280663 1.3656198 -0.0894866 0.7249849 0.22796264
-0.22381958 -0.40477282 -0.19113694 0.1760055 -0.20931785 0.47955063 -0.14354746 -0.007546231
-1.0303462 1.4816688 -0.8397493 0.17092207 0.044383757 0.8075708 0.6055111 -0.6441117
-0.65038264 -0.056668665 0.026722852 0.19051108 1.7824137 0.5218918 -0.023088947 0.8585741
-0.21320029 -0.10389817 0.63780284 0.3737161 -1.201752 -0.21824522 0.33048955 -0.22714043
0.9638013 -0.8838163 0.24042693 0.4170325 -1.3302143 -0.41958314 -0.007017991 2.009474
-1.6450601 -1.3402311 -0.49669018 -0.10931301 -1.0751173 -0.83602595 -1.581685 -0.08980338
0.20299801 0.00993436 -0.33218408 0.3545919 -0.59355 0.33705992 -0.7243316 0.26321632
0.5318746 -0.20683837 -0.19977632 -0.24718772 -0.22450428 0.012221719 -1.5946612 0.4232786
-0.5862774 0.33442378 0.647582 -0.016742958 0.02210223 -0.16236429 -0.2591393 0.05436221
-0.16017516 -0.054356672 0.38772538 1.0107056 0.39598393 -0.20655279 1.0921847 1.2382243
0.90740347 -0.081256695 -0.36035532 -0.44758508 -0.07221805 0.10577341 1.3410429 0.077029884
0.08952309 0.10194111 0.5391636 -0.018050753 0.8684334 1.9295204 0.58936524 -0.16880117
-0.20630507 -0.07261256 1.2620715 -0.38263577 1.6361423 -0.40895545 -0.18636382 -0.3058829
0.10717164 2.0038548 1.3257527 -1.2575266 -0.42120087 -0.101845376 -0.22981215 -1.4044576
-2.7188058 -0.025008764 0.07444459 -0.41552785 1.4763626 0.637859 0.03722157 -0.034329195
-0.4795183 -0.18173005 0.7237408 -1.2272505 1.4841472 0.3139977 -0.2935453 -0.43964276
0.698592 0.22863181 -0.12635425 0.111761026 -0.3510438 0.023874514 -0.0017013765 -0.18143742
-0.121684454 -0.031573553 -0.13471921 -0.06605771 0.09943676 -1.0914277 -1.9190737 -0.46151564
0.05245286 0.5751028 0.46487945 0.75911516 -1.5565313 0.079329774 -0.0027267537 -0.042699546
0.55698115 1.2132406 0.4487906 -1.7359948 0.40901995 0.5783094 0.37352973 -1.1640896
1.4409798 -0.03707472 -0.27938923 -0.41635612 1.2930046 -0.40439582 -0.74127567 -0.7765383
0.09638175 -0.09060411 1.3225807 0.6439718 -0.14509185 0.38434497 -0.25271797 0.294739
-0.056086525 -0.112667374 -0.07267083 -0.046347033 -0.09097211 -0.028762726 -1.2217854 1.1231014
-1.0427456 0.29406938 -0.26481795 -0.1686576 0.98660463 0.044069126 0.21351422 1.3202507
-0.36047718 -0.53988373 1.5408193 -0.14398657 0.1501141 0.14277928 -0.17926896 0.18821765
0.8333425 -0.15668803 -0.21385567 -0.55119234 0.041955866 0.07258138 1.8532647 0.94811755
-1.4350708 -0.7995876 1.4216146 0.39903793 0.21279609 1.2944859 0.0065531414 0.39841387
0.017516341 0.4336346 0.04426386 0.44363582 -0.9111157 -0.78419995 -0.5485552 1.1475126
-0.20808859 -0.8158449 -0.456987 -0.017774679 -1.2249513 -0.9247747 0.53921336 0.81497395
-0.7215779 0.39908138 0.04007543 -0.053936996 1.1353161 0.2492619 0.27321008 0.18864809

layers.0.bias f4 [128]
00000000: 410b aa3f 62f4 df3f 99c1 73be 2154 333f
00000010: 66b3 cdbf cc3d ad3f 938d 33bf c631 553f
00000020: 706b 893f f104 e1be b0ac 363f 2c62 37c0
00000030: 379f a13f a6c0 24c0 5f11 9e3f 6816 81bf
00000040: 09b9 883f c032 db3f b443 c83d cfc9 a83f
00000050: 8ceb 743e 544b a6bf 5053 983f 0d9e 7d3f
00000060: 1b60 a73f 20f4 843f f076 5a3e 429b fdbf
00000070: 1012 063e ccbe ad3f 9d8b 243f 0b2a 023f
00000080: d9f9 293f be9f cabe 420c 763d 2207 a63f
00000090: 7d3e 6d3f dfa1 b7be f64a 4c3f 49b5 9b3d
000000a0: b093 6f3f a8cb 593f 09ff f93f 1f1f 823f
000000b0: 8acb 35bf 272d 613f 9ba3 473f cc19 a63f
000000c0: be52 c2be bab0 fbbf 0ae8 2b3f ea38 923f
000000d0: 71c5 c13e 5024 b33f 7a61 9d3f 9aff 873f
000000e0: 1bc8 52bf 1659 883f 1a9c 803f 30cc 953d
000000f0: 0b03 96bf 3c2a bd3f 01b7 d13f d6fc 623f
00000100: 48ec 9cbe d041 5b3f 67af 0ac0 328a e6bd
00000110: 2a23 e1be bc00 483f 045d 763f 3701 febf
00000120: 2f5e f2bf 7a07 963e ab80 c33f 3309 813f
00000130: 4a2d 823f 8061 863f 2e93 763f 19cf 573f
00000140: 72f3 413f 2715 433f 0efa d03f f5dd 0f3f
00000150: dcea 953f b938 6d3f cd21 2e3f 4ab1 3d3f
00000160: 18b3 1a3e 5285 1d3f 369b f9bf 8288 31bf
00000170: 8419 653f a2e3 7f3f 8ff5 bb3f 2a34 7c3f
00000180: a38a 9dbf 5f58 cfbe 9301 fe3c 8ebe d63f
00000190: 2c3c 5f3f 8e35 8f3f 129b 8dbf fbe5 f33f
000001a0: fa86 b43f 35c1 d33e 2dc1 2b3f ee60 4f3f
000001b0: 9bd1 7a3f 595e 483f 1ac3 903f 32fa 893f
000001c0: 8660 613f 1002 883f 35cc 5cbf 2230 713f
000001d0: 0048 a93f 8369 3f3f 0a16 643f 498a b13f
000001e0: d563 5f3f 24d8 9b3f 0611 43bd 6fb4 213f
000001f0: bc60 2cbf a049 e4bf 9f2e a7bc 5593 823f
1.3284684 1.7496455 -0.2380432 0.70050246 -1.6070373 1.3534484 -0.701379 0.83279073
1.0735912 -0.43949082 0.7135725 -2.865367 1.2626714 -2.5742583 1.2349051 -1.0084963
1.0681468 1.7124863 0.09778538 1.3186587 0.23917979 -1.2991738 1.1900425 0.9906929
1.3076204 1.0387001 0.21334434 -1.9813006 0.13092828 1.3573852 0.6427553 0.508454
0.6639686 -0.39575 0.060070284 1.2970927 0.92673475 -0.35865685 0.7980188 0.07602937
0.9358473 0.8507638 1.9530956 1.0165747 -0.710137 0.8795952 0.7798402 1.2976623
-0.37953752 -1.9663308 0.6715094 1.1423619 0.37845948 1.3995457 1.2295372 1.0624878
-0.82336587 1.0652187 1.0047638 0.07314336 -1.1719679 1.4778514 1.6383973 0.8866705
-0.30649018 0.85647297 -2.1669557 -0.112568274 -0.4397214 0.7812612 0.9623568 -1.9844121
-1.8934993 0.2930258 1.5273641 1.0080932 1.0170071 1.0498505 0.9631833 0.8430038
0.75762093 0.7620415 1.6326311 0.56198055 1.1712298 0.92664677 0.68020326 0.74098647
0.15107381 0.61531556 -1.9500492 -0.6934892 0.8949206 0.99956715 1.4684314 0.98517096
-1.2307934 -0.4049711 0.03100661 1.6776903 0.8720119 1.1188219 -1.1062949 1.905456
1.4103692 0.41358343 0.6709164 0.8100728 0.9797608 0.78268963 1.130954 1.0779479
0.8803791 1.062563 -0.86249095 0.9421407 1.3225098 0.74770373 0.8909613 1.3870326
0.87261707 1.2175336 -0.047623657 0.63165945 -0.67335105 -1.7834969 -0.020407973 1.0201212

layers.2.weight f4 [3, 128]
00000000: 863e df3d e2df 2bbe 74a5 c7be de1a 21be
00000010: 4a1b 64bf 411e 31bf 9283 40bf 50cb eabd
00000020: 8700 b83f 7870 73bf c6bc 74be 422e 2940
00000030: 93f6 31be e7f0 3bc0 9faa bebd c57e fd3f
00000040: 7f1a d4be a7ce 94bd 8b04 3abf b183 9cbe
00000050: 779d 26bf a03d 51bf ba88 24be 172b 94bf
00000060: 913e 25be 4dbc c5bd 852a a73f 9997 de3f
00000070: decc 9abf 2a5e 9ebf 25cd 8cbc f8e0 f03e
00000080: 518b 92bd 3047 863e 5330 003d d380 21bf
00000090: 919b 1dbe 4c45 e2bb a5df 033f 83bb 6f3f
000000a0: 07fa 2040 fadf 1bbe 0826 0dbe 7c4a 3ebf
000000b0: f221 abbe b4d5 da3f 6528 44bf eea8 eabd
000000c0: ccea 7bbf 4c93 573f 0cc4 98bf ce61 87be
000000d0: f0aa e8bc d540 83bf 0603 47bf 0c30 9abe
000000e0: 7c68 3ebf 0bf1 b4bf 3fb0 173f 3a40 83bc
000000f0: d2fc b53e 1dff aebd e42b 9cbf 81d2 ff3d
00000100: 52b0 a03e 460c 663e 08af 6c3f fef5 debe
00000110: 5cf3 19be c238 d9be 804f 6abf 8d0f b33f
00000120: 7a9a 9b3f f2a4 bebf 0f0f 57bd 9c88 df3e
00000130: 7cde aabf 1ef6 acbe 2a20 31bf bcc8 00bf
00000140: 7940 4dbe a363 66be b33a e5bd aed9 0fbe
00000150: 743d 04bf 8f3c dfbe ace5 bc3e 90fc 93bb
00000160: d913 37bf 3bf8 833e e3f9 0bc0 ec1c 123f
00000170: ed65 ad3e 8ed4 52bf 06a9 4fbf c1f7 79bf
00000180: d9b0 913f 2ce0 a5bf e25c 9c3f c277 16be
00000190: 1050 233e 4a91 00bf 1f1f b1bf 8605 f9bd
000001a0: 42df edbe ae86 193f bcef 8a3e c7fb 7c3e
000001b0: 4756 fbbd 927d 653e 7c50 47bf cbcc 62be
000001c0: 066b 20bf d8e5 acbf d5c5 debf 6a33 3abe
000001d0: d6c8 0dbe 9196 fc3e 2def be3e 710c 57bf
000001e0: 9474 e7be 0bcd fcbd ee25 5c3e b151 2dbf
000001f0: fcd8 d4bf 0434 743f e412 a8be ef20 b93e
00000200: 306e d6be df13 9bbe 5d72 b2be 2ce2 f93d
00000210: 99e6 d63e 68e2 a6be e1bf 85be bf47 d93c
00000220: cc38 09bf 0798 9dbf b176 f93d 254a ed3f
00000230: 92bd 04be c907 a4bf 2507 723d a526 0940
00000240: 3114 aebd 3725 f9be b192 80bf fbde 84bd
00000250: d335 8abf ded0 65bf 00e4 f5be 9139 39be
00000260: cc50 7ebe d20d 713d f581 97bd dd05 0640
00000270: 4147 8ebe 2258 40bf c662 1f3e 368b 9dbe
00000280: 14e0 1bbc 70fe a5bf bf05 adbe 470e b8be
00000290: acfc daba a7ea 863e 4345 ad3e 40af 303f
000002a0: b4da fe3f c2d3 c6be 2b82 f3be cc41 c4be
000002b0: 441b 85bf 124c a6be dfff f4be f42b 13bf
000002c0: 533d 67be e960 9e3f fd7f 7abe 03fc dabe
000002d0: 9a27 9cbe 6ed6 3cbf a52d d8bd 21bf e0be
000002e0: 9045 f5bb db6e f5be d15f 10bf 6f1b 45bf
000002f0: 2d56 853f 5fe0 1dbf faca d9be 4e7a af3c
00000300: 22ca 35bf a7e1 233e 185d a63f c5cf 97be
00000310: ec70 e1be 5688 07bf 1045 573f f8b0 1240
00000320: 52c3 963f 71b7 7fbe 04ce 90be 5768 133f
00000330: bbc6 a7be 0dce 02bf c57d d4be f236 38bf
00000340: 08ff b5be 2187 7b3d d4d5 b7be c6a1 a03d
00000350: e558 90be bd03 cdbe 816b fa3e 67bf 1abe
00000360: 9540 61bf 9aca 653e b886 85bf b300 463f
00000370: a03e c0be 9930 ef3b 8aff 74be d222 3abf
00000380: 7c38 b03f e87f b1bf 253d c13f 631b 01bf
00000390: 35fa 66bf 43b2 25bf 8459 19bf 94cd 1ebe
000003a0: 0470 38bf 979c 79bf 63ba 6dbf 1318 2c3f
000003b0: 078b 143d 2acb 11be 155a f03d 57f7 923e
000003c0: 57bd 8abe 7f50 24bf 557b 29bf fdf1 97be
000003d0: c8f1 07bf f101 fdbe a744 98be 2de8 7bbf
000003e0: c3ec 88bd d7ac 2d3e b0a0 edbe 1291 c7be
000003f0: 2e4b eebf 9a01 4c3f b017 ddbe 67de f43f
0.10900597 -0.16784623 -0.38993418 -0.15732905 -0.8910414 -0.6918679 -0.7520076 -0.1146456
1.4375161 -0.9509349 -0.23900136 2.6434484 -0.17379217 -2.9365785 -0.09309887 1.9804312
-0.41426465 -0.07265978 -0.7266318 -0.30569223 -0.6508402 -0.8173466 -0.16067782 -1.157565
-0.16137148 -0.09655056 1.3059851 1.7390014 -1.209377 -1.2372487 -0.017187664 0.47046638
-0.07155479 0.26226187 0.031296086 -0.63087195 -0.15391375 -0.0069052335 0.5151313 0.93645495
2.5152605 -0.15222159 -0.13784039 -0.74332404 -0.33424336 1.7096467 -0.7662414 -0.11458002
-0.98405147 0.8420913 -1.1934829 -0.26441807 -0.028401822 -1.025416 -0.7773899 -0.30114782
-0.7437818 -1.413606 0.59253305 -0.016021837 0.3554445 -0.08544753 -1.2200894 0.12491322
0.31384522 0.2246562 0.92454576 -0.43547052 -0.1503424 -0.42426115 -0.9152756 1.3989121
1.2156518 -1.4894087 -0.052504595 0.43658912 -1.3349147 -0.33781523 -0.69189703 -0.50306296
-0.20044126 -0.22498946 -0.111928366 -0.14047882 -0.5165627 -0.4360089 0.36893976 -0.004516192
-0.7151466 0.25775322 -2.1871269 0.5707538 0.33866826 -0.8235558 -0.81117284 -0.9764367
1.1382095 -1.2959037 1.2215846 -0.14694121 0.1594851 -0.50221694 -1.3837622 -0.12159257
-0.46459395 0.5997113 0.27136028 0.2470542 -0.122723155 0.22411183 -0.77857184 -0.22148435
-0.62663305 -1.3507643 -1.7404124 -0.18183675 -0.13846144 0.49333623 0.37291852 -0.8400336
-0.4520613 -0.12343796 0.21498844 -0.67702776 -1.6628718 0.9539187 -0.32826912 0.3615794
-0.4188094 -0.30288598 -0.34852877 0.12201342 0.41972807 -0.3259461 -0.26122954 0.026523469
-0.5360229 -1.231202 0.12180842 1.8538252 -0.1296294 -1.2814876 0.059088845 2.1429837
-0.08499945 -0.48661205 -1.0044767 -0.06487843 -1.0797676 -0.8977183 -0.48025513 -0.18088366
-0.24835509 0.05885107 -0.07397834 2.0941079 -0.27788737 -0.7513448 0.15565023 -0.30770272
-0.009513874 -1.2968273 -0.33793446 -0.35948393 -0.0016707382 0.263509 0.33841905 0.6901741
1.9910493 -0.38833433 -0.47560248 -0.3833145 -1.0398946 -0.32479912 -0.47851464 -0.5748894
-0.22581987 1.2373325 -0.24462886 -0.42770395 -0.30498964 -0.73764694 -0.10555581 -0.4389582
-0.007485099 -0.4793614 -0.56396204 -0.76994985 1.0416924 -0.6167049 -0.4253767 0.021420624
-0.71011555 0.16004048 1.299716 -0.29650703 -0.44031465 -0.5294241 0.84089756 2.2920513
1.1778357 -0.24972321 -0.28282177 0.57581085 -0.32768807 -0.5109566 -0.41502205 -0.7195884
-0.35546136 0.061408166 -0.35905325 0.07843356 -0.2819282 -0.40041915 0.48910144 -0.15112077
-0.8798917 0.22440568 -1.0431738 0.77344817 -0.3754778 0.0072994945 -0.23925605 -0.7270938
1.3767238 -1.3867159 1.5096785 -0.50432414 -0.90225536 -0.6472513 -0.59902215 -0.1550811
-0.7204592 -0.9750456 -0.9286253 0.67224234 0.0362654 -0.14237657 0.11735932 0.2870433
-0.2709758 -0.6418533 -0.66203815 -0.2967681 -0.53103304 -0.49415544 -0.29739878 -0.9840115
-0.06685784 0.16960464 -0.46411657 -0.38977867 -1.8616693 0.79689944 -0.43182135 1.9130372

layers.2.bias f4 [3]
00000000: cfc7 16bf 7377 163e 32bc 1ebf
-0.58898634 0.14694004 -0.62005913
