models/acrobot_v1_r1_200epoch.model (torch, 7923 bytes, 4 tensors)

layers.0.weight f4 [128, 6]
0.036239546 1.1496029 -0.041389473 1.2433729 -0.19469449 -0.22041032 -0.056795884 -0.074975505
0.81540495 1.2807693 -0.11442034 -0.24953108 -1.0550394 -1.0415927 -1.9098239 -0.6719621
0.22525369 0.18330003 1.4069326 -0.57382333 1.0429379 1.4870899 -0.23825197 -0.34933063
-0.12183698 0.85358316 1.625354 -0.5480208 0.032074247 0.31585124 0.4970863 1.1500797
-0.1185959 -0.690978 -0.15016718 0.077019125 0.3525685 1.4542158 -0.44474566 -0.7119378
-0.3892806 -0.3254363 1.3631169 0.12190972 0.18390182 0.03683499 0.45653743 0.13480805
0.070915915 -1.9080379 0.21015194 0.27020723 0.22715665 -0.19780767 0.71656466 0.80651456
0.40463388 0.41984257 0.36091384 0.29565474 1.4521264 0.04637074 0.8243739 1.0921909
-0.7013772 -0.20596735 1.1758585 0.48625615 0.040546976 -0.34489623 -0.29690653 0.020792171
1.1310714 0.47794867 0.47759435 -0.37508604 -0.32911283 -0.025213666 1.2892984 -0.9251928
-0.05412225 0.37130567 0.3834606 0.009346297 -0.014787539 0.89016914 -1.0685854 0.6329232
0.060304303 0.0042886445 1.312807 0.54238576 0.5712864 -0.65083855 -0.055090237 -0.0022153652
0.530551 0.21896964 -0.39911863 0.10054972 0.16032918 -0.11657039 1.0111405 -0.9959233
-0.47844806 -0.06009272 0.45700583 0.4115615 1.0545603 0.7918341 0.46013814 0.5183713
0.42702278 0.36102825 1.7453579 -0.32175907 0.6941862 0.49877906 0.23643649 0.4087207
0.13674846 0.32670316 0.8047831 -1.6301612 0.12506093 0.38033542 0.6206182 1.0652201
-0.61314976 -0.856797 -0.2508843 0.26918313 1.0239893 -1.5168742 0.96018326 -0.6722656
0.022654125 -0.33417925 1.5707369 -1.1338139 -1.2200034 -0.7545122 0.493231 -0.117535844
0.7499484 -2.18051 0.108852595 -0.20973784 0.34171593 -0.2525248 0.92848206 -0.96820927
-0.29081133 0.7258268 -0.2725707 -0.012889512 0.8635598 0.54282194 1.3990273 0.021245282
0.27525434 0.38265297 1.5486134 -1.1966158 0.97505677 0.06263368 0.35730743 0.42220116
0.6861279 0.3046831 -0.20761044 0.30319422 0.20124477 0.2496805 0.14424898 0.8246726
-0.15444924 -0.25581235 0.103365585 -0.11400234 -1.3692598 -0.044830203 -1.5444225 0.066408835
2.466133 0.41983822 0.4613269 -0.9063177 0.38746157 1.003227 0.15895915 0.18953823
1.1336929 -0.8119921 0.2530915 0.55159163 0.45147157 0.117734745 1.5053358 -0.50621694
-0.23906605 -0.100166485 0.48177987 0.053059675 1.1332238 1.4528189 -0.8678143 -1.2776732
-0.3535416 0.37636304 0.49159682 0.14241102 0.12950197 -0.08063837 -0.17075168 -0.32398954
0.6751251 -0.7793692 1.6924055 0.76040894 0.14014632 -0.125922 1.3429023 0.005008598
0.37854415 -0.5525085 0.07654628 -0.24076271 0.31566423 -1.9443079 0.100258075 3.7880719
1.0981168 -0.8144667 1.9523827 -0.3727372 0.7524041 0.3847696 -0.49254972 -0.4758853
0.96371126 -1.0569562 -0.6935913 -0.1735604 0.2957899 -0.15777117 0.6475682 -0.73995334
0.6192697 1.1075389 0.2383902 0.22935271 -0.76999503 0.7274095 0.5649697 -1.4674155
00000000: eb6f 143d 3026 933f 0288 29bd d826 9f3f
00000010: fe5d 47be 3eb3 61be cda2 68bd c28c 99bd
00000020: 61be 503f 40f0 a33f 3655 eabd 1385 7fbe
00000030: 880b 87bf e952 85bf 1c75 f4bf b505 2cbf
00000040: e7a8 663e 01b3 3b3e 5e16 b43f 16e6 12bf
00000050: fd7e 853f f658 be3f 53f8 73be 77db b2be
00000060: ab85 f9bd 6d84 5a3f 9a0b d03f 174b 0cbf
00000070: 4960 033d 41b7 a13e 1882 fe3e d035 933f
00000080: 68e2 f2bd efe3 30bf 6dc5 19be 34bc 9d3d
00000090: dc83 b43e be23 ba3f b4b5 e3be 8e41 36bf
000000a0: c94f c7be 969f a6be 9d7a ae3f ceab f93d
000000b0: c250 3c3e 49e0 163d 46bf e93e 1f0b 0a3e
000000c0: 5d3c 913d 963a f4bf 1232 573e 9a58 8a3e
000000d0: c19b 683e 188e 4abe c870 373f bd77 4e3f
000000e0: 2c2c cf3e 9bf5 d63e b3c9 b83e 0f60 973e
000000f0: 47df b93f 3fef 3d3d 2b0a 533f e9cc 8b3f
00000100: 758d 33bf 1be9 52be 8882 963f 91f6 f83e
00000110: 9614 263d 3d96 b0be 2204 98be 5854 aa3c
00000120: f3c6 903f b0b5 f43e 3f87 f43e 470b c0be
00000130: 7a81 a8be e48c cebc bb07 a53f 6fd9 6cbf
00000140: 4baf 5dbd c71b be3e f354 c43e 3621 193c
00000150: 6f47 72bc 20e2 633f 68c7 88bf 4107 223f
00000160: a501 773d c287 8c3b 0f0a a83f cbd9 0a3f
00000170: d33f 123f 5b9d 26bf 4da6 61bd a92f 11bb
00000180: 31d2 073f 9439 603e 4759 ccbe 03ed cd3d
00000190: 552d 243e 75bc eebd 0d6d 813f d4f4 7ebf
000001a0: 25f7 f4be c923 76bd abfc e93e 30b8 d23e
000001b0: d5fb 863f a4b5 4a3f 3a97 eb3e fbb3 043f
000001c0: bba2 da3e b2d8 b83e e367 df3f 9bbd a4be
000001d0: 30b6 313f f85f ff3e 681c 723e d743 d13e
000001e0: ca07 0c3e a345 a73e 4406 4e3f 1fa9 d0bf
000001f0: f90f 003e 53bb c23e d6e0 1e3f 2259 883f
00000200: 62f7 1cbf 0c57 5bbf e873 80be 5fd2 893e
00000210: 1512 833f ef28 c2bf 92ce 753f 9919 2cbf
00000220: 2595 b93c 8b19 abbe e80d c93f d020 91bf
00000230: 1229 9cbf b627 41bf c688 fc3e a2b6 f0bd
00000240: 9efc 3f3f 7a8d 0bc0 1cee de3d 84c5 56be
00000250: 64f5 ae3e ee4a 81be 00b1 6d3f 90dc 77bf
00000260: 39e5 94be c9cf 393f 638e 8bbe 882e 53bc
00000270: 4112 5d3f 61f6 0a3f 5413 b33f 960a ae3c
00000280: 23ee 8c3e 17eb c33e f738 c63f b52a 99bf
00000290: 529d 793f 1646 803d 00f1 b63e c02a d83e
000002a0: 14a6 2f3f 6cff 9b3e d597 54be 463c 9b3e
000002b0: 1c13 4e3e 3fac 7f3e 01b6 133e be1d 533f
000002c0: f127 1ebe d6f9 82be 56b1 d33d 0f7a e9bd
000002d0: e843 afbf e09f 37bd a3af c5bf 5b01 883d
000002e0: 20d5 1d40 09f5 d63e 0a33 ec3e 7004 68bf
000002f0: 5d61 c63e be69 803f 30c6 223e 4f16 423e
00000300: d91c 913f b7de 4fbf 3695 813e 1c35 0d3f
00000310: 4827 e73e ea1e f13d d8ae c03f 6f97 01bf
00000320: bbcd 74be 1624 cdbd daab f63e 1a55 593d
00000330: 7a0d 913f f8f5 b93f 1429 5ebf cc8a a3bf
00000340: 6803 b5be a8b2 c03e 94b2 fb3e 32d4 113e
00000350: 2a9c 043e bb25 a5bd 87d9 2ebe f5e1 a5be
00000360: 00d5 2c3f bd84 47bf bea0 d83f 29aa 423f
00000370: 8482 0f3e b2f1 00be 39e4 ab3f 2a1f a43b
00000380: 8ad0 c13e 3271 0dbf 4cc4 9c3d 808a 76be
00000390: be9e a13e 15df f8bf 1b54 cd3d c56f 7240
000003a0: 178f 8c3f e480 50bf ade7 f93f 69d7 bebe
000003b0: 8e9d 403f 8500 c53e 7a2f fcbe 3da7 f3be
000003c0: c8b5 763f 574a 87bf 338f 31bf d1b9 31be
000003d0: c671 973e c48e 21be 08c7 253f 956d 3dbf
000003e0: 7688 1e3f d6c3 8d3f 901c 743e 70db 6a3e
000003f0: 651e 45bf 8237 3a3f dba1 103f 45d4 bbbf

layers.0.bias f4 [128]
0.8617859 0.51071334 0.8811754 -0.6649721 0.7523513 -0.013778717 0.37451088 1.1376833
0.25288 1.4908351 0.584291 0.88477224 0.88429743 0.7449035 0.81821924 0.61847264
1.0164891 1.0699039 1.6070681 0.80797863 0.52019304 0.80293834 0.10148825 0.56138545
0.120201536 0.5834375 1.253198 -0.48961604 1.4034497 1.1615827 -2.2356548 0.69425815
0.873932 0.93162173 1.0011882 1.1549697 -0.16204518 0.90359557 0.6223006 0.36102328
0.6110744 0.68288475 0.5591437 1.1662194 2.2468112 1.1161069 0.5542562 -1.548285
0.23702015 1.0681638 1.4042631 -0.0030433347 0.9681928 1.6057642 -0.74082696 0.20443273
0.82061684 0.72424054 0.25802082 1.615979 0.3487954 -2.2116544 0.80656844 -1.2514327
1.4139376 0.6939688 -1.2135684 0.72617567 1.4320954 0.74245334 0.92378867 1.0432147
0.22019736 0.8057393 1.1397368 -0.98366654 -0.088792734 0.49833572 0.79861605 0.0065718284
-0.59705627 0.33750337 -0.18123992 0.31316775 0.5557353 0.93050355 1.3052431 0.59570485
0.66290194 0.12720491 0.25782087 0.16076508 -0.3914896 0.003626712 1.3066756 0.8312647
1.166934 0.7756843 0.14876723 1.2351917 -2.099276 1.5545983 0.22013782 -0.82029986
0.6823266 -0.12194171 0.9591949 0.1877599 0.48561537 0.7672371 0.17677079 0.30848932
0.56236905 0.1655436 1.19213 1.4404662 1.4870119 1.1487343 0.8992441 0.1404976
0.23206139 0.5859615 0.6746877 1.1311606 0.64105964 1.2189704 0.87698835 0.75861925
00000000: 009e 5c3f 1cbe 023f b694 613f 9d3b 2abf
00000010: 189a 403f 21c0 61bc e4bf bf3e 9b9f 913f
00000020: 7d79 813e afd3 be3f 1894 153f 6f80 623f
00000030: 5161 623f ffb1 3e3f d176 513f 3954 1e3f
00000040: 511c 823f 9cf2 883f 68b4 cd3f b0d7 4e3f
00000050: 5f2b 053f 5e8d 4d3f 12d9 cf3d f5b6 0f3f
00000060: 392c f63d 295c 153f cb68 a03f f4ae fabe
00000070: 3da4 b33f beae 943f f814 0fc0 e7ba 313f
00000080: 02ba 5f3f c37e 6e3f ef26 803f 0cd6 933f
00000090: 2cef 25be 0a52 673f 184f 1f3f 0bd8 b83e
000000a0: 5f6f 1c3f 89d1 2e3f 0b24 0f3f ad46 953f
000000b0: c1cb 0f40 97dc 8e3f bce3 0d3f 342e c6bf
000000c0: 69b5 723e 97b9 883f e5be b33f af72 47bb
000000d0: 7cdb 773f ae89 cd3f d6a6 3dbf d056 513e
000000e0: f213 523f d467 393f 4e1b 843e 66d8 ce3f
000000f0: 5095 b23e bf8b 0dc0 457b 4e3f f22e a0bf
00000100: e8fb b43f f0a7 313f 3656 9bbf a6e6 393f
00000110: e74e b73f 6c11 3e3f 6a7d 6c3f 0f88 853f
00000120: 6b7b 613e ee44 4e3f e5e2 913f 92d1 7bbf
00000130: f7d8 b5bd dc25 ff3e 1a72 4c3f 7e58 d73b
00000140: aed8 18bf 3ecd ac3e f596 39be 8657 a03e
00000150: ab44 0e3f 7b35 6e3f 3512 a73f 1d80 183f
00000160: f1b3 293f 0142 023e 1901 843e 9a9f 243e
00000170: 5371 c8be 21ae 6d3b 2541 a73f c3cd 543f
00000180: 185e 953f 3f93 463f 7056 183e c31a 9e3f
00000190: 8a5a 06c0 14fd c63f cf6b 613e 2cff 51bf
000001a0: f5ac 2e3f 93bc f9bd cc8d 753f 2244 403e
000001b0: 94a2 f83e a769 443f 6703 353e 50f2 9d3e
000001c0: 6bf7 0f3f 4384 293e b797 983f 3261 b83f
000001d0: 6856 be3f ba09 933f dd34 663f 9ade 0f3e
000001e0: 80a1 6d3e 9301 163f 55b8 2c3f dfc9 903f
000001f0: 7c1c 243f 3907 9c3f 4f82 603f df34 423f

layers.2.weight f4 [3, 128]
0.051834613 -0.2296486 -1.3517923 -0.39658904 -0.1603354 -0.6276346 -0.5464303 -0.25371325
-0.81279945 -1.1861315 -1.1771907 -0.45929322 -0.57148737 -0.2900375 -0.32174587 -0.21963793
-0.29333442 -1.2554725 -1.1794825 -0.9434953 -0.8214984 -0.8049405 -0.3854079 -0.63672364
-0.68958557 -0.8413117 -0.6369749 -1.4291266 -0.9848138 -0.13687503 2.2902775 -0.645429
-0.14877951 -0.48413876 -1.9550685 -0.022450723 -0.8068942 -0.086759575 1.6775565 -0.47276768
-0.33267957 -0.29867253 -1.3670552 -0.15263925 0.2051947 -0.7095277 -0.82945263 -0.09366745
-0.635157 -0.7248922 -0.051750757 -1.2429267 -0.6128575 0.71799827 1.7658594 -2.0451992
-0.4139237 -1.3493769 2.2697842 -0.9565825 -0.8185127 1.2799121 -1.1710627 -2.5087423
-1.0749533 -0.468157 2.5744603 -0.7946221 0.043023866 -0.6405479 -0.016216723 -0.27066776
-0.20555446 -0.44338349 -0.120641455 -1.3251694 0.69822073 -1.1176534 -0.62799096 -0.04684342
2.7077415 -0.4333416 -0.7833476 -0.13704418 -0.15115786 -1.0812051 -0.033770088 -0.7272231
-0.8897984 -0.45901835 -0.18326724 -0.8240247 -0.60041434 -0.6823598 -0.8699804 -1.0076892
-0.5105835 -1.0022246 -0.5060531 0.42530367 1.7112684 -0.83196723 -0.48771647 2.2767832
-0.51837814 -0.93312377 -0.6755031 -0.9566426 -0.81950086 -0.26291156 -0.578519 -0.6537724
-0.10034518 -1.0165102 -0.24232115 -0.87323326 -0.7855839 -0.10456307 0.023365859 -0.721239
-0.85573906 -0.15581445 -0.4367742 -0.76175386 -0.84283954 -0.13426664 -0.3010828 -1.1515406
-0.5694938 -1.1117239 -1.6307226 -0.6327942 -1.3988227 -0.41360146 -0.9252724 -1.4857115
-0.099397354 -0.77368546 -0.32057533 -0.31097224 -0.03680037 -1.0463226 -0.8783322 -0.69624156
-0.35413092 -0.3169565 -0.6056893 -0.67095345 -1.3977672 -0.7372092 0.17114742 -1.5798582
0.17697096 -0.39527032 -1.0360217 -0.33075324 -0.39164162 -0.92182714 1.5262161 -0.5110578
-1.2029018 -1.4012508 -0.66167396 -0.43898448 -1.1134261 -0.78495884 1.904704 -0.44723982
-0.7061895 -0.5863037 -0.2194538 -1.2543027 2.1164474 -0.012320154 -0.018882005 -1.0330588
-0.7518002 -0.19180219 -1.1955383 -0.3276166 -0.5086275 2.404652 1.5523176 -0.65022326
-1.5044578 -0.060182482 1.7426127 -0.6003295 -0.77783936 1.104422 -1.3383275 -0.67404956
-0.54901767 -0.10907744 2.0288932 -1.0735517 -0.9181989 -0.17577596 -0.6866145 -0.55727977
-0.40288368 -0.75894904 -0.7136727 -1.0556432 0.5819564 -0.70545805 -0.39646342 -0.3611737
2.1922536 -0.3144578 -0.8561512 -0.85446244 -0.720089 -0.3326489 -0.73592055 -1.8185544
-0.8477165 -0.9632037 -0.46501517 -0.7825679 -0.7918191 -0.3683931 -0.49858388 -0.23765594
-0.66315097 -0.7060703 -0.5444025 -0.89872473 1.6938167 -0.85648364 -1.6140927 2.006099
-0.33565474 -1.0688378 -0.56309956 -0.71089756 -0.55525553 0.34533975 -0.74802995 0.00076873455
-0.7963113 -1.1005965 -1.0857362 -0.22014526 -0.96255285 -0.8163228 -0.8602501 -0.5934193
-0.29579607 -0.91563696 -1.2255228 -1.4616054 -0.24643563 -0.5215012 -0.4683517 -1.013997
00000000: 8850 543d 0129 6bbe 8807 adbf b80d cbbe
00000010: f72e 24be a9ac 20bf dbe2 0bbf b4e6 81be
00000020: a013 50bf 28d3 97bf 2fae 96bf 7b28 ebbe
00000030: ff4c 12bf cc7f 94be e0bb a4be c4e8 60be
00000040: ee2f 96be 53b3 a0bf 48f9 96bf e888 71bf
00000050: b84d 52bf 9510 4ebf 2f54 c5be 5200 23bf
00000060: ae88 30bf 3460 57bf c910 23bf 9fed b6bf
00000070: c21c 7cbf f828 0cbe e893 1240 d63a 25bf
00000080: a859 18be 09e1 f7be af3f fabf 94ea b7bc
00000090: 9e90 4ebf 01af b1bd 2cba d63f 9b0e f2be
000000a0: fa54 aabe 9beb 98be aafb aebf 774d 1cbe
000000b0: 8f1e 523e 9ba3 35bf 0257 54bf b8d4 bfbd
000000c0: a699 22bf 8992 39bf 9af8 53bd 3918 9fbf
000000d0: 3be4 1cbf bcce 373f ae07 e23f 8be4 02c0
000000e0: cfed d3be 62b8 acbf 2544 1140 97e2 74bf
000000f0: 0c8a 51bf 29d4 a33f 62e5 95bf 3c8f 20c0
00000100: 1298 89bf 46b2 efbe f5c3 2440 5b6c 4bbf
00000110: cb39 303d f2fa 23bf efd8 84bc f794 8abe
00000120: de7c 52be 2903 e3be de12 f7bd 279f a9bf
00000130: 98be 323f 440f 8fbf 04c4 20bf e3de 3fbd
00000140: a34b 2d40 f3de ddbe 7889 48bf 4f55 0cbe
00000150: 20c9 1abe ee64 8abf 8152 0abd 4b2b 3abf
00000160: d4c9 63bf 7404 ebbe 68aa 3bbe 48f3 52bf
00000170: c1b4 19bf 22af 2ebf 09b7 5ebf f6fb 80bf
00000180: 9ab5 02bf e548 80bf b28c 01bf 67c1 d93e
00000190: d80a db3f cefb 54bf f9b5 f9be d1b6 1140
000001a0: 6eb4 04bf 33e1 6ebf c5ed 2cbf 88e6 74bf
000001b0: cfca 51bf 589c 86be d219 14bf a15d 27bf
000001c0: c681 cdbd 021d 82bf 0923 78be 378c 5fbf
000001d0: 071c 49bf 2a25 d6bd c269 bf3c 1ea3 38bf
000001e0: b711 5bbf d38d 1fbe dea0 dfbe 4d02 43bf
000001f0: 55c4 57bf 327d 09be 8627 9abe af65 93bf
00000200: 58ca 11bf f84c 8ebf 85bb d0bf cdfe 21bf
00000210: 9f0c b3bf 92c3 d3be a7de 6cbf cb2b bebf
00000220: d790 cbbd 4010 46bf 7322 a4be c137 9fbe
00000230: fcbb 16bd e6ed 85bf 61da 60bf e33c 32bf
00000240: a650 b5be 1f48 a2be 740e 1bbf 9bc3 2bbf
00000250: 09ea b2bf beb9 3cbf 4541 2f3e cb38 cabf
00000260: e037 353e df60 cabe 5c9c 84bf 7d58 a9be
00000270: 4085 c8be ddfc 6bbf 0d5b c33f afd4 02bf
00000280: b0f8 99bf 305c b3bf 7763 29bf 93c2 e0be
00000290: bf84 8ebf 10f3 48bf 57cd f33f 9efc e4be
000002a0: d6c8 34bf 0018 16bf 7fb8 60be fe8c a0bf
000002b0: e073 0740 79da 49bc 6fae 9abc 453b 84bf
000002c0: fa75 40bf cb67 44be 6607 99bf 5dbd a7be
000002d0: 6935 02bf d2e5 1940 58b2 c63f 0875 26bf
000002e0: 1392 c0bf e881 76bd ef0d df3f 32af 19bf
000002f0: 7b20 47bf b35d 8d3f 514e abbf 838e 2cbf
00000300: 6c8c 0cbf fe63 dfbd 63d9 0140 246a 89bf
00000310: 150f 6bbf 9dfe 33be f8c5 2fbf e3a9 0ebf
00000320: c546 cebe 7c4a 42bf 41b3 36bf 511f 87bf
00000330: 18fb 143f e698 34bf 41fd cabe c2eb b8be
00000340: e24d 0c40 9d00 a1be ba2c 5bbf 0dbe 5abf
00000350: c157 38bf f550 aabe 4a65 3cbf 64c6 e8bf
00000360: f303 59bf 8594 76bf 7816 eebe 5f56 48bf
00000370: a8b4 4abf 059e bcbe 6346 ffbe 145c 73be
00000380: 43c4 29bf 06c1 34bf f65d 0bbf d312 66bf
00000390: fcce d83f 8342 5bbf 979a cebf ed63 0040
000003a0: f0da abbe adcf 88bf 4b27 10bf 62fd 35bf
000003b0: 3a25 0ebf 5fd0 b03e e47e 3fbf e784 493a
000003c0: 0fdb 4bbf 59e0 8cbf 67f9 8abf c26d 61be
000003d0: dd69 76bf 88fa 50bf 5a39 5cbf 54ea 17bf
000003e0: 9572 97be 2f67 6abf eedd 9cbf e315 bbbf
000003f0: 9f59 7cbe 1a81 05bf cbcb efbe a7ca 81bf

layers.2.bias f4 [3]
0.16864553 -0.4863828 -0.03687733
00000000: 6ab1 2c3e 2b07 f9be af0c 17bd
