models/acrobot_v1_r2_200epoch.model (torch, 7923 bytes, 4 tensors)

layers.0.weight f4 [128, 6]
00000000: 10b6 853f 6d4b 053f fb02 543f bdc5 c1be
00000010: a2af 883d 1479 2fbe 9df9 2c3f 211a 173f
00000020: afe3 053f 36e0 53bf a122 1fc0 1118 983e
00000030: 2c10 833f 9554 3bbe 6b5a 663e 68e0 3d3c
00000040: 438e 583e fc88 3dbd 5fc5 19bf 298f 1cc0
00000050: 60b9 b43e 71fe 143e 6c90 d13f bbf7 1f3f
00000060: 588e 843d 0a66 b83f 2210 493f 8269 c9bf
00000070: 59a4 6fbf 713a ab3e 0d3c 7b3e beef 7a40
00000080: 47ee c03c acd6 eebd 7f9f ec3f 5e25 9fbe
00000090: e5ee 213f a694 22c0 e8db 79bf 8a14 bc3e
000000a0: a31f d43f afcb 113e c2eb e1bf 834f 313e
000000b0: deec a9bf bb10 a33f 5956 14bf 9c00 28bf
000000c0: 0fb2 673e e1dd e840 8ca3 50be c1b8 243e
000000d0: 944d 0b40 927a 8abd 501c 5e3f e1fc 473f
000000e0: fa09 36bf 8d9f 4abe e694 973e 91f9 273e
000000f0: 36d9 aabf eba8 92bf 3af7 d13e 5d26 eabf
00000100: 6f92 4bbf 9721 d13e c535 043f 2f5b 043d
00000110: 23c1 0a3e 7783 3ebd 6489 b93e cf5d 9f3d
00000120: 770f 14bd 442e 2ec0 555f 78bf 8036 ca3f
00000130: 555f f43e de5b ac3e 926f 033f 6858 c23f
00000140: e09d d2bf ca93 483f dc3c dabe c1dc 9abe
00000150: 39e5 8d3f 27be 653d 42b9 6c3e 84c0 7a3e
00000160: fa9f c13e df6f 0d3f 0eef b43e d3bf dabe
00000170: 7a42 c6bd 8e9c a93e 28a9 a53d 2e7e 873e
00000180: c536 b73f 88ec 7bbe 1971 cc3d d152 ed3e
00000190: 7f89 843e 4b2a 963e cd07 0540 3acc 2cbe
000001a0: 907d d83e cdbc ea3e 79d9 c93e 94f9 d63d
000001b0: f3d6 65bf 3af8 1240 2651 743e 07fb 8b3d
000001c0: 5f26 1740 01e2 abbd c402 d5bf 56ac 17be
000001d0: afd2 56bf da8d 68bf 845e 793e 0238 75be
000001e0: 98ff 863f 6774 0c40 29e0 10be 13df c1bf
000001f0: 40ac 3a3f 3054 24be a804 bfbf 37e3 7d3f
00000200: 843e 11c0 3d18 c7bf 0d3b 043e 7a0b 4f3f
00000210: 0b1f c23e 6a11 533f 0814 3ebf dd21 0f3f
00000220: 6a67 bc3f 6017 48bf 1570 3c3f 64f7 1ebf
00000230: f7a0 31bf ad05 a43e f263 9f3e 0a14 9e3e
00000240: 5618 153f 88b9 923f 0f06 eebe d082 cfbf
00000250: 47ce 6abb 6c87 21bd 0f37 893e c46e 353f
00000260: 0131 acbe c683 2fbd 9f57 be3e 363d f93d
00000270: b505 453f b2da 39bf e2ce 323e ed32 533e
00000280: e8df b4bc 0c16 c23a 4805 723f 3b84 0dbf
00000290: 0feb a93e 16bb 8a3d c5b4 d83e d198 bebd
000002a0: 4713 94bd b24d 14c0 7c2c 5ebf 4b8a c73d
000002b0: 38d0 2cbf 059d e6bd 06c5 a0bf e414 6e3f
000002c0: 0f47 133f 4281 ad3f e6f5 0240 d705 073d
000002d0: e36a c93c eed4 ee3f 8b71 d93f 0163 e7be
000002e0: fd52 67bf 5ce9 d1bf cfe0 8f3f b459 a43f
000002f0: 616e 223f 3ddc 09be e393 ccbd 0243 81be
00000300: 09f6 97bf cebe 8fbf 6da4 023f a012 c63f
00000310: 1457 ae3f 35a1 2e3e 3535 c4be bf2f debf
00000320: 8830 043d 98c6 bebf 76b8 a73e c682 96bd
00000330: dd54 753f 0a6f 88bf 4e70 523c b220 c1bf
00000340: 831b 393f 510c 983e f9a0 113c fcfb 5bc0
00000350: bdcd 31bf c9c7 c7be 997f b3be d697 223e
00000360: 64e4 0b3f 70cb cf3f aa37 98bf 64f9 d5bf
00000370: aa34 24bf f26d d83e 9f76 ee3f 0661 563e
00000380: f25b 973e 8fca 84be 7e7b ed3e 43e9 573e
00000390: 371f a13f 88df 33bd 8712 723e 4dd1 4d3e
000003a0: 9980 e43e a633 8d3e 951a 413f 159a 053e
000003b0: cdba e3bd 501e 62bd a21e 8a3e b08c 1abd
000003c0: c1ed fe3c 6851 ec3d be45 e1be cdfc 4cbd
000003d0: a846 dabc b23f 85bd 1bea ae3e e76c cfbf
000003e0: 38e9 683f c323 9abf a2cd 983e cf36 643e
000003f0: 01aa 053f a9d1 d0bd 3abb 073d f1e8 0e3d
1.0446186 0.52068216 0.8281705 -0.37846175 0.06674124 -0.17136031 0.6756838 0.59024245
0.5230054 -0.82763994 -2.4864886 0.2970586 1.023931 -0.18293984 0.22495429 0.011589147
0.21148019 -0.046273217 -0.6006679 -2.4462378 0.3529768 0.14550187 1.6372199 0.6248738
0.064724624 1.440614 0.7854024 -1.5735323 -0.9361015 0.33443025 0.24534626 3.9208827
0.02355112 -0.11662039 1.8486174 -0.31083196 0.6325515 -2.5403228 -0.97601175 0.3673442
1.6572155 0.14237855 -1.7650073 0.17315488 -1.3275411 1.2739481 -0.57944256 -0.6562593
0.22626518 7.277085 -0.20374888 0.16086103 2.17661 -0.0676166 0.8676195 0.7812024
-0.71108973 -0.19787426 0.29605788 0.16403796 -1.3347538 -1.14578 0.4100893 -1.8292958
-0.79520315 0.4084594 0.51644546 0.032313522 0.13550238 -0.046512093 0.36237633 0.077815644
-0.03614756 -2.7215738 -0.97020465 1.5797882 0.47728983 0.3366384 0.5134212 1.518323
-1.645443 0.7835051 -0.42624557 -0.30246547 1.1085578 0.056089547 0.23117545 0.24487501
0.37817365 0.55248827 0.35338634 -0.42724475 -0.09680648 0.33127254 0.080889046 0.26463455
1.4313589 -0.24601948 0.09982509 0.46352246 0.2588615 0.29329142 2.0786011 -0.16874781
0.42283297 0.4584717 0.3942373 0.10496822 -0.8978111 2.2964005 0.2385908 0.06834989
2.361717 -0.08392716 -1.6641469 -0.14811835 -0.8391523 -0.9084145 0.24352461 -0.23947147
1.0546751 2.1946046 -0.1414801 -1.5146202 0.7291908 -0.1604774 -1.4923296 0.9917483
-2.2694407 -1.5554272 0.12913151 0.80876887 0.3791431 0.82448447 -0.74249315 0.55911046
1.471906 -0.7816067 0.73608524 -0.6209624 -0.6938624 0.3203558 0.3113094 0.30874664
0.5824026 1.146287 -0.46488997 -1.6211796 -0.0035828517 -0.03943579 0.2679982 0.7087214
-0.33631137 -0.04285028 0.37176225 0.12169878 0.76961833 -0.7259933 0.17461732 0.20624895
-0.022079423 0.0014807596 0.9453931 -0.5527989 0.33187148 0.06773965 0.42325416 -0.09306491
-0.07230239 -2.3172421 -0.8678663 0.09743174 -0.67505217 -0.11260418 -1.2560127 0.93000627
0.575303 1.3555071 2.0462584 0.032964554 0.0245871 1.8658731 1.6987776 -0.4519272
-0.90361005 -1.6399341 1.1240481 1.2839875 0.63449675 -0.1346292 -0.09989145 -0.25246435
-1.1871959 -1.1230104 0.51032144 1.5474434 1.3620324 0.17053683 -0.38321844 -1.7358321
0.032272846 -1.4904356 0.3275792 -0.07349162 0.95832616 -1.0658886 0.012844158 -1.5088103
0.72307605 0.29696897 0.0088884765 -3.437255 -0.69454557 -0.3901961 -0.35058287 0.15878233
0.5464537 1.6233959 -1.1891987 -1.6716733 -0.6414286 0.42271382 1.862995 0.20935449
0.29562336 -0.2593579 0.4638328 0.21085076 1.2587651 -0.043914348 0.2363988 0.20099373
0.44629362 0.27578467 0.75431186 0.13047059 -0.11119614 -0.05520469 0.26976496 -0.037731826
0.03111923 0.115389645 -0.43998522 -0.050045777 -0.02664502 -0.065062895 0.34162983 -1.6205109
0.90980864 -1.2042164 0.29844385 0.22286533 0.5221253 -0.101962395 0.033137538 0.03489012

layers.0.bias f4 [128]
00000000: cc6c 0e3e a831 7e3e e915 fa3e 4046 dfbe
00000010: b605 c13e 0ad1 36bf 5e2c e1be 640f 353f
00000020: fd7b 66bd 58af a83e 7083 623f a5a3 4f3f
00000030: 1715 063d 5f85 823f abc3 a93d 9afa 3d3f
00000040: 1fd7 fb3e 2984 103d 2df3 523f 7d65 5cbf
00000050: ac56 e3be 9f80 fcbf f67e 763f b817 f83e
00000060: 5ecb d4be 5e9a 433f 876c 9a3f ac04 093f
00000070: ec66 5d3f e83b f43e 671c 523f e462 a33e
00000080: bf47 8b3e 49c0 243f 0a68 a5be 2142 2b3f
00000090: 1b8e cb3e 5efe 6fbd 1b54 2b3e 8f35 413f
000000a0: 9a4a 883f 32c7 493e 0533 013f aa3a 873e
000000b0: 157b f9be eed5 b13e 712f 293f e8d2 cfbe
000000c0: 0dc3 3d3f 7fd0 5f3e f744 9d3e a189 ea3e
000000d0: b49c fd3e 96ca a13e 7244 133e 8a93 0e3f
000000e0: 9906 bf3e b9d5 7a3e b8f7 eebe 65bf 183f
000000f0: 77de 193f b77b 093f 5dd6 a6bf 391e fcbe
00000100: 2a49 87bd d6fe 1c3f b8bd fdbf a8eb 0640
00000110: ba00 3c3f 154b ef3e 6de9 233f 1d41 1fbf
00000120: f692 0a3f 8750 3a3f 7a19 ac3e a5b3 ef3e
00000130: 7b3d 623f 74cb 273e 7c49 6c3f fe4d 823f
00000140: bdc8 8e3f 84b7 053f 4c48 833f 54cc f53e
00000150: 4c11 ad3f a23d 3b3f 6bb2 853f 3135 aa3d
00000160: a29d e2be 2ddf dc3e 16be d43e 86f6 433f
00000170: cff4 453f 7b9c 803f cfa8 8c3e c13a 31bf
00000180: 467b 60bf ba69 603f bed3 cf3e 8305 013f
00000190: a7f2 753d a5d1 003d 6ed0 fcbd 5084 5a3f
000001a0: 78ee c43d d471 5e3f 7ee1 5f3e ac37 8c3f
000001b0: 1961 6e3f 8398 193f c0aa 643f d2c7 4f3e
000001c0: 6052 493e c232 063f 8334 f23e 47cb 713f
000001d0: 3ef5 903f 0c19 1a3e b780 483f d174 173f
000001e0: 9f06 7e3f bde7 793e eade 273f 82ce bf3f
000001f0: 4800 613f 461b 043f 730a 8d3f 2fdb 283f
0.1390869 0.2482363 0.4884484 -0.43608284 0.3769967 -0.7141272 -0.43979162 0.7072661
-0.05627059 0.32946277 0.8848181 0.81109077 0.032734957 1.0196952 0.08289274 0.7421051
0.49187562 0.035282288 0.82402307 -0.8609236 -0.44402063 -1.9726752 0.96287477 0.48455596
-0.41561407 0.7640742 1.206437 0.53522754 0.8648517 0.47701955 0.8207459 0.31911385
0.27203175 0.64355904 -0.32305938 0.6689778 0.39756855 -0.058592193 0.16731302 0.7547235
1.0647767 0.19704893 0.50468475 0.26411945 -0.48726717 0.34733528 0.66088015 -0.40590596
0.7412575 0.21856879 0.30716679 0.45808128 0.49533617 0.31599873 0.14381579 0.55693877
0.3730972 0.24495591 -0.4667337 0.59667045 0.6010508 0.537044 -1.3034168 -0.49241808
-0.06605752 0.6132635 -1.9823523 2.1081333 0.7343861 0.4673697 0.64028054 -0.6220873
0.54130495 0.72779125 0.33613187 0.46816745 0.8837506 0.16386205 0.9229963 1.0180051
1.115501 0.5223315 1.0256438 0.48007452 1.3520904 0.7314092 1.0445074 0.08310927
-0.4426089 0.4313902 0.41551274 0.7654804 0.77326673 1.0047754 0.2747254 -0.69230276
-0.876881 0.87661326 0.40591234 0.50399035 0.060045864 0.031449933 -0.12344442 0.8535814
0.09615797 0.8689244 0.21863362 1.095449 0.9311691 0.5999834 0.89323044 0.20291069
0.1966033 0.524212 0.47305688 0.944508 1.1324842 0.15048617 0.78321403 0.5916262
0.99228853 0.24404807 0.65574515 1.4984896 0.87891054 0.51604116 1.1018814 0.6595945

layers.2.weight f4 [3, 128]
00000000: 85d3 24be b31b aa3f 118d 1dbd ece2 31c0
00000010: 8ded a93f d365 403f 6522 913f 8b22 98bf
00000020: b3ee 82be 0d9a 18bf b645 cebf 7734 5ebc
00000030: 5876 883f 28ef 8fbf cdb9 58bf 56f4 b7be
00000040: bc77 73bf fc80 5bbf 4845 fabf 16c7 f5be
00000050: a5b2 9ebf 2585 d03f d401 6ebf 8fcf 0cbf
00000060: 6c10 94bf 194a 4c3d 1855 f5be cc33 eabc
00000070: 0c4b 39bf c9c1 ffbf 3111 003f 251c 073f
00000080: 41ba 17c0 fd7c 37be 8df5 583f 1eea cebe
00000090: 9a93 80bf 8576 21bf 3c81 dbbe db30 0f3d
000000a0: 1ad7 3a3a 1347 9e3f 0b01 303e 2679 35c0
000000b0: cf5e cdbd 549d b3bf 7b65 c63d 7fef 48be
000000c0: 42c3 3c3d 662a adbf 3522 71bf 71bd 4abf
000000d0: adf7 11be b15f 05c0 9aab 08bf 4460 66be
000000e0: 60e1 55be d913 05c0 6e08 b03f 8385 873e
000000f0: f8b8 703d e883 aabd 2097 1640 10ed 7dbf
00000100: 4fa4 01bf 87c3 46bf 05ab 773f e340 8b3f
00000110: 1387 a53d f0be 9f3e da8f 8dbe 5ab5 563f
00000120: 2856 94be abea 923e 8d6e 4640 b625 19bf
00000130: 274c 8cbf 74b0 083c 96f2 98bb ccb7 87bf
00000140: bb48 b33e e5cf 3abf f4e4 02bc 708e a0bd
00000150: 6bb7 8cbf b977 d1bb c3c5 953d c135 61bd
00000160: cdf9 5ebe 1cb4 7bbf 97d6 2abf f813 c6be
00000170: d48b d0be e5a2 44bf 959e 8cbf c3b8 e33f
00000180: 9982 f6bf f04c a03f 61bd 2ebf 3d72 c83d
00000190: 0876 8e3f 38b9 87bc 7908 32bf 1c17 f4be
000001a0: 2f53 8bbf 4353 893c 5316 66bf 25c4 b63e
000001b0: c38f 77bf 327b 25bf 757e 11bf 7691 d5bf
000001c0: 3ee2 d7bd 7e65 a2bd a108 40bd 7a4e 93be
000001d0: 4d0f 91be 445e 57bf 1306 0d3b efc4 0bbf
000001e0: bf90 343c 3337 8e3d d3f4 4c3f d5ec 8e3f
000001f0: dcb1 71bf 66c2 493d 22a7 363d b049 5a3d
00000200: b622 45be 7c6f 843f d213 6bbe 86eb dbbf
00000210: e286 453e 5b79 813f d063 db3f 98a1 04bf
00000220: 6f75 0dc0 38a3 7abe cca6 063f e556 38be
00000230: 4958 ca3f 29d1 c9be 4714 1dbe 2076 54be
00000240: fc4e b7be b3d4 97be 25f6 ddbf 0dbf afbf
00000250: c787 78bd 0885 c73f afaf 8cbe 5f44 f9bd
00000260: ab57 c8be 0fa5 9abe f455 29be b8cc 2fbe
00000270: da8d e5bf 75a3 a5bf b1ad c23f d073 abbe
00000280: 941e a4bf c2ea c8be ac79 28be 19ca 76bf
00000290: 6ccf 46bf 009d 56be ddfd b1be 3604 17be
000002a0: 1fb9 11be 8187 f73f 0ebb 55bc f3b4 aebf
000002b0: e854 57bf fd3f 2ec0 e65a 92be 5de1 84bf
000002c0: 47ab ebbd 2fc9 c6bf 2a00 4cbf 38ba b1bf
000002d0: 75cc 85be fa78 cdbf 71b0 60bf c8e4 43bd
000002e0: 0326 2abe 0746 85bf 2cb7 1740 3600 6ebe
000002f0: 742c d5bd 524b 96be 457d d93f fe85 a8bf
00000300: 1b5c 8c3d 953f 6fbe 6206 9b3f 5528 453f
00000310: 6b2e e4bd 4ced 8bbe a241 78be da86 ac3f
00000320: 5400 01be 7a96 23be b468 cb3f 8e0d 87be
00000330: 2646 f6bf f1d3 e63d d464 8fbe becd c6be
00000340: 8cd5 01bf 9217 b6be 5672 08be f596 97be
00000350: 6ccd 5fbf be9c 55be 0165 9ebe a175 92bf
00000360: 14b8 b6bf 061a 90be bcb1 2dbe 4df3 4dbe
00000370: 4fdb 5dbd 5e20 8abf 24a2 79be bb48 0740
00000380: 51b9 0bbf e378 b43f 6bf4 38bf aed1 72be
00000390: 1232 8b3f 91b4 10be 3803 1ebf bb41 27bf
000003a0: 7d2e 923d 5247 59be 92ff 0fbf 6aa2 d2bb
000003b0: 3c8b 17bf 64e3 fbbd d560 f5bf f734 d7bf
000003c0: f623 273f 7d2e 64be f1bd efbd 9db7 55be
000003d0: f051 64bf 6a2a 8fbe a48d 2ebc 7659 aebe
000003e0: 7f6d 50be 4ee3 d8be 954a 953e 1faf 403f
000003f0: ac75 3e3e 8943 56be 1a72 e7be 6792 12be
-0.16096313 1.3289703 -0.03846461 -2.7794752 1.327562 0.7515537 1.1338621 -1.1885542
-0.25572738 -0.5961006 -1.6115024 -0.013562313 1.0661116 -1.124486 -0.8465851 -0.359286
-0.95104575 -0.8574369 -1.9552393 -0.48003453 -1.2398268 1.6290632 -0.9297154 -0.5500421
-1.1567512 0.049875353 -0.47916484 -0.028589152 -0.7238014 -1.9981014 0.5002623 0.5277732
-2.370743 -0.17918773 0.8474968 -0.40412992 -1.0045044 -0.6307147 -0.42872036 0.0349587
0.00071273895 1.236544 0.17187898 -2.8355193 -0.10027849 -1.4032388 0.096873246 -0.1962261
0.04608465 -1.3528564 -0.9419282 -0.79195315 -0.14254637 -2.0839655 -0.53386843 -0.2249766
-0.20886755 -2.0793364 1.3752573 0.2646905 0.05877015 -0.0832594 2.352974 -0.99189854
-0.5064134 -0.776421 0.9674533 1.0879177 0.08082404 0.3120036 -0.27648813 0.8387047
-0.28971982 0.28694662 3.1004975 -0.5982317 -1.096074 0.008342851 -0.0046675904 -1.0602965
0.35016426 -0.7297347 -0.007989157 -0.07839668 -1.0993475 -0.006392446 0.07313111 -0.054982904
-0.21774979 -0.983217 -0.6673369 -0.3868711 -0.4073168 -0.7681106 -1.0985895 1.779076
-1.9258605 1.252348 -0.6825772 0.09787414 1.112977 -0.016567811 -0.6954418 -0.4767388
-1.0884761 0.016763335 -0.89877814 0.3569652 -0.9670374 -0.64641106 -0.56833583 -1.6685016
-0.10541199 -0.07929514 -0.04688323 -0.2877081 -0.28331986 -0.8412821 0.0021518513 -0.5459737
0.011020838 0.06944122 0.8006107 1.1166025 -0.94412017 0.04925766 0.044592984 0.05329293
-0.19251522 1.0346522 -0.2295678 -1.7181251 0.19289735 1.011516 1.7139835 -0.5180907
-2.2102926 -0.24476326 0.5259826 -0.18001898 1.5808192 -0.3941739 -0.15339766 -0.20748186
-0.35802448 -0.29654464 -1.7340742 -1.3730179 -0.060676362 1.5587473 -0.27477786 -0.12171244
-0.39129385 -0.30204055 -0.16536695 -0.17167938 -1.7933915 -1.2940508 1.5209256 -0.33486795
-1.2821832 -0.39241606 -0.16452664 -0.96402127 -0.7766025 -0.20958328 -0.34763995 -0.147477
-0.14230774 1.9338228 -0.013045086 -1.3648971 -0.8411393 -2.7226555 -0.28584975 -1.0381275
-0.11507278 -1.5530146 -0.7968775 -1.3884954 -0.2613255 -1.6052544 -0.8776923 -0.047825605
-0.16616063 -1.0411996 2.370555 -0.23242268 -0.104088694 -0.2935434 1.6991354 -1.3165891
0.06853505 -0.23364098 1.2111323 0.77014667 -0.11141666 -0.2732948 -0.24243787 1.3478653
-0.12597781 -0.15975371 1.5891328 -0.2637753 -1.9240158 0.11270893 -0.28006613 -0.38828844
-0.5071647 -0.35564858 -0.13324866 -0.2960736 -0.87422824 -0.20860574 -0.30936435 -1.1442147
-1.4274926 -0.28144854 -0.16962332 -0.20112343 -0.054164227 -1.0791128 -0.24378258 2.113814
-0.54579645 1.4099392 -0.7224795 -0.23712799 1.0874655 -0.1413138 -0.6172366 -0.6533467
0.07137773 -0.21218613 -0.56249344 -0.0064280527 -0.5919683 -0.12299231 -1.9170176 -1.6813039
0.6528925 -0.22283359 -0.1170615 -0.20870824 -0.89187527 -0.27962047 -0.010653887 -0.34052628
-0.2035427 -0.4236092 0.29158464 0.75267214 0.18599576 -0.209242 -0.4520424 -0.1431366

layers.2.bias f4 [3]
00000000: ad83 15bd e04e e5be e541 183d
-0.03650253 -0.4478674 0.037172217
