models/acrobat_v1_3000epoch.model (torch, 7839 bytes, 4 tensors)

layers.0.weight f4 [128, 6]
000000 e4 eb ab bd a7 aa 8f 3e fb d6 42 bf 54 40 e1 bf
       -0.08394602 0.28059885 -0.76109284 -1.7597756
000010 89 b6 92 be a9 19 d0 bf a0 02 9f bf 35 5d ed 3f
       -0.28654888 -1.6257831 -1.2422676 1.854407
000020 90 9a c1 bf 0b 59 f2 bf 03 1f 85 3d 9e 81 79 3f
       -1.5125294 -1.8933424 0.06500056 0.97463405
000030 ed ac 96 3f 6c b6 05 c0 72 79 d1 3f d6 c6 01 40
       1.1771523 -2.0892591 1.6365187 2.027761
000040 3c 80 b3 be 28 02 08 bf 73 17 02 c0 5b e0 11 bf
       -0.35058773 -0.5312829 -2.0326812 -0.56982964
000050 1f 74 2e 3f 66 99 80 bf 78 2e 67 3f c6 9b a7 3e
       0.68145937 -1.0046813 0.9030528 0.32736033
000060 06 b0 ef 3e b6 27 e1 3f fc ca c4 3f ad 5d 7e 3e
       0.46813983 1.7590244 1.5374446 0.24840422
000070 ea 52 14 3f 35 08 2d 3f 9d 6d 62 bf 50 2a e5 be
       0.57939017 0.6759065 -0.88448507 -0.44758844
000080 b7 5a c9 bf 17 7d 51 be 20 f1 19 be 60 4b cf 3e
       -1.5730809 -0.20457874 -0.15033388 0.40487194
000090 7a 0f 14 3f 97 ba f8 bf 4d 31 92 3f 5c 6c f6 3f
       0.57836115 -1.9431943 1.1421295 1.9251819
0000a0 6a 58 03 bf 5d 65 47 bf 42 79 cf 3f 65 67 dc 3e
       -0.51306784 -0.77889043 1.620888 0.43047634
0000b0 ab 17 40 bf 50 f1 f0 bc 95 39 23 3f 5b 55 30 be
       -0.75036114 -0.029411942 0.6375974 -0.1722006
0000c0 b7 39 bd 3e 0d 8c d6 bf 16 17 14 3f c8 a2 b3 3f
       0.36958095 -1.676149 0.57847726 1.4034052
0000d0 ef 8a 31 bf 50 ab 67 be 39 f4 f8 3f c7 23 de 3e
       -0.6935262 -0.22623944 1.9449531 0.4338667
0000e0 f4 df 18 3f cb c3 9c 3d fa b0 66 bf 22 d5 36 ba
       0.59716725 0.07654532 -0.90113795 -0.0006974508
0000f0 d9 ef 02 40 be 0f 8e bf b2 55 27 3f 61 4a 86 3f
       2.0458891 -1.1098554 0.65365136 1.0491449
000100 b6 05 8c bf 5b f7 b8 be 81 f9 e8 3f d4 ea 0c be
       -1.0939243 -0.36126217 1.8201143 -0.13761455
000110 2d 2a a0 3d 1c f0 91 be 67 b9 34 bf 8a d4 29 bd
       0.078205444 -0.285035 -0.705954 -0.04146246
000120 2b 37 3e 40 39 e8 12 3f 01 6b 0d 3f 54 71 1c bf
       2.9721172 0.57385594 0.552414 -0.61110425
000130 fd 85 4d bf 93 28 8c be c5 67 23 3f 59 58 c5 bf
       -0.80282575 -0.27374706 0.63830215 -1.5417587
000140 ee 48 00 3f aa f7 75 3f a7 75 90 3e d1 fe d6 be
       0.5011128 0.9608103 0.28214762 -0.41991284
000150 75 c2 fd bf a9 98 d4 bf 50 c5 8a bf d6 50 de 3f
       -1.9824969 -1.6609088 -1.0841465 1.7368419
000160 a7 cd 15 3e d9 08 d1 3e 53 bb d7 3f 65 12 ef be
       0.14629231 0.40827063 1.6854042 -0.4669372
000170 e6 e6 f6 3d d3 ad a6 bf 6d cc 84 3f e0 b5 26 3f
       0.12055759 -1.3021797 1.0374886 0.6512127
000180 98 12 31 3f c8 89 bc bf 8f e8 5b bf ec 5c 15 c0
       0.69168997 -1.4729548 -0.8590173 -2.3337965
000190 2a 31 ad bf a2 88 43 3f 1a cb c2 3f 91 33 19 bf
       -1.3530629 0.7638036 1.5218232 -0.5984431
0001a0 63 ae 04 bf 57 52 ca be 91 15 a4 3e 06 40 3e 3f
       -0.51828593 -0.39515945 0.32047704 0.7431644
0001b0 63 be 4a be 78 3c 7a be 9b 3c 06 be 6e 9c 5b 3f
       -0.1979919 -0.2443713 -0.13109057 0.8578557
0001c0 ee 33 77 3f 5d 91 2c 3f b8 a1 d4 be fa a1 2e 40
       0.96563613 0.67409307 -0.41529632 2.7286363
0001d0 35 2f d4 be 9d 9e 17 c0 f2 b1 35 3f 8a df 7b 3f
       -0.41442266 -2.369056 0.7097465 0.9838797
0001e0 34 05 5f 3f a1 9a 0f bf 22 cb 8b 3f 98 ff c9 be
       0.87117314 -0.5609532 1.0921366 -0.39452815
0001f0 81 30 e6 be fc 1f 17 bf 8f 28 f6 3f c0 38 fc be
       -0.4495888 -0.5903318 1.9231128 -0.49262047
000200 ef 8f 47 bf 8e f1 da 3f 8b b7 d1 be f1 d0 90 be
       -0.77954 1.7104967 -0.40960345 -0.2828441
000210 08 87 9d bf 99 a7 20 40 51 48 91 bf 8b df 6b 3f
       -1.2306833 2.5102293 -1.1350194 0.92137975
000220 95 95 59 3e bf 04 78 bd 3d 74 d2 3f 72 f1 7c 3f
       0.21248467 -0.0605514 1.6441723 0.98805916
000230 36 b3 2a bf fc 84 f8 be ec 6a 53 3e 87 e9 41 3e
       -0.66679704 -0.4853896 0.20646256 0.1893674
000240 fc d9 a6 3e f1 9f 1e c0 7c 99 71 bf e6 4a 76 bf
       0.32588184 -2.478512 -0.94374824 -0.96208036
000250 90 5a 05 3f ed 51 d8 be 49 14 a0 bf 03 5a 4c bf
       0.5209131 -0.42250004 -1.250619 -0.79824847
000260 9a da de bf c3 47 a0 bf f0 08 c7 39 a0 29 34 be
       -1.7410462 -1.25219 0.00037962897 -0.17594004
000270 7f 9e d2 bf 13 c7 92 3f 08 48 94 bf d3 10 9f 3f
       -1.6454619 1.1467003 -1.1584482 1.2427009
000280 75 dd 25 bf 6a 6e ba be 5c cd 2e 40 14 1d a4 bf
       -0.6479104 -0.36412364 2.7312841 -1.2821374
000290 d7 dc 7a 3f d1 4a 98 be 8a 91 a0 3d 73 57 16 bf
       0.97993225 -0.2974458 0.078402594 -0.58727187
0002a0 14 34 96 3f 30 79 0b 40 de 7f 60 3f c4 11 8c 3f
       1.1734643 2.1792717 0.8769511 1.0942922
0002b0 f1 e3 b1 be df 4a 57 be d8 5a 93 be de a6 08 c0
       -0.34744218 -0.21024655 -0.28780246 -2.1351848
0002c0 d7 c8 d3 bd 61 74 a9 bf 92 07 c6 3f cf 23 8b 3f
       -0.103410415 -1.3238641 1.547106 1.0870303
0002d0 cd 27 ef 3f 0a 64 33 bf 2f 04 1c 40 ae c6 64 3f
       1.8684021 -0.7007452 2.4377553 0.8936566
0002e0 a5 93 93 bf a1 f3 bc bf 3e 42 72 be 47 34 21 c0
       -1.1529433 -1.476185 -0.23658082 -2.5188158
0002f0 13 7a 30 bf 5d fe 5f 3f 43 3f d3 bd 52 cc bf be
       -0.6893627 0.874975 -0.103148006 -0.37460572
000300 8e 07 fa bf 61 55 89 3f e6 37 01 3f bf 5f b9 bf
       -1.9533556 1.072918 0.5047592 -1.4482344
000310 f4 9c c7 be 8a c8 ba 3e 2e 75 ea be 93 7d df bf
       -0.38986933 0.36481124 -0.45792526 -1.7460197
000320 96 91 fb bf 23 d9 56 3f 3e 5e 0b 3e 76 7a 0c 3e
       -1.9653804 0.83925074 0.1361017 0.1371859
000330 6b 5a 2d bd 83 77 0c 40 a5 07 14 3f 70 17 1b c0
       -0.042322557 2.1947944 0.57824165 -2.4233055
000340 7a cb 11 3f a6 53 56 3f c2 61 8c be 99 71 28 40
       0.56951106 0.8372139 -0.27418333 2.6319335
000350 46 0b 84 3d 63 cb 6e bf 3d 4a 04 3f 77 70 ec 3d
       0.06447463 -0.93279094 0.5167578 0.115448885
000360 7b 87 dd 3f 12 f6 0b c0 f9 91 fd 3f ce e5 a6 3f
       1.730697 -2.186894 1.9810172 1.3038881
000370 26 c4 a3 be 41 73 11 bf c1 31 f4 bf 51 5a e2 bf
       -0.31985587 -0.5681649 -1.9077684 -1.7683812
000380 11 a3 ee bf 10 5e 33 3d 1e c8 39 bf d5 7c aa bf
       -1.8643514 0.043790877 -0.7257098 -1.3319346
000390 8c 9a 1d c0 f2 be be 3f 3e 34 8c bf a8 60 c4 bf
       -2.4625578 1.4902022 -1.0953443 -1.5341997
0003a0 14 ba 85 bf 26 47 06 bf ad 75 5f bf 9b 5c cf be
       -1.0447412 -0.52452314 -0.87288934 -0.4050034
0003b0 94 03 e6 be a0 ec 1c bf ba b7 22 40 ca 94 22 3f
       -0.44924605 -0.6129856 2.5424638 0.63508284
0003c0 97 e9 4a 3e b3 4e 41 3f 6f be a2 bf 5c aa e8 bf
       0.1981567 0.7551071 -1.2714366 -1.817699
0003d0 90 bc 4c 3f 1e 5a dd 3e b4 56 f5 3f 47 b5 a8 bf
       0.79975224 0.43232816 1.9167085 -1.3180321
0003e0 c3 e4 40 3f 2a 60 df 3f 52 0c f3 be f7 b4 c2 be
       0.7534906 1.7451222 -0.47470337 -0.3802869
0003f0 eb cb 47 3f 1a 98 17 40 a7 9b f4 bf 2f ba a9 3e
       0.7804553 2.3686585 -1.9110001 0.3314986

layers.0.bias f4 [128]
000000 22 9a 8f 3e 22 85 94 bf ec 19 84 3e 0a e8 5d 3f
       0.28047282 -1.1603129 0.25801027 0.8668219
000010 8b 2d 00 40 bc 39 c2 3f 59 20 29 3f 0c f1 f0 3f
       2.0027797 1.5173869 0.66064984 1.8823562
000020 9c c7 13 c0 15 94 2f 40 a5 8b ed 3f 1d 12 f6 3f
       -2.3090582 2.7434132 1.8558241 1.9224278
000030 89 2f 6b bd 35 62 c2 3f dd 24 06 c0 09 c3 a1 3f
       -0.05741838 1.518622 -2.096 1.2637645
000040 0c 11 d7 bf 46 5c 55 bf fd 33 f3 3f c1 6d a1 be
       -1.6802077 -0.83343923 1.900024 -0.31529048
000050 34 58 23 40 27 b9 6b 3f 80 fd 78 bf 4f f4 25 be
       2.5522585 0.92079395 -0.9726181 -0.16206478
000060 f3 f9 79 3d ce 25 ca be 9b 42 3a 3f a0 84 0f 3f
       0.061029386 -0.39481968 0.7275788 0.56061745
000070 84 b1 2d bf 3a e5 2a be 65 6f 15 3f 1f 1a 63 bf
       -0.6784899 -0.16689005 0.583731 -0.8871173
000080 12 dd a7 bf b4 48 4f 3f 1b be 00 3f c2 65 b2 bf
       -1.311434 0.8097031 0.5029008 -1.3937304
000090 18 0f c8 3e dc e7 05 c0 c6 92 b9 bf b6 a6 56 be
       0.39074016 -2.0922766 -1.4497917 -0.20962033
0000a0 e2 56 9c be ff 00 a7 be 8d ae ad bd fa 36 a7 3f
       -0.30535036 -0.32617947 -0.084805585 1.3063653
0000b0 0f 22 68 3f 0f 25 1f c0 cc c7 4c 3c dc 57 82 bf
       0.9067697 -2.4866369 0.012498807 -1.0183063
0000c0 95 20 80 3f 0e 3b 2a 40 48 18 3d 40 42 4f ff 3f
       1.0009943 2.6598544 2.954607 1.9946063
0000d0 cf ce 21 3f a3 6f f5 3f 02 a3 57 bf d3 3f 10 40
       0.6320619 1.9174694 -0.84233105 2.2538955
0000e0 2f 6c 20 c0 35 6c ae 3f 60 79 16 3f db 1b cb bf
       -2.506603 1.3626772 0.58778954 -1.5867876
0000f0 d9 9c 3e bf 5e e5 b9 3f 73 61 24 3f 4d 71 ce 3f
       -0.7445808 1.4523122 0.64211196 1.6128327
000100 b6 67 35 40 ed c1 81 3f bd a8 8d 3f 49 f4 2d 3f
       2.834455 1.0137306 1.106712 0.67950875
000110 71 b2 bc 3e c9 83 81 bf ca cb 9e 3e 56 34 ae bd
       0.3685489 -1.0118343 0.31014854 -0.08506076
000120 a1 d1 7e 3f d4 f0 63 bf 95 d1 d8 3e 72 2e 03 3f
       0.9953862 -0.8903935 0.42347398 0.51242745
000130 5b e4 3c 3f 51 02 b4 3f 4e fe a5 3e c0 96 1a 3f
       0.7378594 1.4063207 0.32420582 0.60386276
000140 da 98 e9 bd 56 12 2e 3f e9 d1 88 3f 87 f3 1f c0
       -0.11406107 0.6799673 1.068906 -2.4992387
000150 4a 22 0a 40 18 73 e3 3f 62 ad 0e c0 33 f1 28 40
       2.1583428 1.7769499 -2.2293324 2.6397216
000160 bf 60 89 3f 17 ff 2d 40 4f 86 2d bf 06 0f d8 3f
       1.073265 2.7186944 -0.67783064 1.6879585
000170 2c ff 42 c0 93 b4 54 3f b8 0e 45 c0 3a 2a 36 3f
       -3.0468245 0.83088034 -3.0790234 0.7115818
000180 2e bc 9e bf 88 b7 2d 40 48 d6 fa bd 5d 27 81 3e
       -1.2401178 2.7143269 -0.12247902 0.25225344
000190 10 69 d8 be b5 e1 05 3f a7 08 3b bf 68 9d 69 3f
       -0.42267656 0.52297527 -0.7306008 0.9125581
0001a0 72 25 8c 3e 6e 54 1a 3d 87 80 2c 3f e9 9a 11 c0
       0.27372319 0.037678175 0.6738362 -2.27508
0001b0 2d 32 09 3e 86 d2 ba bf 4e 03 34 3f a7 36 c5 be
       0.13398047 -1.4595497 0.7031754 -0.3851826
0001c0 44 2e ab 3f bc b4 ba 3f b1 f6 bd 3f 33 82 88 3f
       1.3373494 1.4586406 1.4840909 1.0664734
0001d0 f5 39 cb 3f f4 09 f6 3f de f7 d4 3e 4e 7d 2f c0
       1.5877062 1.9221787 0.41595358 -2.742023
0001e0 8e 41 b9 bf 39 11 4c 40 32 91 26 be 36 9d b7 3f
       -1.4473131 3.1885512 -0.16266325 1.4344852
0001f0 60 12 8e 3f 38 33 c6 3f ce 02 b8 bf 45 f4 15 3f
       1.1099358 1.5484381 -1.4375856 0.5857585

layers.2.weight f4 [3, 128]
000000 82 e0 0f 3f 07 f4 c4 3f b2 4f f5 bf 80 b5 55 bf
       0.56201947 1.5386971 -1.9164946 -0.8348007
000010 3f cf 14 bf 2a ef 8b bf 78 1d 25 be 8b 4b 2c bf
       -0.5812873 -1.0932362 -0.16124523 -0.6730277
000020 cd 95 36 bf f3 bf 0c c0 ad 97 92 bf 5e 61 a3 bf
       -0.7132233 -2.1992157 -1.1452538 -1.2764089
000030 6b 05 15 40 8b 05 bb 3e 80 5f 77 bf 5d b3 e8 bf
       2.3284557 0.36527666 -0.96630096 -1.8179737
000040 27 c4 f1 3f 38 59 07 bf 47 f1 b5 bf 40 a2 40 c0
       1.8887986 -0.5287051 -1.4214257 -3.009903
000050 25 96 1b 3f c4 e1 51 3f f9 98 86 bf 4b ed fb be
       0.6077598 0.81985116 -1.0515434 -0.49204478
000060 a6 40 03 3f 3f c9 94 be 8c 5e 19 3e 6b 1c 4b bf
       0.5127052 -0.2905979 0.14977473 -0.7934024
000070 49 b7 45 bf 21 a0 d9 3f ee 13 95 3f 53 27 40 bf
       -0.77232796 1.7001992 1.1646707 -0.75060004
000080 72 bc c7 bf 11 d6 78 bf c9 5c 01 c0 fc 26 48 bf
       -1.5604384 -0.9720164 -2.0212882 -0.78184485
000090 13 9d 91 bf 50 a4 e6 3f 77 58 8e bf 91 86 e6 3f
       -1.137606 1.8018894 -1.1120747 1.8009816
0000a0 7f d2 88 bf 38 40 be bf 2a ee fa bf 04 24 97 be
       -1.0689238 -1.4863348 -1.9603932 -0.29519665
0000b0 9a c2 97 bf f0 76 54 3f 58 e5 ff 3e 63 3a f3 bf
       -1.1856263 0.82993984 0.49979663 -1.9002193
0000c0 67 65 b3 3f bc e1 5a 3e 1f d7 2a bb 95 a6 2a be
       1.401532 0.21375173 -0.0026068164 -0.16665109
0000d0 19 72 84 bf f1 6a 15 c0 d4 34 a2 be a5 5f c7 bf
       -1.034732 -2.3346522 -0.3168093 -1.5576063
0000e0 f6 e5 ae c0 69 63 8a 3e ea 21 5c bf db db 92 bf
       -5.4655714 0.2702897 -0.8598925 -1.1473345
0000f0 85 cd 9e 3f d6 86 af 3e 98 cb 72 bd 96 94 91 bf
       1.240647 0.3428256 -0.059276193 -1.137347
000100 ac 11 05 40 e9 14 93 3f be 44 b8 3f 81 b5 c9 bf
       2.0792036 1.1490756 1.4395978 -1.5758516
000110 ce 9e 48 40 0c a9 8f 3f af 5b 55 bf 24 1b c5 3e
       3.1346927 1.1223464 -0.83343023 0.3849727
000120 3d 8c b6 bf 93 9c 43 bf df 54 22 3f a0 a4 41 3e
       -1.4261547 -0.7641079 0.63410753 0.18910456
000130 b4 0d 35 bf 21 43 2f 3f 54 d1 52 bf c5 dd 1f bf
       -0.70724034 0.68461806 -0.8235066 -0.6244777
000140 21 6d 60 3f 2e 05 cc 3e 06 b9 82 3f cc c3 0e c0
       0.8766652 0.39847702 1.0212715 -2.2307005
000150 b6 4d 9b bf df 79 eb bf 50 1a 2c 40 7f 05 5a bf
       -1.213309 -1.8396567 2.689106 -0.85164636
000160 0a 04 9d 3f fa e1 12 3f ae e7 23 be a2 10 aa 3d
       1.2266858 0.5737606 -0.16006348 0.08303954
000170 81 48 f4 bf f5 6b a0 bf 46 12 41 3f 7b 20 8f bf
       -1.9084626 -1.2532946 0.7541851 -1.1181787
000180 7a 3a ab bf 10 57 30 be 09 2c 8f bf 6b 8d fb 3c
       -1.3377221 -0.17220712 -1.1185313 0.030707082
000190 97 c6 08 be df 28 6d 3f b0 9f d9 3e 09 4b 7c 3f
       -0.13357006 0.9264049 0.42504644 0.98551995
0001a0 ef 55 9e 3e 77 02 54 40 b2 0f e8 be 46 65 9a bf
       0.30924937 3.3126504 -0.45324475 -1.2062156
0001b0 49 eb c8 3f 20 e6 f1 bf c1 25 49 3f 9b 4a 14 bf
       1.5696803 -1.8898354 0.7857323 -0.5792634
0001c0 c7 9b c2 3e b6 c7 b2 bf 1d f9 0d bf bc 24 8f 3e
       0.38009474 -1.3967197 -0.5545824 0.27957714
0001d0 2c 73 78 be f6 e9 18 3f 3e 59 b7 bf d6 5a 58 3f
       -0.24262685 0.59731996 -1.432411 0.84513605
0001e0 af 62 6f bf d8 a0 3b 40 d7 ba 93 bf 57 3c 9e bf
       -0.93509954 2.9316921 -1.1541394 -1.2362164
0001f0 0f 6c 15 bf a4 5e b9 be c0 32 03 bf 20 f2 f0 bd
       -0.5836801 -0.36205018 -0.51249313 -0.11764932
000200 c1 15 83 3f 6d 5d 9c 3f a3 55 16 3f cb 34 c0 3f
       1.0241014 1.2216011 0.5872442 1.5016111
000210 3b 7b 04 c0 87 a1 22 3f 1a e5 01 bf b3 cd 0c bf
       -2.0700214 0.6352772 -0.50740206 -0.5500137
000220 e5 0f ca bf 3c d8 f0 be c8 62 29 bf 78 94 d1 be
       -1.5786101 -0.47039974 -0.66166353 -0.40933585
000230 75 2c 48 bd a2 05 8d 3f 44 af e2 bf c4 05 a0 be
       -0.048870523 1.1017344 -1.7709737 -0.312544
000240 ad e4 86 3f 01 60 65 3f b4 c7 57 bf 2c 4a 92 bf
       1.0538536 0.89599615 -0.842891 -1.1428885
000250 40 14 2e bd a5 39 c1 be 41 74 b8 3f 23 3e c3 be
       -0.04249978 -0.37739292 1.4410478 -0.38133344
000260 92 68 07 bf 65 09 48 3f 6d f4 6b be 85 78 cd be
       -0.52893937 0.78139335 -0.2304246 -0.40131012
000270 09 60 31 bf 0b 64 d6 3e b6 f7 e3 3f bb 18 62 bf
       -0.69287163 0.41873202 1.780997 -0.88318986
000280 c6 ce c1 bf 10 17 d3 3e 46 9e da bf 99 8e 49 bf
       -1.5141227 0.41228533 -1.7079551 -0.7873321
000290 2d 46 c0 be 76 f8 00 40 08 3b 20 c0 3f c7 d9 3f
       -0.3755354 2.0151649 -2.503603 1.701393
0002a0 36 0a 8e bf 61 7c 6e be ba 01 9b bf 06 66 18 40
       -1.1096866 -0.23289634 -1.2109902 2.381227
0002b0 21 76 3e be 2a 7d bc 3f e8 7d c2 bf e3 eb ae bf
       -0.1859975 1.4725697 -1.5194674 -1.3665737
0002c0 b8 de 06 3f 7f 46 b5 3f 6c 3a 78 bf 90 08 4c 3c
       0.5268359 1.4162139 -0.96964145 0.012453213
0002d0 34 55 eb bd 25 df 29 be e0 5f 2a bf fc ab a2 be
       -0.114908606 -0.16589029 -0.66552544 -0.3177184
0002e0 5f 81 11 3f ee 60 fc 3e b9 38 6b 3e 36 76 85 bf
       0.5683803 0.492927 0.22970857 -1.04267
0002f0 93 58 06 40 a1 62 a3 be 79 b3 93 bf 86 3f 95 bf
       2.0991561 -0.31911185 -1.1539146 -1.1660011
000300 ea 03 96 3f 15 ca 63 be 2f f4 81 3f 17 fa 48 3f
       1.1719944 -0.22245057 1.0152644 0.78506607
000310 e3 6c 09 bf 52 38 d2 3f 5e b6 e1 bf 62 08 c0 bf
       -0.5368177 1.6423438 -1.7633779 -1.5002558
000320 dd 47 59 3f fc 34 bf bf db 38 d6 bf 67 06 ac bf
       0.8487528 -1.4938045 -1.6736101 -1.3439454
000330 ae 28 e4 3e d8 3b 9e be 91 20 a7 be 95 15 7b be
       0.44562286 -0.30905032 -0.32642034 -0.24519952
000340 5a 79 92 bf 6d e1 7d be 8d 54 bf bf 0c ca f6 bf
       -1.1443284 -0.24793024 -1.4947678 -1.928041
000350 d4 77 3b bf e0 16 32 3e 92 ac ca 3f cf 36 ea bf
       -0.7322972 0.17391539 1.5833914 -1.8297976
000360 5d a2 83 bc c1 9c 18 3f ed e3 b1 3f da e1 c3 bf
       -0.016068632 0.5961419 1.3897682 -1.53033
000370 ac 2b 69 bf 40 fd a2 be 4b fb cc 3f 8e f9 63 bf
       -0.91082263 -0.3183384 1.6014189 -0.89052665
000380 af 77 7d bf f5 1d f6 bf bd 8b 0b bf d6 da 22 3f
       -0.9901075 -1.9227892 -0.545101 0.6361517
000390 4d 34 e3 3c 49 54 39 bf 66 23 e3 3e 93 27 f4 be
       0.0277349 -0.72394234 0.44362944 -0.47686443
0003a0 94 fc 28 3e 0e b9 0b 40 3f ba d9 3d f7 14 0f c0
       0.16502601 2.1831698 0.10631227 -2.2356546
0003b0 53 1f 7d bf 95 66 ef bf e5 77 b0 bd d4 96 23 be
       -0.9887592 -1.870318 -0.08616618 -0.15975505
0003c0 94 a6 c4 be 58 80 49 3f b7 68 55 bf f1 c0 ae bf
       -0.3840834 0.7871146 -0.8336291 -1.3652631
0003d0 57 bc 4b be 57 06 8a 3f 49 6b 0c 3f 42 06 ae 3f
       -0.19896065 1.0783185 0.54851204 1.359566
0003e0 52 c4 45 3f 8a ff bb 3e 10 64 fa be d7 35 0d 3e
       0.77252686 0.36718398 -0.48904467 0.1379007
0003f0 6d a7 ff bd c9 28 8f bc 10 80 f9 bf 12 12 b3 bf
       -0.12483106 -0.017475503 -1.9492207 -1.398989

layers.2.bias f4 [3]
000000 01 96 35 3f 45 39 f1 3e 22 58 21 3f
       0.7093201 0.47114006 0.63025105
