models/acrobat_v1_100epoch.model (torch, 7829 bytes, 4 tensors)

layers.0.weight f4 [128, 6]
1.2023637 0.18159948 0.2416986 -0.14828049 -0.33218277 0.009000564 0.6248269 -0.73436856
0.88809013 -0.069200344 -0.17925592 -0.25006095 -0.85424936 0.82413924 -0.42341813 -1.3367114
0.21061899 0.31032947 0.3196894 -0.40477827 -0.35331836 -0.09469394 0.32172403 -0.13965985
0.6675939 1.1068991 1.1787261 -0.44234693 0.15915507 0.22640531 0.17834415 0.45118284
-0.2180637 -1.0769786 -1.0756053 0.106461935 -0.18390638 0.30232552 -0.14207935 0.05205722
0.12462776 0.0045926142 0.40119994 -0.1567581 0.1342007 0.24328387 -0.28958768 -0.048469625
0.7796085 0.046613622 -0.10315477 -0.039990187 -0.3214204 -0.04912178 0.37167102 1.4702806
0.22335441 0.57463956 0.57039887 0.8938586 0.09114454 -0.00066821347 -0.21655849 -0.35164177
0.21984571 0.02568768 0.06767608 -0.37100947 0.47106084 1.3788923 0.44599023 -0.52131444
-0.18516108 0.66456324 -0.2427455 0.10972349 0.043153778 0.053073958 1.032255 -0.32408664
0.50442237 0.6763317 0.10040009 0.22214009 0.88142234 0.622152 0.91750306 -0.12758093
0.13690901 0.1385156 1.1236275 0.36888126 -0.23855117 -0.31297022 -0.20663412 -0.12373062
0.18709494 0.36572984 -0.11472055 -0.39921147 0.18095039 -0.004696114 1.1101089 -0.25455382
0.44891703 -0.42767733 -0.025512695 -0.20083621 1.1349863 1.0315145 0.9005605 -0.4009559
-0.32360905 -0.12931739 0.38135204 0.57145643 -0.72788775 0.2236924 -0.11735794 -0.09486714
-0.08354362 -0.9883912 -0.87220925 1.5659436 0.33479893 -0.3767491 -0.7156102 0.17115466
-0.6394353 0.12533022 0.7828725 -0.18366 0.7135762 1.1648198 1.0808102 0.4392492
0.06760474 0.5443252 1.1411357 0.36728266 0.76193744 0.093715295 0.21699429 0.18034713
0.22493821 0.35445952 -0.3849247 0.051428005 0.16142936 0.06660645 0.69414675 1.2120503
1.0427866 -0.89143676 0.18801402 0.28513464 0.724363 -0.47651187 0.7617537 -0.14261591
0.34500495 0.039707705 0.4192328 -0.8346212 0.8364533 0.8333021 -0.16710877 -0.2600165
1.132213 -0.7181011 0.91864693 -0.05385134 -0.23110549 -0.29097214 0.59987384 -1.319441
0.3228502 1.5335704 0.031734366 0.018144669 1.1496025 -0.3298376 0.9074823 0.18510206
0.2236747 0.16307396 0.103734605 0.32371143 -0.14035569 0.10417811 0.060132585 0.112848565
-0.63914675 1.2372576 -1.7979835 -0.6383244 -0.36230186 -0.1705493 -0.8542931 -0.9366993
-1.2505472 0.33999658 0.3855547 -0.34118205 0.78874725 -0.2021593 -0.06294925 -0.042320136
-0.35077822 -0.049292028 0.9507821 -0.06811451 0.5204371 0.15277994 0.18468435 0.14506872
0.36035076 0.28638098 -0.01413692 0.041623887 0.22323848 0.056924704 0.6344762 -0.6875339
0.68943673 -0.32823238 -0.14109996 -0.24944514 0.10462816 -1.6299452 0.27224287 1.3904566
-0.037016507 -0.19881916 -1.1421763 -0.16943084 -0.0873618 0.022820989 -0.33996627 0.88929313
1.0572844 -0.26250237 0.5148607 0.55590093 0.124976054 0.21173634 0.48838025 -0.36287728
0.2861031 0.3395305 -0.37217978 -0.117871106 -1.0293186 -0.60029185 -0.92477745 0.95019513
00000000: 0ee7 993f 37f5 393e d67f 773e d7d6 17be
00000010: dc13 aabe 1a77 133c a8f4 1f3f 94ff 3bbf
00000020: e059 633f e9b8 8dbd dd8e 37be fd07 80be
00000030: 16b0 5abf cafa 523f 43ca d8be 5c19 abbf
00000040: 81ac 573e 81e3 9e3e 54ae a33e 193f cfbe
00000050: 25e6 b4be e5ee c1bd 03b9 a43e fe02 0fbe
00000060: 6fe7 2a3f dfae 8d3f 7fe0 963f 4c7b e2be
00000070: 8cf9 223e cbd6 673e d99f 363e 7001 e73e
00000080: 174c 5fbe 6fda 89bf 6fad 89bf b708 da3d
00000090: f451 3cbe 69ca 9a3e 407d 11be f439 553d
000000a0: d73c ff3d a47d 963b 146a cd3e 3285 20be
000000b0: e96b 093e 681f 793e d644 94be 1688 46bd
000000c0: 6c94 473f eded 3e3d cf42 d3bd c0cc 23bd
000000d0: 3791 a4be eb33 49bd aa4b be3e 2832 bc3f
000000e0: 05b7 643e 941b 133f a905 123f ebd3 643f
000000f0: fda9 ba3d 0c2b 2fba 82c1 5dbe 640a b4be
00000100: 3c1f 613e f86e d23c c299 8a3d f4f4 bdbe
00000110: e32e f13e 8b7f b03f d558 e43e dd74 05bf
00000120: de9a 3dbe d120 2a3f 4792 78be b6b6 e03d
00000130: 04c2 303d 1464 593d ef20 843f afee a5be
00000140: d321 013f 1324 2d3f 909e cd3d b178 633e
00000150: e5a4 613f 5a45 1f3f 7be1 6a3f 93a4 02be
00000160: e031 0c3e 09d7 0d3e 07d3 8f3f 01de bc3e
00000170: c246 74be a23d a0be e597 53be 7b66 fdbd
00000180: d195 3f3e f140 bb3e 9cf2 eabd 7265 ccbe
00000190: 0f4b 393e dce1 99bb 0c18 8e3f e154 82be
000001a0: 74d8 e53e 86f8 dabe 0000 d1bc 02a8 4dbe
000001b0: 3b47 913f ab08 843f 228b 663f 174a cdbe
000001c0: 16b0 a5be c76b 04be 9340 c33e f84a 123f
000001d0: da56 3abf 9f0f 653e 5c59 f0bd b449 c2bd
000001e0: eb18 abbd 3507 7dbf 1b49 5fbf d770 c83f
000001f0: c46a ab3e 42e5 c0be 3b32 37bf 2b43 2f3e
00000200: 08b2 23bf 9156 003e 556a 483f 5e11 3cbe
00000210: eeac 363f d118 953f fd57 8a3f 45e5 e03e
00000220: 5b74 8a3d e558 0b3f bc10 923f 790c bc3e
00000230: 550e 433f ceed bf3d c033 5e3e ebac 383e
00000240: 3456 663e b87b b53e da14 c5be 2ca6 523d
00000250: bd4d 253e f668 883d 9ab3 313f 7724 9b3f
00000260: 087a 853f 3335 64bf bf86 403e 2bfd 913e
00000270: db6f 393f 5df9 f3be 4a02 433f e809 12be
00000280: 7da4 b03e 8ca4 223d aea5 d63e bca9 55bf
00000290: ce21 563f 4953 553f 901e 2bbe e220 85be
000002a0: 5bec 903f 79d5 37bf 722c 6b3f 3993 5cbd
000002b0: eba6 6cbe 4dfa 94be 5591 193f 71e3 a8bf
000002c0: 9f4c a53e 094c c43f e5fb 013d 21a4 943c
000002d0: 2d26 933f 79e0 a8be c350 683f 658b 3d3e
000002e0: fb0a 653e dcfc 263e cf72 d43d 81bd a53e
000002f0: 67b9 0fbe 555b d53d 964d 763d 261d e73d
00000300: 1f9f 23bf 755e 9e3f 5324 e6bf 3a69 23bf
00000310: a17f b9be 7aa4 2ebe f4b2 5abf 86cb 6fbf
00000320: ee11 a0bf 0814 ae3e 6d67 c53e 6aaf aebe
00000330: 57eb 493f d902 4fbe 89eb 80bd e157 2dbd
00000340: 3499 b3be 70e6 49bd 7566 733f 9f7f 8bbd
00000350: 5e3b 053f 5872 1c3e e51d 3d3e e58c 143e
00000360: e57f b83e 87a0 923e 8a9e 67bc cf7d 2a3d
00000370: a198 643e e129 693d 086d 223f 3902 30bf
00000380: ed7e 303f 130e a8be 827c 10be 8c6e 7fbe
00000390: 4a47 d63d 0ba2 d0bf 6b63 8b3e 7bfa b13f
000003a0: 9f9e 17bd 4097 4bbe d532 92bf 477f 2dbe
000003b0: beea b2bd 15f3 ba3c 0f10 aebe b7a8 633f
000003c0: 1855 873f b666 86be e9cd 033f 864f 0e3f
000003d0: 72f3 ff3d 69d1 583e fa0c fa3e 0dcb b9be
000003e0: 1b7c 923e f1d6 ad3e 598e bebe 6866 f1bd
000003f0: b6c0 83bf baac 19bf 37be 6cbf fd3f 733f

layers.0.bias f4 [128]
1.072879 0.7700506 0.39556247 -0.07553231 0.4575086 -1.0908817 1.0197209 0.8494932
0.90439343 -0.95304066 0.99743366 -0.6237906 0.9235194 0.015180548 0.30515048 0.6360789
1.1007428 0.8703624 0.07526926 0.8553328 -0.56417453 -1.7669686 1.0871124 0.3816387
1.1252857 0.27427945 0.26861253 0.19167955 0.6630076 0.16545354 -0.050771922 0.82650197
-0.45116928 -1.5888257 0.9742996 0.06544454 1.0166132 0.8833738 0.22221631 -1.078659
-0.05716259 0.9289361 -0.9545894 0.67105263 0.5297717 0.6828978 0.8326299 -1.0003413
0.7552503 0.50530076 0.8113937 0.6320541 0.06128484 -0.37334225 -0.6609817 0.9915028
0.96977437 1.0768472 0.8061566 0.3710931 0.3679761 0.34834275 0.76233035 -0.6527484
0.9054157 0.92645866 0.5790108 -0.363729 0.009662935 0.8465263 0.032399435 0.9624235
-1.0445892 0.0536434 0.86628497 0.90337867 0.029414104 -1.1220075 0.3876999 0.45616072
1.0299197 0.40100813 0.2787445 0.94817024 0.8374317 0.72601366 0.63586724 0.7586498
0.25130668 -1.4710019 1.0208584 0.1370051 1.0539107 0.7135472 0.46154094 0.5082479
0.68690765 0.24929301 0.045340087 0.92209655 -0.018816374 1.0108639 0.6658344 -1.7811239
0.6862746 0.6825417 -0.63477564 0.5707928 1.0372938 0.27638316 0.79005957 0.42618707
0.17844708 0.694852 1.0034575 0.45319018 0.6156693 1.162969 0.9785068 0.63248855
0.40077382 0.35808903 -0.14143348 0.7859133 0.7487409 -2.1358523 0.121533476 0.8303661
00000000: 1954 893f 0922 453f 2a87 ca3e afb0 9abd
00000010: 913e ea3e 03a2 8bbf 3786 823f 6378 593f
00000020: 5486 673f 79fa 73bf d057 7f3f beb0 1fbf
00000030: c46b 6c3f d5b7 783c af3c 9c3e 11d6 223f
00000040: 24e5 8c3f 12d0 5e3f c526 9a3d 17f7 5a3f
00000050: be6d 10bf 072c e2bf 8026 8b3f 2666 c33e
00000060: 5d09 903f 5b6e 8c3e 9587 893e a547 443e
00000070: deba 293f a76c 293e 38f6 4fbd a295 533f
00000080: a9ff e6be a45e cbbf b36b 793f c907 863d
00000090: 6220 823f c924 623f ac8c 633e 8011 8abf
000000a0: 5223 6abd c2ce 6d3f f95f 74bf 1bca 2b3f
000000b0: 1e9f 073f 64d2 2e3f 3c27 553f 2f0b 80bf
000000c0: 1558 413f 645b 013f 7fb7 4f3f 4cce 213f
000000d0: d005 7b3d b726 bfbe 1936 29bf 21d3 7d3f
000000e0: 2243 783f 21d6 893f 4760 4e3f eaff bd3e
000000f0: 5d67 bc3e fb59 b23e 1528 433f 851a 27bf
00000100: 53c9 673f 652c 6d3f 0d3a 143f b03a babe
00000110: 4951 1e3c f3b5 583f 45b5 043d 6361 763f
00000120: 19b5 85bf 2fb9 5b3d dac4 5d3f d343 673f
00000130: d9f5 f03c f19d 8fbf 9a80 c63e e68d e93e
00000140: 69d4 833f f050 cd3e 99b7 8e3e 49bb 723f
00000150: ed61 563f 08dc 393f 32c8 223f e036 423f
00000160: 45ab 803e ca49 bcbf 7dab 823f 114b 0c3e
00000170: 8ce6 863f 08ab 363f 184f ec3e 891c 023f
00000180: 2ed9 2f3f ab46 7f3e 87b6 393d 850e 6c3f
00000190: cc24 9abc fd63 813f 2074 2a3f defb e3bf
000001a0: b1af 2f3f 0ebb 2e3f a880 22bf 7a1f 123f
000001b0: 0bc6 843f 1882 8d3e 5841 4a3f 3135 da3e
000001c0: d5ba 363e d2e1 313f 4c71 803f 8b08 e83e
000001d0: 819c 1d3f 2bdc 943f 6c7f 7a3f c5ea 213f
000001e0: 3a32 cd3e 7257 b73e f0d3 10be 9d31 493f
000001f0: 7cad 3f3f ceb1 08c0 8be6 f83d df92 543f

layers.2.weight f4 [3, 128]
-0.7292457 -0.4199307 -1.24467 -0.3022208 -0.49514398 1.9680092 -0.12199816 -0.47550902
-0.55239624 1.206712 -0.29221594 0.63733464 -0.30281195 -0.71624565 -0.38246268 -1.0065023
-0.30535185 -0.04060227 -1.1783818 -0.069846034 0.558378 1.0856768 1.5663135 -0.33495325
-0.1993781 -0.44539526 -0.30730104 -0.5457979 -0.38263118 -0.8815678 -0.39452967 -0.12415747
-0.91114205 0.7646094 -0.82744503 -0.31886715 -0.07577125 -0.3409048 -0.62998915 0.3763057
-0.5574346 -0.7948675 0.5885896 -0.16486207 -0.121793635 -0.13876534 -0.54765636 0.7509526
-0.8880227 -0.32928884 -0.1290703 -0.50134856 -1.9703871 1.3951898 -0.038015045 -0.92460644
-0.5405569 -0.21936823 -0.5915038 -0.6446303 -0.52641886 -1.3457596 -0.38442793 0.6605002
-0.7679201 -0.3167761 -0.5501533 0.55980563 1.227105 -0.63778013 -0.8272786 -0.48733136
0.11087622 -1.261645 0.22092836 -0.16325712 -0.5072632 0.050752234 -0.59944123 -0.14231525
-0.34712067 -0.62836945 -0.36592945 -0.5380711 -0.30060634 2.6468596 -0.2637174 -0.81283087
0.058144122 -0.21995665 -0.59538746 -0.07060209 -0.30434635 -0.26442632 -0.4988426 -0.3833893
-0.22016858 -0.68736416 -1.1093999 -0.43308753 -0.55571884 -0.48585218 -0.49059695 1.0544751
-0.81375384 -0.25163746 1.490459 -0.24491596 -0.5640007 -0.9963702 -0.21613692 -0.887392
-0.4156475 -0.9242573 -0.17817761 0.41681665 -0.6034118 -0.28534085 -1.0091765 -0.26241735
-1.06474 -0.59299916 0.91868126 -1.0810027 -0.26290637 1.6290953 -0.6810497 -0.2091909
-0.12822264 -0.35526875 -0.42553625 -0.0197793 -0.8324185 0.80505854 -0.31728032 -0.41264993
-0.46988526 1.3100119 -0.42289206 0.1973025 -0.4519027 -0.4328856 -0.45752397 -0.1294379
-0.54646176 -0.8099068 -0.31605995 -0.52721447 1.0277274 1.2617675 -0.5172437 -0.4323234
-0.5506415 -0.931397 -0.83962655 -0.09380182 -0.4862994 -0.53520256 -0.56127083 -0.4622248
-1.7654029 1.020155 -0.33527207 -0.42442128 -0.52224004 -0.30969733 -0.84972936 0.9046345
-0.520234 -0.3373828 0.7763194 -0.97165215 -0.78154397 -0.34404084 -0.2440696 0.90573376
-0.35670078 -1.1693174 -1.0835823 -0.32651353 -0.42321372 1.2311784 0.41673243 -0.28645962
0.083194 -0.73155373 -0.6203335 -0.62206244 -1.0991596 -0.37000412 -0.26955268 0.28929073
-0.2472046 -0.20251884 -0.49104908 0.5805659 1.3393284 -0.19616348 -0.62280107 -0.62468547
0.66570234 -1.3588448 -0.29586586 -0.22869729 -1.3071572 0.96590865 -0.5380376 -0.8188273
-0.41462347 -0.064058125 -0.32364392 0.80338055 -0.6668575 1.1050383 -0.32919136 -0.17744437
-0.8517478 1.6511408 -0.3588707 -0.7355455 0.5201956 -0.21986118 -0.57049084 -0.72805023
-0.5645582 -0.64839405 -0.16007516 -0.24999955 -0.7262533 -0.7724705 -0.34072757 0.67216647
-0.18696222 -0.6168926 1.845809 -0.6184597 -0.19784507 -0.09307941 -0.5139466 -1.0832748
-0.30228472 -0.2738872 -0.6352187 -0.76970154 -0.5025407 -0.36624733 -0.18053144 -0.5191088
-0.14340915 -0.7099729 2.0590985 -0.46857598 -0.60232615 0.20027514 -0.4646131 -0.21366632
00000000: d9af 3abf 2801 d7be 5951 9fbf afbc 9abe
00000010: 8383 fdbe bae7 fb3f 2cda f9bd eb75 f3be
00000020: d769 0dbf 8a75 9a3f 549d 95be 5d28 233f
00000030: 2b0a 9bbe e05b 37bf 26d2 c3be 11d5 80bf
00000040: 1457 9cbe 914e 26bd 37d5 96bf 700b 8fbd
00000050: dcf1 0e3f 75f7 8a3f f67c c83f fe7e abbe
00000060: c629 4cbe d90a e4be 9056 9dbe 69b9 0bbf
00000070: 3ce8 c3be 6dae 61bf cbff c9be 4646 febd
00000080: 9b40 69bf 71bd 433f 70d3 53bf 8e42 a3be
00000090: f52d 9bbd 138b aebe f846 21bf 24ab c03e
000000a0: 09b4 0ebf 707c 4bbf cfad 163f 9ad1 28be
000000b0: f16e f9bd 8018 0ebe 3533 0cbf 6e3e 403f
000000c0: 7555 63bf 8c98 a8be 012b 04be 6158 00bf
000000d0: a535 fcbf 9495 b23f aab5 1bbd 02b3 6cbf
000000e0: f061 0abf 11a2 60be cb6c 17bf 7e06 25bf
000000f0: 63c3 06bf da41 acbf bdd3 c4be 8b16 293f
00000100: 6996 44bf 7a30 a2be d9d6 0cbf 6c4f 0f3f
00000110: c711 9d3f 8f45 23bf 88c8 53bf 7f83 f9be
00000120: 1213 e33d 957d a1bf 0b3b 623e e02c 27be
00000130: 00dc 01bf 93e1 4f3d fb74 19bf 17bb 11be
00000140: cdb9 b1be d2dc 20bf 1b5b bbbe 07bf 09bf
00000150: 13e9 99be 2666 2940 f805 87be af15 50bf
00000160: 8828 6e3d 513c 61be 506b 18bf d497 90bd
00000170: 49d3 9bbe e362 87be 4c68 ffbe 9a4b c4be
00000180: df73 61be 19f7 2fbf d100 8ebf a6bd ddbe
00000190: 9743 0ebf 9ec1 f8be 862f fbbe 0af9 863f
000001a0: 2c52 50bf a0d6 80be 5cc7 be3f 40cb 7abe
000001b0: 5a62 10bf 1e12 7fbf ff52 5dbe 1f2c 63bf
000001c0: c0cf d4be 209c 6cbf 3174 36be fe68 d53e
000001d0: 3279 1abf 3218 92be b22c 81bf 915b 86be
000001e0: 6649 88bf cbce 17bf b22e 6b3f 4c5e 8abf
000001f0: aa9b 86be 3286 d03f 4659 2ebf 2436 56be
00000200: cc4c 03be c9e5 b5be e3df d9be 3308 a2bc
00000210: 6119 55bf 5118 4e3f 9172 a2be da46 d3be
00000220: cd94 f0be 78ae a73f 4f85 d8be ab09 4a3e
00000230: ca5f e7be 2ea3 ddbe 9540 eabe 5e8b 04be
00000240: ebe4 0bbf 0d56 4fbf 9cd2 a1be 87f7 06bf
00000250: 928c 833f 9981 a13f 156a 04bf 7e59 ddbe
00000260: d7f6 0cbf 0970 6ebf c4f1 56bf 2b1b c0bd
00000270: 3cfc f8be 0903 09bf 72af 0fbf bba8 ecbe
00000280: b9f8 e1bf 7094 823f c8a8 abbe bf4d d9be
00000290: 86b1 05bf a690 9ebe dd87 59bf 2096 673f
000002a0: 0e2e 05bf 70bd acbe debc 463f 32be 78bf
000002b0: 4413 48bf 1f26 b0be 62ed 79be 2bde 673f
000002c0: 7ca1 b6be 31ac 95bf d3b2 8abf c82c a7be
000002d0: 78af d8be 4197 9d3f f45d d53e d6aa 92be
000002e0: 9e61 aa3d 1b47 3bbf 2dce 1ebf 7c3f 1fbf
000002f0: 43b1 8cbf 2e71 bdbe cf02 8abe ea1d 943e
00000300: 3423 7dbe 1961 4fbe c96a fbbe f89f 143f
00000310: 1d6f ab3f 14df 48be e46f 1fbf 63eb 1fbf
00000320: 786b 2a3f a0ee adbf bb7b 97be 9f2f 6abe
00000330: ed50 a7bf ca45 773f d5bc 09bf aa9e 51bf
00000340: 8749 d4be e830 83bd a8b4 a5be 59aa 4d3f
00000350: 2cb7 2abf e571 8d3f c58b a8be fab3 35be
00000360: 250c 5abf 9558 d33f e6bd b7be b64c 3cbf
00000370: 8a2b 053f 4a23 61be b00b 12bf 8061 3abf
00000380: e386 10bf 27fd 25bf beea 23be e2ff 7fbe
00000390: bceb 39bf a0c0 45bf d873 aebe 1a13 2c3f
000003a0: 0673 3fbe acec 1dbf 7843 ec3f 6053 1ebf
000003b0: e697 4abe 6ba0 bebd 0192 03bf c0a8 8abf
000003c0: 10c5 9abe f13a 8cbe b19d 22bf 290b 45bf
000003d0: 82a6 00bf c584 bbbe 3cdd 38be 50e4 04bf
000003e0: d9d9 12be c9c0 35bf 45c8 0340 31e9 efbe
000003f0: 0c32 1abf ed14 4d3e c5e1 edbe 58cb 5abe

layers.2.bias f4 [3]
-0.3901828 -0.34909776 -0.41929218
00000000: 0ac6 c7be f1bc b2be 77ad d6be
