models/cartpole_v1_r2_300epoch.model (torch, 6333 bytes, 4 tensors)

layers.0.weight f4 [128, 4]
-0.38280815 -2.5481086 -5.3992486 -1.9168363 0.026602248 0.592791 1.2306048 -0.2717467
0.4496901 -0.17593208 -0.13201556 -0.15122041 0.9839787 0.77017033 2.2652082 0.6061234
0.009747156 0.029781932 -0.0531886 0.011370981 -0.3286063 -0.56478506 -2.1372137 -0.45081982
-0.5826572 -0.26685953 -0.467359 0.12913524 -0.9814589 -0.046592664 -0.50044304 -0.32459304
-1.035529 -0.027925214 -0.38786802 -0.11091028 1.8432525 2.7324514 6.4790845 2.0650992
1.0740904 -0.06439256 -3.9210007 -1.422637 -0.87234503 -2.117493 -4.194328 -1.7269495
0.7176957 -0.2548921 0.20651233 0.39427015 0.44388017 -0.7365638 -1.3324292 -0.49856833
0.07145264 -0.44870582 0.13639101 -0.65420794 -0.48591235 -2.0809536 -5.0074267 -1.608838
-0.37028322 -0.3984706 -2.2462869 -0.37972468 -3.1789904 -0.07575916 0.19400744 0.22563301
-0.3732434 0.48778158 -0.018706378 0.3808121 1.909586 2.608504 5.4400616 1.9646729
-2.647778 -0.11627085 -0.30735052 0.06454925 -0.47062477 -0.5887113 -0.55166924 -0.66099256
0.92521906 2.157359 4.9471726 2.036975 0.25056997 0.9251166 2.382068 0.51136774
-0.32764146 0.24839601 -0.13972972 0.03330651 0.9311762 0.83346033 2.449218 0.63077277
-0.09898385 0.014114858 -0.2586173 -0.22014864 -0.3375533 -0.93238944 -0.41327202 -0.11385998
-0.52950513 0.75913596 0.7781034 0.50031525 0.61148834 -0.46871442 -3.6767817 -1.1619077
-2.393849 -0.4806606 0.35349956 -0.08081293 0.42689526 0.8476528 3.5255337 1.7869383
0.31493905 -1.0355797 -0.57656556 0.36304462 -1.4394763 -1.3270917 -3.185257 -1.1561694
0.3941326 0.31150773 0.3514803 -0.10791665 -2.4630804 -0.7150694 -0.16300425 -0.47677055
0.03821828 0.57109296 0.21058612 0.60552526 1.0501194 0.85174704 1.9289571 0.58693075
0.69885 1.0608983 2.1002996 0.00039930307 0.29361412 0.46631676 0.74988186 0.4865862
-0.3617829 1.7476004 1.9195698 1.4084743 1.2695745 2.397619 5.6524386 1.8452698
0.15413882 -0.015168163 0.1493803 0.32046914 0.24130236 -0.10589988 0.38972482 -0.14413798
0.39535427 -1.0150253 -3.2129834 -0.14271978 -0.2840168 0.24776523 0.7464235 0.2910325
-0.6858844 0.5677615 0.83468777 0.3031933 0.5025117 0.16461812 0.22931391 0.08800799
-0.11299914 0.060758896 0.22392525 0.3552787 -0.43907744 0.39581105 0.09927658 0.3688743
-0.374552 -0.511433 -2.4495475 -0.4105922 -1.4303281 0.63980865 3.354071 1.618182
-0.79523945 -0.5036741 -0.4623728 -0.67496383 0.44072038 2.660643 3.4576087 2.2297523
-2.8170357 0.47832674 0.5435959 0.4011952 0.5395382 -0.17097414 0.24196325 -0.18757081
1.0436122 1.6932414 3.0947504 1.2745332 -0.59549516 -0.46245942 3.5486133 0.9507058
-0.6200369 0.5792167 0.4595374 0.36438102 2.439895 -0.6327285 -2.9408977 -0.6892593
-0.7160062 0.5670915 0.6595442 0.33016726 -0.6565874 -0.5244096 -0.2786255 -0.719557
1.0503266 0.8466232 1.8641934 0.71307164 0.9600351 0.8776297 2.3892245 0.6544398
00000000: 6eff c3be 3614 23c0 a5c6 acc0 e45a f5bf
00000010: f5ec d93c 27c1 173f 7584 9d3f 6222 8bbe
00000020: c83d e63e 8a27 34be 162f 07be 86d9 1abe
00000030: 07e6 7b3f e229 453f 2cf9 1040 e72a 1b3f
00000040: 89b2 1f3c 3df9 f33c 4adc 59bd 5a4d 3a3c
00000050: 163f a8be c195 10bf 1cc8 08c0 dbd1 e6be
00000060: 0629 15bf d0a1 88be ae49 efbe 073c 043e
00000070: e440 7bbf f3d7 3ebd 091d 00bf 0f31 a6be
00000080: 378c 84bf 6bc3 e4bc a396 c6be ee24 e3bd
00000090: b3ef eb3f 7ce0 2e40 a954 cf40 962a 0440
000000a0: cb7b 893f 3fe0 83bd adf1 7ac0 f818 b6bf
000000b0: 0152 5fbf 0185 07c0 ef37 86c0 ae0c ddbf
000000c0: e8ba 373f 3881 82be f877 533e c7dd c93e
000000d0: 4344 e33e 728f 3cbf 0a8d aabf 5944 ffbe
000000e0: c355 923d c5bc e5be 16aa 0b3e 2c7a 27bf
000000f0: 81c9 f8be 582e 05c0 d73c a0c0 67ee cdbf
00000100: c395 bdbe 5704 ccbe 2ac3 0fc0 466b c2be
00000110: 9474 4bc0 9e27 9bbd e3a9 463e 570c 673e
00000120: c219 bfbe 82be f93e 1e3e 99bc cef9 c23e
00000130: 506d f43f bbf1 2640 fc14 ae40 677a fb3f
00000140: 3275 29c0 691f eebd 0c5d 9dbe 6632 843d
00000150: bbf5 f0be c9b5 16bf 323a 0dbf cf36 29bf
00000160: 28db 6c3f 2b12 0a40 3d4f 9e40 cc5d 0240
00000170: b54a 803e 71d4 6c3f cd73 1840 ffe8 023f
00000180: 9fc0 a7be 865b 7e3e 4f15 0fbe 686c 083d
00000190: 9061 6e3f a85d 553f fdbf 1c40 537a 213f
000001a0: 0bb8 cabd 0142 673c 7d69 84be a56e 61be
000001b0: c9d3 acbe 13b1 6ebf 6498 d3be 6c2f e9bd
000001c0: a68d 07bf bc56 423f c931 473f a914 003f
000001d0: 808a 1c3f 56fb efbe 6450 6bc0 64b9 94bf
000001e0: d234 19c0 2519 f6be e5fd b43e 4081 a5bd
000001f0: 0492 da3e c6ff 583f 58a2 6140 65ba e43f
00000200: b13f a13e e08d 84bf cd99 13bf fce0 b93e
00000210: c240 b8bf 24de a9bf 40db 4bc0 5cfd 93bf
00000220: c0cb c93e f17d 9f3e 3af5 b33e 6803 ddbd
00000230: 1ca3 1dc0 ca0e 37bf 96ea 26be 451b f4be
00000240: c58a 1c3d 2633 123f e3a3 573e b403 1b3f
00000250: 506a 863f 180c 5a3f 11e8 f63f 1841 163f
00000260: d5e7 323f 84cb 873f 4f6b 0640 8d59 d139
00000270: 9754 963e 12c1 ee3e 42f8 3f3f d421 f93e
00000280: 9c3b b9be 5fb1 df3f 77b4 f53f e348 b43f
00000290: 6b81 a23f 9772 1940 c7e0 b440 cd31 ec3f
000002a0: 91d6 1d3e e383 78bc 26f7 183e 8814 a43e
000002b0: f717 773e 09e2 d8bd 038a c73e e898 13be
000002c0: e06b ca3e 59ec 81bf 85a1 4dc0 2225 12be
000002d0: a66a 91be 2bb6 7d3e 9c15 3f3f 3602 953e
000002e0: 1f96 2fbf d158 113f 19ae 553f 273c 9b3e
000002f0: 9ba4 003f a791 283e 44d1 6a3e 883d b43d
00000300: 186c e7bd 52de 783d a94c 653e 17e7 b53e
00000310: c2ce e0be bfa7 ca3e 8551 cb3d 18dd bc3e
00000320: 48c5 bfbe 46ed 02bf 63c5 1cc0 2439 d2be
00000330: fe14 b7bf 80ca 233f 19a9 5640 9620 cf3f
00000340: d094 4bbf c9f0 00bf 21bc ecbe 6eca 2cbf
00000350: 1aa6 e13e fa47 2a40 7649 5d40 43b4 0e40
00000360: 504a 34c0 3ee7 f43e 1a29 0b3f 7569 cd3e
00000370: 2d1f 0a3f d813 2fbe 37c5 773e 9012 40be
00000380: 1695 853f 22bc d83f 6410 4640 e723 a33f
00000390: 5f72 18bf 7bc7 ecbe 7b1c 6340 7561 733f
000003a0: bdba 1ebf 8c47 143f 7c48 eb3e 2690 ba3e
000003b0: 3d27 1c40 7ffa 21bf ab37 3cc0 4c73 30bf
000003c0: 2f4c 37bf e92c 113f e4d7 283f af0b a93e
000003d0: 1d16 28bf b53f 06bf 00a8 8ebe e334 38bf
000003e0: 1a71 863f 4cbc 583f e49d ee3f dd8b 363f
000003f0: dcc4 753f 57ac 603f 0ee9 1840 5e89 273f

layers.0.bias f4 [128]
-0.9022435 1.3793259 1.705026 1.6835827 1.4631374 1.1638439 1.4459845 -2.0176423
-1.9776558 0.35148624 -1.9376736 -0.45431075 1.2383615 0.4852243 0.5484345 -0.6976567
1.1189238 -0.50539804 -0.5004583 -1.4181061 0.7780895 -1.7335515 0.7214419 0.8479372
1.6011413 1.6523517 1.6416384 1.717012 1.5257747 0.68617797 0.66129005 -0.9355872
1.2733479 -0.33816582 1.6929419 0.63626033 1.8378876 1.8089566 1.2043191 1.475933
0.13479155 -1.0926311 1.8197249 1.3721213 0.930831 1.6051579 1.530862 1.4631039
1.8242254 1.6373441 1.1654271 -1.2470367 -2.0188127 0.97017723 -0.13188566 1.3869026
-0.95216274 0.54594684 1.0661534 0.8981563 1.2195846 -1.9620929 1.7734559 1.7920561
1.3296194 -0.8184568 -1.8983982 -0.28015992 0.32855484 -0.470641 1.7767929 -0.06745929
1.6234546 1.7925773 -1.2721736 0.92493683 -0.7029542 -1.2935481 1.7937368 0.873354
1.4840666 0.70044875 1.5230062 1.5766215 -1.741904 -2.0002577 1.4857248 1.7741151
1.4808052 -1.685269 1.3411869 1.4262595 1.6908118 1.6478788 -1.337596 0.42780587
-1.7044901 0.38783398 1.4595928 -0.79457855 1.8043803 -0.9674683 0.12689121 1.8551428
-2.472917 -1.2982159 0.7400424 1.6312127 1.7420311 1.9258343 -0.80372214 1.2795495
-1.7541085 1.4117161 1.3047612 0.7735914 1.7273412 1.3957832 1.0588021 -1.3067273
1.4428544 1.6281445 -2.0347168 -2.2119465 1.8424047 1.0147641 1.7978687 1.6747842
00000000: 6ef9 66bf c08d b03f 4b3e da3f a37f d73f
00000010: 1648 bb3f d6f8 943f 0516 b93f 0d21 01c0
00000020: d323 fdbf 01f6 b33e b005 f8bf 6b9b e8be
00000030: a182 9e3f 526f f83e 3466 0c3f a199 32bf
00000040: e538 8f3f c461 01bf 091e 00bf 8084 b5bf
00000050: e030 473f 04e5 ddbf 6bb0 383f 6a12 593f
00000060: 33f2 cc3f 4380 d33f 3521 d23f 0dc7 db3f
00000070: 964c c33f 5ca9 2f3f 4e4a 293f a582 6fbf
00000080: 10fd a23f 1224 adbe 52b2 d83f f5e1 223f
00000090: e73f eb3f e48b e73f 2127 9a3f 5feb bc3f
000000a0: cc06 0a3e 56db 8bbf bfec e83f aca1 af3f
000000b0: f14a 6e3f d075 cd3f 49f3 c33f fd46 bb3f
000000c0: 3880 e93f 7e94 d13f b72c 953f e69e 9fbf
000000d0: 3a34 01c0 895d 783f 090d 07be 0686 b13f
000000e0: f0c0 73bf 2cc3 0b3f b777 883f 92ed 653f
000000f0: 591b 9c3f dc25 fbbf 9a00 e33f 1862 e53f
00000100: f830 aa3f 6386 51bf b6fe f2bf 1f71 8fbe
00000110: 5738 a83e dbf7 f0be f36d e33f 1928 8abd
00000120: 5ccd cf3f 2c73 e53f 96d6 a2bf a9c8 6c3f
00000130: cef4 33bf fc92 a5bf 2b99 e53f 2194 5f3f
00000140: e5f5 bd3f 9c50 333f def1 c23f bcce c93f
00000150: b6f6 debf 3904 00c0 3b2c be3f 3416 e33f
00000160: 068b bd3f e5b6 d7bf 03ac ab3f ac8f b63f
00000170: 856c d83f b1ed d23f 5936 abbf 5f09 db3e
00000180: bb2c dabf 2d92 c63e f0d3 ba3f 8069 4bbf
00000190: eff5 e63f 01ac 77bf c5ef 013e 5275 ed3f
000001a0: 4644 1ec0 f02b a6bf 6b73 3d3f 94cb d03f
000001b0: e0fa de3f bd81 f63f bcc0 4dbf 47c8 a33f
000001c0: a186 e0bf 1db3 b43f 6a02 a73f 160a 463f
000001d0: 8419 dd3f 06a9 b23f d486 873f d742 a7bf
000001e0: 74af b83f 0a67 d03f cd38 02c0 8890 0dc0
000001f0: ebd3 eb3f cae3 813f 9020 e63f 545f d63f

layers.2.weight f4 [2, 128]
-3.9114547 0.8729146 0.8370653 1.7706367 1.0433725 0.94219244 0.8963386 0.1995544
0.015831273 -2.9708729 -3.007356 -3.7911081 0.72850645 0.6590573 0.7669935 -3.5328655
0.7323996 -3.2510548 -0.046395533 -3.0231464 0.89760023 0.477106 -2.565633 0.83552647
1.0607629 1.7027496 0.96038294 1.0534676 0.8809396 -1.2923348 0.78890896 -2.022387
1.1223656 -1.0337539 1.0504091 0.8626983 0.9954813 1.3405488 1.3040909 0.97022724
0.862523 -3.6689358 0.74047935 1.0219557 1.2118523 0.7220366 0.9544899 1.2820213
0.8415171 0.95971364 0.7598009 -0.8804367 0.13494985 -3.6038322 -2.9881954 1.0672375
-1.1878653 -0.5204379 0.6281614 -2.2326937 0.5922746 0.16131634 1.3697056 1.3242663
0.9887568 -0.52479917 0.19423284 -3.27819 1.145284 0.033425234 0.8238365 -1.9317919
1.0579172 0.91688883 -1.7409644 1.2156293 -1.5567455 -2.93946 0.9828719 0.92687315
1.2073872 2.103998 1.6142825 1.035864 -1.3448056 0.095853284 0.90138996 0.88747346
1.0285294 -1.3872802 0.76131165 1.3591636 0.9171602 1.0207555 -2.5502262 0.5104266
-1.1904175 0.42349887 1.3706077 -3.0596504 0.904783 -3.4204001 1.852153 0.99536073
-0.08358596 -2.379879 0.5775169 1.199393 1.0830858 1.4348446 -3.4287333 1.110449
-1.9542375 1.1934049 1.1233177 0.8867113 0.9845755 0.79308534 -2.629901 -3.4037957
1.2139701 1.0663998 -0.033533916 0.199904 0.89164597 -2.0543153 1.0589284 1.0413783
-4.5558486 0.4877404 0.9458653 1.8145295 1.053029 0.58559203 0.94065976 0.1411459
-0.016088149 -2.4142256 -1.2628381 -3.8321424 1.0022256 0.75328845 0.65944177 -3.4281378
0.5311072 -2.6759043 -0.016049128 -3.200682 0.6515037 0.3062653 -2.4064827 0.71272355
0.9214104 1.7183108 0.85894245 0.88639385 0.865958 -2.3109443 0.60144484 -1.035413
0.8838 -3.7931316 0.8680047 1.1006132 1.0302986 1.6269246 0.9687142 1.0412643
0.22470574 -3.763333 0.9797139 1.0278383 0.9884707 0.9442159 0.78360844 1.1551602
1.0198569 0.92593974 0.6544234 -1.3610847 0.36556545 -2.5435953 -2.0014358 1.1247668
-3.344166 -2.0178134 0.6207147 -1.6546143 0.5590333 0.40229082 1.4874723 1.7423561
0.83903015 -0.8831564 0.09060033 -2.3159513 1.5758446 0.020619566 0.9434713 -1.4399165
1.5324484 0.8704643 1.2831812 1.047781 -1.0103441 -4.1909285 0.74093753 0.48922637
0.8644578 1.5737494 1.4997448 0.8588411 -2.1874948 0.07303949 0.9068988 1.1673098
1.0120361 -2.0289602 0.7305366 0.9835984 0.98400927 0.88816404 -3.5376887 0.7995648
-1.5477141 1.7166696 1.002385 -2.9531493 1.0114076 -2.9484756 -1.9182777 1.0981015
0.53795266 -4.256205 0.63313967 1.0365146 0.9202171 1.7251514 -3.0110776 1.1928192
-2.4586854 1.1359658 1.0749993 1.3543842 0.82538253 0.9338115 -1.7174131 -2.9445198
1.5494359 1.135268 -0.025586084 0.5454967 0.9554156 -2.0932531 0.98812056 0.9207129
00000000: 4655 7ac0 5577 5f3f e949 563f 39a4 e23f
00000010: 3b8d 853f 8633 713f 7276 653f fd57 4c3e
00000020: 96b0 813c c822 3ec0 8578 40c0 84a1 72c0
00000030: 667f 3a3f fbb7 283f b059 443f 781a 62c0
00000040: 8a7e 3b3f 4811 50c0 3e09 3ebd 3b7b 41c0
00000050: 21c9 653f 3d47 f43e 5533 24c0 10e5 553f
00000060: 14c7 873f b3f3 d93f a8db 753f 07d8 863f
00000070: 4285 613f 3a6b a5bf f0f5 493f ca6e 01c0
00000080: ada9 8f3f 0c52 84bf ce73 863f ccd9 5c3f
00000090: ddd7 7e3f 1a97 ab3f 73ec a63f d060 783f
000000a0: 4fce 5c3f d8cf 6ac0 0e90 3d3f 72cf 823f
000000b0: fa1d 9b3f 64d7 383f 7359 743f 4619 a43f
000000c0: aa6d 573f cbaf 753f 5082 423f 4d64 61bf
000000d0: 4b30 0a3e 30a5 66c0 983e 3fc0 3d9b 883f
000000e0: f80b 98bf 6b3b 05bf 2fcf 203f 74e4 0ec0
000000f0: 4f9f 173f 1c30 253e 8352 af3f 8f81 a93f
00000100: 2a1f 7d3f 3d59 06bf f9e4 463e ddcd 51c0
00000110: ab98 923f e6e8 083d f3e6 523f f544 f7bf
00000120: d569 873f 3ab9 6a3f ecd7 debf be99 9b3f
00000130: 7043 c7bf 1d20 3cc0 7e9d 7b3f 8f47 6d3f
00000140: aa8b 9a3f e7a7 0640 cfa0 ce3f 3197 843f
00000150: 9722 acbf ba4e c43d 7ec1 663f 7631 633f
00000160: daa6 833f 6692 b1bf 52e5 423f 13f9 ad3f
00000170: 03cb 6a3f 1ea8 823f e836 23c0 51ab 023f
00000180: 9a5f 98bf d8d4 d83e 1370 af3f 50d1 43c0
00000190: dc9f 673f d6e7 5ac0 5913 ed3f f6cf 7e3f
000001a0: 1e2f abbd f04f 18c0 26d8 133f b685 993f
000001b0: 8ea2 8a3f fda8 b73f 5e70 5bc0 3123 8e3f
000001c0: 7424 fabf 7ec1 983f e0c8 8f3f 83ff 623f
000001d0: 240d 7c3f a407 4b3f 4c50 28c0 cad7 59c0
000001e0: 5f63 9b3f ca7f 883f dc5a 09bd a2b3 4c3e
000001f0: e942 643f e779 03c0 f78a 873f e24b 853f
00000200: 83c9 91c0 1cb9 f93e 3a24 723f 8142 e83f
00000210: a7c9 863f 5ce9 153f 14cf 703f 8d88 103e
00000220: 4bcb 83bc ac82 1ac0 aea4 a1bf d241 75c0
00000230: ee48 803f 83d7 403f 2dd1 283f 9c66 5bc0
00000240: a4f6 073f 0442 2bc0 7679 83bc f9d7 4cc0
00000250: f2c8 263f cece 9c3e d003 1ac0 0d75 363f
00000260: 8de1 6b3f 9cf1 db3f a7e3 5b3f b5ea 623f
00000270: 6caf 5d3f 83e6 13c0 4af8 193f 6a88 84bf
00000280: b840 623f abc2 72c0 8e35 5e3f e5e0 8c3f
00000290: d3e0 833f 113f d03f a7fd 773f 2648 853f
000002a0: 4319 663e 73da 70c0 88ce 7a3f 3590 833f
000002b0: 6a0c 7d3f 22b8 713f 909a 483f 4adc 933f
000002c0: ac8a 823f 630a 6d3f 4b88 273f 0638 aebf
000002d0: 652b bb3e 44ca 22c0 8617 00c0 5cf8 8f3f
000002e0: d106 56c0 db23 01c0 29e7 1e3f 67ca d3bf
000002f0: ce1c 0f3f 10f9 cd3e 7e65 be3f 8605 df3f
00000300: aeca 563f 8a16 62bf aa8c b93d 8c38 14c0
00000310: 47b5 c93f 5dea a83c 5687 713f 2f4f b8bf
00000320: 4527 c43f c0d6 5e3f 483f a43f b01d 863f
00000330: f552 81bf 161c 86c0 15ae 3d3f e17b fa3e
00000340: 1b4d 5d3f 9f70 c93f a3f7 bf3f 03dd 5b3f
00000350: eaff 0bc0 ba95 953d 852a 683f 686a 953f
00000360: 668a 813f 7cda 01c0 7204 3b3f 1bcd 7b3f
00000370: 08e8 7b3f b85e 633f 7e69 62c0 47b0 4c3f
00000380: 7f1b c6bf d4bb db3f 274e 803f 6600 3dc0
00000390: ce75 813f d3b3 3cc0 208a f5bf 978e 8c3f
000003a0: 44b7 093f d532 88c0 7115 223f 83ac 843f
000003b0: 5993 6b3f c3d1 dc3f 7fb5 40c0 4dae 983f
000003c0: 1a5b 1dc0 5467 913f 9499 893f 765c ad3f
000003d0: 454c 533f 450e 6f3f 31d4 dbbf 0373 3cc0
000003e0: ea53 c63f 7650 913f e899 d1bc aca5 0b3f
000003f0: 1e96 743f dcf7 05c0 78f5 7c3f d7b3 6b3f

layers.2.bias f4 [2]
0.84260577 1.0560975
00000000: 03b5 573f 342e 873f
