models/cart_pole_v1_r1_150epoch.model (torch, 6343 bytes, 4 tensors)

layers.0.weight f4 [128, 4]
0	0xbfea7c13	-1.8319114
1	0xbebe6943	-0.37189683
2	0x3f17b2d0	0.5925722
3	0xbe46b267	-0.19403993
4	0xc0032264	-2.048974
5	0xbbf3adb8	-0.0074364804
6	0x3ea64179	0.32471827
7	0xbdd3a1f0	-0.103336215
8	0xc02994d4	-2.6497087
9	0x3ede2aa6	0.43391913
10	0x409c08bb	4.8760657
11	0x3fa9378b	1.3220075
12	0xbf2be113	-0.6714031
13	0x3cdca33e	0.026933309
14	0x3f534896	0.8253263
15	0x3ccb8de1	0.024847927
16	0x3eaf9083	0.3428994
17	0x3ea71bd4	0.3263842
18	0xbe74a3c0	-0.2389059
19	0x3e9fd96b	0.31220564
20	0x3e97b389	0.29629162
21	0x3e4e7834	0.20163041
22	0x3f6a724f	0.9158067
23	0x3d8878d3	0.066636704
24	0x3e024e0b	0.12725084
25	0xbe4606e0	-0.1933856
26	0x3e4e34e5	0.20137365
27	0x3c3b3869	0.011427023
28	0x3e8f4b54	0.27987158
29	0x3fbb18aa	1.4616902
30	0x4098e948	4.7784767
31	0x3fdac592	1.7091544
32	0x3eb669a2	0.35627466
33	0x3f3cc0d3	0.73731726
34	0x3f575a8e	0.8412255
35	0x3eb43372	0.351955
36	0x400466b2	2.068768
37	0x3f8d3987	1.1033181
38	0xbe27741f	-0.1635289
39	0xbf1d8ee4	-0.6154616
40	0x3f01281e	0.5045184
41	0x3e2a9bc9	0.1666099
42	0x3eb5eb07	0.35530874
43	0x3e31de18	0.17369878
44	0xbc3b7344	-0.011441056
45	0x3f18bbb9	0.5966144
46	0x3f03a4e7	0.51423496
47	0x3f252500	0.6450958
48	0x3f86b532	1.0524046
49	0x3dfb5346	0.122717425
50	0x3f1169db	0.5680215
51	0xbef7712c	-0.4832853
52	0x3f7ae150	0.9800005
53	0x40144f84	2.3173532
54	0x40d93dc0	6.788788
55	0x40149fdf	2.3222578
56	0xc0059327	-2.0871065
57	0x3e0e509f	0.13897942
58	0xbecfced6	-0.4058749
59	0x3e70a71c	0.23501247
60	0xbc001816	-0.007818243
61	0x3f2eccfc	0.6828153
62	0x3f209e3f	0.62741464
63	0x3e5ae9b1	0.21378209
64	0xbfb627bf	-1.423088
65	0x3e82390a	0.25434142
66	0xbe6e8761	-0.2329383
67	0x3eb9d758	0.36297107
68	0x3f078f2a	0.52952826
69	0x3eb1ede4	0.3475181
70	0x3f42feb9	0.76169926
71	0x3e71ea84	0.23624617
72	0x3f545edd	0.8295725
73	0xbf31dff9	-0.6948238
74	0xc09eef19	-4.9666867
75	0xc0155dcd	-2.3338501
76	0x3fc95332	1.5728514
77	0x401cedff	2.4520261
78	0x40db9e5d	6.8630815
79	0x400f3391	2.2375224
80	0x3e9619d6	0.29316586
81	0xbf5bd8db	-0.8587777
82	0x3d714a6f	0.058908876
83	0x3e955bdc	0.29171646
84	0x3e34e449	0.17665209
85	0x3ebf640a	0.3738101
86	0x3f233539	0.63753086
87	0x3ee698e6	0.45038527
88	0xbff4b745	-1.911843
89	0xbd893a6d	-0.06700597
90	0x3ef284b2	0.47366863
91	0xbe03bd1e	-0.12865111
92	0x3f1280ba	0.5722767
93	0x3e55763e	0.20845887
94	0xbde9a855	-0.1140906
95	0x3e550506	0.20802698
96	0x3e05c087	0.13061725
97	0x3e8ce0da	0.27515298
98	0x3f352821	0.70764357
99	0x3e984059	0.29736593
100	0x4021d820	2.5288162
101	0x3f459d12	0.77192795
102	0x3fbbd5e8	1.4674654
103	0x3f6024b8	0.8755603
104	0x3e308656	0.17238745
105	0x3f0f8d6c	0.5607517
106	0x3f459a2f	0.7718839
107	0x3f3302ab	0.69925946
108	0xc0242886	-2.5649734
109	0x3d82f5ea	0.06394561
110	0x3fd8af00	1.6928406
111	0x3f607cfb	0.87690705
112	0xbf38c081	-0.7216874
113	0x3f1e0916	0.61732614
114	0x40ba3a64	5.819628
115	0x3fef4585	1.8693091
116	0x3e3c327d	0.18378635
117	0xc003b4f8	-2.0579205
118	0xc09be297	-4.87141
119	0xbfe91e33	-1.8212341
120	0x3d925412	0.071449414
121	0x3e350cf0	0.17680717
122	0x3f68303f	0.9069862
123	0x3ec34116	0.38135594
124	0x3c496304	0.012291674
125	0xbf4447b6	-0.7667192
126	0xc0c747bb	-6.227506
127	0xbfebe93e	-1.8430555
128	0x3e92370a	0.28557616
129	0xbb8e248c	-0.004337853
130	0x3f2972f2	0.6619102
131	0x3d75c567	0.06000271
132	0x3e241769	0.16024555
133	0x3f0c2626	0.5474571
134	0xbe5e91c2	-0.2173529
135	0x3f253774	0.6453774
136	0xbffd794e	-1.9802644
137	0x3e325ee7	0.17419015
138	0x3f5e4a2e	0.8683194
139	0xbe749cb0	-0.23887897
140	0x3cb8634b	0.022508284
141	0x3d4e8aba	0.05042527
142	0xbd0a5d6d	-0.033780504
143	0xbdce3687	-0.10068994
144	0x3d4c176e	0.04982703
145	0x3f7e8657	0.99423736
146	0xbe282c45	-0.16423137
147	0xbf855f26	-1.0419662
148	0x3da9acd4	0.082849175
149	0x3f16bf96	0.58886087
150	0x3ec1935d	0.37807742
151	0x3f249cbe	0.6430167
152	0x3f0a3241	0.5398293
153	0x3ea68d92	0.32529885
154	0x3e2a6eaf	0.16643785
155	0x3ea7fb44	0.32808888
156	0x3ed3e23f	0.4138355
157	0x3ee07f24	0.43847
158	0x3f6618f8	0.8988185
159	0x3ebdf3aa	0.37099963
160	0x3f02c21d	0.51077443
161	0x3ea3fb5c	0.3202771
162	0x3ed55de6	0.416732
163	0x3db97be9	0.09056837
164	0x4022cd03	2.543763
165	0x3f8eaa26	1.1145675
166	0x3f28c5da	0.659269
167	0x3f8a44ec	1.0802283
168	0x3fcb5a0f	1.5886859
169	0xbf0fdd58	-0.5619712
170	0xbfbd780e	-1.4802263
171	0xbebe9c67	-0.372287
172	0x3eeabd6b	0.4584764
173	0x3eaa5183	0.33265314
174	0x3f086207	0.5327458
175	0x3e79edc7	0.24407111
176	0x3eaaf506	0.33390063
177	0xbe6b9b45	-0.2300845
178	0x3d80bede	0.06286405
179	0xbdeafc7b	-0.11473938
180	0x3e101e2d	0.14074011
181	0x3ead19a6	0.3380863
182	0x3f61cd4b	0.8820388
183	0x3f1a85d9	0.60360485
184	0x3d56c160	0.05243051
185	0x3f82fc40	1.023323
186	0x3e71addc	0.23601478
187	0x3f05f442	0.5232583
188	0x3e56f178	0.2099055
189	0xbc03bf03	-0.008041146
190	0x3f184c62	0.5949155
191	0x3e67a1a7	0.22620259
192	0xbcea5cb0	-0.02860865
193	0x40066d64	2.1004267
194	0x40a232b3	5.068689
195	0x3fefb4b0	1.8727016
196	0xbedb37a8	-0.428159
197	0x3f0de910	0.5543375
198	0x3f29f446	0.66388357
199	0x3f3724e2	0.71540654
200	0xbfb6cd50	-1.4281406
201	0x3e36cf60	0.17852545
202	0x3ebf13c2	0.37319762
203	0x3e9633bc	0.29336345
204	0x3f11dbcd	0.56976014
205	0x3ec387b8	0.38189483
206	0x3f20dd53	0.62837714
207	0x3e482569	0.19545521
208	0x3ea0a3a8	0.3137486
209	0x3f0e03cf	0.5547456
210	0x3ed17dee	0.4091639
211	0x3eebcbce	0.46053928
212	0xbeafce62	-0.34337145
213	0xbe9c6be4	-0.30551064
214	0x3d79ecad	0.061016727
215	0x3e166484	0.14686781
216	0xbf120c0f	-0.5704965
217	0xbc221861	-0.009893508
218	0xbe47654f	-0.1947224
219	0x3eb3f677	0.35148975
220	0x3e624252	0.22095612
221	0x3e201b3d	0.1563539
222	0x3e919204	0.28431714
223	0x3b97b689	0.004629914
224	0xbf7f7167	-0.99782413
225	0x3e0716e8	0.13192332
226	0x3f3672ea	0.71269095
227	0x3e018801	0.12649538
228	0x3e152225	0.14563806
229	0x3f24cce2	0.64375126
230	0x3f4e701b	0.8063981
231	0x3f27021a	0.6523758
232	0x3e7daf81	0.2477398
233	0x3e898e62	0.26866442
234	0x3f28a0a3	0.6587011
235	0x3eda6188	0.42652535
236	0x3f166b67	0.5875763
237	0x3daa055a	0.08301802
238	0xbe04732f	-0.12934564
239	0x3dacb06a	0.08432086
240	0xc0089875	-2.1343052
241	0x3cd984c9	0.026552575
242	0xbdd8e63e	-0.1059079
243	0x3cf8a9a1	0.030354323
244	0x3d4d87fd	0.050178517
245	0x3f3f4a61	0.7472287
246	0xbca8cb33	-0.020604705
247	0x3f41ea80	0.75748444
248	0x40104292	2.2540631
249	0xbda2858a	-0.07935627
250	0xbfca44ef	-1.5802287
251	0x3e17353a	0.14766398
252	0xc00b62e0	-2.1779099
253	0x3d810411	0.06299604
254	0x3f10e430	0.56598186
255	0x3e018727	0.12649213

layers.0.bias f4 [128]
0	0x3e70d887	0.23520099
1	0x3cc61549	0.024180071
2	0x3ef90e3a	0.48643667
3	0x3f4e6ee4	0.80637956
4	0x3fa68790	1.301012
5	0x3fcf2263	1.6182369
6	0x3fc9dc0e	1.577028
7	0xbff0a128	-1.8799181
8	0x3fea887b	1.83229
9	0xbfdd88e9	-1.7307407
10	0x3fb88c4c	1.4417815
11	0x3fd1d59b	1.6393312
12	0x3f30797f	0.6893539
13	0x3f81aed2	1.0131476
14	0x3e7c2f8a	0.2462751
15	0x3fbdd3d8	1.4830275
16	0x3f534507	0.825272
17	0x3fdedaa7	1.7410477
18	0xbf9af02f	-1.2104548
19	0x3f4e16cf	0.80503553
20	0xbf4bc6f3	-0.7960045
21	0x3fb83ce0	1.4393578
22	0x3c7547f2	0.014970766
23	0x3fd10530	1.6329708
24	0x3fc93d83	1.5721897
25	0xbfed1618	-1.8522367
26	0x3fe57022	1.7924845
27	0xbf44ef11	-0.76927286
28	0x3fd01b38	1.6258307
29	0x3f4b9eb8	0.7953906
30	0x3fdff86a	1.7497685
31	0xbf07074c	-0.5274551
32	0x3fda5e89	1.70601
33	0x3fafe079	1.3740379
34	0xbd12d68f	-0.03584915
35	0xbee2d721	-0.44304755
36	0x3f55f10c	0.83570933
37	0x3fb016d9	1.3756973
38	0x3fdc2801	1.7199708
39	0x3fcc6da6	1.5970962
40	0x3fd2666d	1.6437508
41	0xbfd126f2	-1.634001
42	0x3f233873	0.6375801
43	0x3fc6973a	1.5514901
44	0x3fcded71	1.6088086
45	0x3fe6ae74	1.8021989
46	0x3fc4044a	1.5313809
47	0x3fbccac9	1.4749385
48	0xbfe11cec	-1.7586951
49	0x3f9c930c	1.2232375
50	0x3f780f2a	0.9689814
51	0x3feee5cb	1.8663877
52	0x3fc2f4d9	1.5230972
53	0x3fb0be23	1.3808025
54	0x3f8369f8	1.0266714
55	0x3fa66b9c	1.300159
56	0x3ee774aa	0.45206195
57	0x3fbdbf34	1.4823976
58	0x3fc1e0b9	1.5146705
59	0x3fc0448c	1.5020919
60	0x3d2f8954	0.042855576
61	0x3fb28644	1.3947225
62	0xbf127f47	-0.5722546
63	0x3f019e21	0.5063191
64	0xbf2f74fd	-0.68537885
65	0x3fde0abb	1.7347025
66	0xbf84e46f	-1.0382212
67	0x3fe4b72d	1.7868401
68	0x3fe83816	1.8142116
69	0x3fc69ab3	1.551596
70	0xbf4cf6ac	-0.8006389
71	0xbf0b768f	-0.5447778
72	0x3f6a5366	0.91533506
73	0xbeadf694	-0.33977187
74	0x3f44c3b0	0.76861095
75	0xbfb601f6	-1.4219348
76	0xbfa56429	-1.2921191
77	0x3fbeb396	1.4898555
78	0x3fd1cf59	1.6391402
79	0x3fde9355	1.7388712
80	0x3ce51cb8	0.027967796
81	0x3fcfd6bb	1.6237406
82	0x3fae3996	1.3611324
83	0x3fa00c67	1.2503785
84	0x3fb07fbe	1.3788984
85	0xbf9e7579	-1.23796
86	0xbfe3e5b1	-1.7804471
87	0x3fe69e5f	1.8017081
88	0xbfa9c742	-1.3263934
89	0x3fda7c55	1.7069193
90	0x3fade8e7	1.3586701
91	0x3fd58d49	1.6683742
92	0xbdcd6815	-0.10029618
93	0x3fe77c89	1.808488
94	0x3f5f00b1	0.8711043
95	0x3eb9c790	0.36285067
96	0x3fcf52a8	1.61971
97	0xbd76587d	-0.060142983
98	0x3fcc7c58	1.5975447
99	0x3fcc8f00	1.598114
100	0xbfb6e6c3	-1.4289173
101	0x3fc94332	1.5723631
102	0x3ea74f4f	0.32677695
103	0x3eaf4619	0.34233168
104	0x3fe129ab	1.7590841
105	0xbfa4c24c	-1.2871795
106	0x3fde24b9	1.7354957
107	0x3fe193a2	1.7623179
108	0x3fcdab92	1.6067984
109	0xbed29333	-0.4112793
110	0x3fef8b06	1.8714302
111	0xbcd1ef5f	-0.025626836
112	0x3fa2f857	1.2732037
113	0x3fd0830a	1.628999
114	0x3feb9e14	1.8407617
115	0x3dfe0a85	0.1240435
116	0x3f0a06ab	0.53916425
117	0x3fb45874	1.4089494
118	0x3fc3c567	1.5294617
119	0xbf1962b2	-0.5991622
120	0x3fc6b6df	1.5524558
121	0x3fcf0e86	1.6176307
122	0x3fe626b8	1.7980566
123	0x3f661b50	0.89885426
124	0x3f60bb3e	0.8778571
125	0xbfaf8097	-1.3711118
126	0x3f982341	1.1885759
127	0x3efe9d9a	0.49729615

layers.2.weight f4 [2, 128]
0	0x3f02fbfc	0.5116575
1	0x3f1f7a32	0.6229583
2	0xbfd5b7bf	-1.66967
3	0x3f224425	0.6338523
4	0x3f853438	1.0406561
5	0x3f85afe4	1.0444303
6	0x3f6af608	0.91781664
7	0xc0257bba	-2.5856767
8	0x3f9e4743	1.2365497
9	0xc03d7f12	-2.9608808
10	0x3f9a985c	1.2077746
11	0x3f85c613	1.0451072
12	0xbf02a826	-0.51037824
13	0xc04ffcf1	-3.2498133
14	0x3f0da20b	0.5532538
15	0x3f85dc0f	1.0457782
16	0x3f123261	0.5710812
17	0x3f9e4d2a	1.2367299
18	0xbfdd1530	-1.7272091
19	0xc0323877	-2.7846963
20	0x3e86187e	0.2619056
21	0x3f9903f2	1.1954329
22	0x3f09a7d0	0.53771687
23	0x3fa76134	1.3076539
24	0x3f6b38c0	0.9188347
25	0xc01ae004	-2.4199228
26	0x3f90e062	1.1318476
27	0xc072a59e	-3.7913585
28	0xc0219243	-2.524552
29	0xbfce53ce	-1.6119325
30	0x3f6596ff	0.89683527
31	0xbdd06e97	-0.10177343
32	0x3f81034a	1.0079129
33	0x3f94d2b5	1.1626803
34	0x3e61643b	0.22010891
35	0x3d8ec5e5	0.06971339
36	0x3f52fa77	0.8241343
37	0x3f7e0198	0.9922118
38	0x3f958096	1.1679866
39	0x3fa70255	1.3047587
40	0x3f9089b6	1.1292026
41	0xc01733f9	-2.3625472
42	0xbe93e8f3	-0.28888664
43	0x3fa544e8	1.2911654
44	0x3f60cd1c	0.8781297
45	0x3f777382	0.96660626
46	0x3fbd6ab8	1.4798193
47	0x3f861809	1.0476085
48	0xc04f6b86	-3.2409377
49	0x3f8ea448	1.1143885
50	0x3f2eae4f	0.68234724
51	0x3f9e3854	1.236094
52	0x3fa5e77b	1.2961267
53	0x3f54f4a5	0.831858
54	0x3f107ac9	0.56437355
55	0x3f6823fa	0.90679896
56	0x3eeed6d8	0.46648288
57	0x3f89e720	1.0773659
58	0x3f8cf67b	1.101272
59	0x3fb6a8c2	1.4270251
60	0x3f22beea	0.6357256
61	0x3f93ed74	1.155684
62	0xc0912605	-4.535891
63	0x3ef8c9fb	0.485916
64	0xc020f551	-2.514973
65	0x3f5d29f5	0.86392146
66	0xc0125b23	-2.2868125
67	0x3f6c690c	0.9234779
68	0x3f9cb37c	1.2242274
69	0x3f9bec0e	1.2181413
70	0xc0637e38	-3.5545788
71	0xc06bdb4e	-3.6852603
72	0xbfea1a69	-1.828931
73	0x3ff1271e	1.8840063
74	0x3f0ae419	0.542543
75	0xbf5ec429	-0.87018067
76	0xc02d2a4d	-2.7057068
77	0x3f901088	1.1255045
78	0x3f973fea	1.181638
79	0x3f9f8c6a	1.2464726
80	0x3f1f56d6	0.62241876
81	0x3f85249c	1.0401797
82	0x3f6d59e3	0.9271528
83	0x3f100d80	0.562706
84	0x3f999d64	1.2001157
85	0xc0341d7b	-2.8142993
86	0xc0323953	-2.7847488
87	0x3f874804	1.0568852
88	0xbff40e80	-1.9066925
89	0x3f7503ec	0.9570911
90	0x3f570c21	0.8400288
91	0x3f7ef6bc	0.99595237
92	0xbe06459b	-0.1311249
93	0x3f86bc9f	1.0526313
94	0x3f4e7508	0.80647326
95	0x3efbefff	0.4920654
96	0x3f8b2be9	1.0872775
97	0xc0140860	-2.3130112
98	0x3f5700da	0.83985674
99	0x3f6713df	0.90264696
100	0xc048903d	-3.1338036
101	0x3f81dd43	1.0145649
102	0xbfe7cac0	-1.8108749
103	0xbfd9147c	-1.6959376
104	0x3f5c7f57	0.86131805
105	0xc088ac0a	-4.271001
106	0x3f9ebcd9	1.2401382
107	0x3f877418	1.0582304
108	0x3f9c2664	1.2199216
109	0x40046649	2.068743
110	0x3f95d076	1.1704242
111	0xbf2d7019	-0.6774917
112	0x3f83b41a	1.0289338
113	0x3f6f5588	0.93489885
114	0x3f8589a5	1.0432631
115	0x3f078d80	0.52950287
116	0x3f280d39	0.65645176
117	0x3fb0f14b	1.3823637
118	0x3f9a49d9	1.2053787
119	0xc0436ada	-3.0533967
120	0x3f740115	0.9531415
121	0x3f83b642	1.0289996
122	0x3f95db87	1.170762
123	0x3f1e5144	0.6184275
124	0x3f236e88	0.6384053
125	0xc00397b4	-2.0561342
126	0xbfaab7aa	-1.33373
127	0x3f09c87d	0.53821546
128	0x3f1fcddc	0.6242349
129	0x3f15ec61	0.5856381
130	0xc065ebc2	-3.5925145
131	0x3f0876ca	0.5330626
132	0x3ef40bb8	0.4766519
133	0x3f787fc6	0.97069967
134	0x3f5b99df	0.85781664
135	0xc0179b02	-2.368836
136	0x3f977896	1.1833675
137	0xc0171eca	-2.3612542
138	0x3fb41168	1.4067812
139	0x3f8a7ed0	1.081995
140	0x3f185d9f	0.59517854
141	0xc03c725c	-2.94448
142	0x3f25946e	0.6467961
143	0x3f66aed7	0.90110534
144	0x3f3c4b77	0.7355265
145	0x3f99334d	1.1968781
146	0xc0347614	-2.819707
147	0xc040b6dd	-3.011161
148	0x3fe72e2b	1.8060964
149	0x3fa48a3e	1.2854688
150	0x3efa8974	0.48932993
151	0x3fa97bc5	1.3240896
152	0x3f76a92d	0.9635189
153	0xc01a748b	-2.4133632
154	0x3f962be1	1.1732141
155	0xc025cec5	-2.5907452
156	0xbfda064e	-1.7033174
157	0xc02a7916	-2.6636405
158	0x3f877cb0	1.0584927
159	0xc04a07ab	-3.156718
160	0x3f83292d	1.0246941
161	0x3f9aeb2a	1.2103016
162	0x3eddc152	0.43311554
163	0x3c5ec447	0.013596601
164	0x3e9d64ad	0.30740872
165	0x3f8ad5db	1.0846514
166	0x3fa23bb2	1.2674468
167	0x3fb303dd	1.3985554
168	0x3f77e0b0	0.9682722
169	0xc010ad59	-2.2605803
170	0xc004d636	-2.0755744
171	0x3fa41ca3	1.2821239
172	0x3f50dd24	0.81587434
173	0x3f97ba43	1.1853718
174	0x3f731dcb	0.94967335
175	0x3f9afe0c	1.2108779
176	0xc08df19e	-4.4357443
177	0x3f8c4b01	1.0960389
178	0x3f24ed65	0.64424735
179	0x3f99ff5e	1.2031057
180	0x3fb649bf	1.4241256
181	0x3f376b3b	0.71647996
182	0x3f429400	0.7600708
183	0x3f27a536	0.65486467
184	0x3eacf58c	0.33781087
185	0x3f90a2fb	1.1299738
186	0x3fa0485b	1.2522081
187	0x3fa9d22f	1.3267268
188	0x3f6c94a5	0.92414314
189	0x3f95d1e2	1.1704676
190	0xc08fec51	-4.497597
191	0x3f380840	0.7188759
192	0xc04103a2	-3.0158467
193	0x3f496fbf	0.78686136
194	0xc00b2a99	-2.174475
195	0x3f5c66a0	0.86094093
196	0x3f919c25	1.1375777
197	0x3fb4984c	1.4108977
198	0xc030c222	-2.761849
199	0xc064100b	-3.5634792
200	0xc056bd20	-3.3552933
201	0x3ff6a75e	1.9269826
202	0x3f2f1ee3	0.68406504
203	0xc0058be0	-2.0866623
204	0xc03d153f	-2.9544218
205	0x3f8b29ed	1.087217
206	0x3facf88c	1.351335
207	0x3fa9d06f	1.3266734
208	0x3f7a5182	0.9778062
209	0x3f8109c0	1.00811
210	0x3f626fd1	0.8845187
211	0x3f9186d9	1.1369277
212	0x3f81e20a	1.0147107
213	0xc025c0f2	-2.5899014
214	0xc03b448b	-2.9260585
215	0x3f8ab3c9	1.0836116
216	0xbff0981a	-1.8796418
217	0x3f8f4236	1.1192081
218	0x3f41fb85	0.75774413
219	0x3f5b4eb0	0.8566694
220	0x3f3fb090	0.7487879
221	0x3f487e23	0.7831747
222	0x3f4a42fd	0.79008466
223	0x3ed6bdbd	0.41941634
224	0x3f858d99	1.0433837
225	0xbfecb32d	-1.849218
226	0x3f8fdd72	1.1239455
227	0x3f341e12	0.70358384
228	0xc088db11	-4.2767415
229	0x3fa08d88	1.2543192
230	0xbecb842e	-0.39749283
231	0xbf33ba87	-0.70206493
232	0x3f73ab67	0.95183414
233	0xc05dd063	-3.465844
234	0x3f91d8ec	1.1394324
235	0x3f76c988	0.9640126
236	0x3f525e73	0.8217537
237	0x3ff59700	1.9186707
238	0x3fa7d6a1	1.3112375
239	0xbf43e737	-0.7652468
240	0x3f8c925a	1.0982163
241	0x3f83ca87	1.0296181
242	0x3f4fe892	0.8121425
243	0x3f194294	0.59867215
244	0x3f16caf1	0.58903414
245	0x3faf1dfd	1.3681027
246	0x3fae4bb2	1.361685
247	0xc04ef72f	-3.233837
248	0x3f6e65b9	0.93123966
249	0x3f8b9e9b	1.0907778
250	0x3f9a5d0e	1.2059648
251	0x3f42277a	0.75841486
252	0x3ef8800f	0.485352
253	0xc003b669	-2.0580084
254	0xbdff3f51	-0.124632485
255	0x3f23bc93	0.63959616

layers.2.bias f4 [2]
0	0x3f581724	0.8441031
1	0x3f5efa04	0.87100244
