models/cartpole_v1_r3_150epoch.model (torch, 6333 bytes, 4 tensors)

layers.0.weight f4 [128, 4]
000000 04 30 0a 3f 23 66 49 bd dd 61 7e 3f 55 a2 85 3e
       0.53979516 -0.04916967 0.9936808 0.26100412
000010 a0 c7 88 be 34 13 b2 3e 41 1e cf 3f f5 f8 02 3f
       -0.26714802 0.34780276 1.6181108 0.5116113
000020 b2 1a 42 3e 5f d5 12 3e 04 f1 91 3f 43 dc d2 3e
       0.18955496 0.14339207 1.1401677 0.4118367
000030 f5 e5 76 be 72 ba 55 3e 4d 22 ac 3f 45 5c c2 3e
       -0.24111159 0.20871904 1.3447968 0.3796102
000040 56 dc 1f 3f a1 cd f5 bf a5 95 d9 bf cf c1 b2 be
       0.6244558 -1.9203378 -1.6998793 -0.3491349
000050 5c 96 a1 3e 85 dc 04 3e cc 94 da 3e 10 42 b0 3e
       0.31560028 0.12974747 0.42691648 0.34425402
000060 45 a6 9d 3d 6e f4 ec 3e 84 59 38 3f 1e 0a 4a 3e
       0.07697729 0.46280235 0.7201159 0.19730422
000070 24 4a b9 bd ba 1c 62 3e 2c 75 df 3f be d3 4f bd
       -0.09047344 0.22081271 1.7457633 -0.050739042
000080 d9 ef f4 3e 6d ae a0 3f d2 6f 07 41 f0 a4 8a 3f
       0.4783924 1.255323 8.4648 1.0831585
000090 76 1f a4 be 0c a7 8d 3e a6 16 a2 3f 3a 75 d4 3e
       -0.32055253 0.2766651 1.2663162 0.41495687
0000a0 62 9a 5c 3f 30 9e fd bf 4b 59 01 c0 0f 93 82 bf
       0.8617307 -1.98139 -2.021075 -1.0201129
0000b0 47 c2 9b 3e 66 5d 1b 3c 50 91 3c 3f 50 29 b6 3e
       0.3042166 0.009482717 0.7365923 0.35578394
0000c0 74 ca 67 3f 38 b5 25 40 5c ae d0 3f f2 8e 31 3f
       0.90543294 2.5891857 1.630321 0.6935874
0000d0 f0 bc d1 bd 3d 53 62 3e 94 bf 8d 3f cd fe f3 3e
       -0.10241115 0.22102065 1.107409 0.47655335
0000e0 93 33 a9 bd 61 52 7e bd 30 65 58 3f d6 bf a2 be
       -0.0826179 -0.06209028 0.845294 -0.31786984
0000f0 03 a8 07 be 59 7c ac 3e b2 d2 b8 3f f5 2e f9 3d
       -0.13247685 0.3368862 1.4439299 0.121671595
000100 0c 6b 5b bd e6 5d aa bc 9e 7f 8b 3f 2f bb 36 3e
       -0.053568885 -0.020796727 1.0898321 0.17844842
000110 e0 d1 c8 3e dc 57 7b 3c 95 c0 bb 3f 1a 6d 91 3e
       0.39222622 0.0153407715 1.4668146 0.2840355
000120 c2 07 3d be 16 16 bc bd dc b9 83 3f a1 59 4d 3e
       -0.1845999 -0.091839 1.0291095 0.20053722
000130 e9 fb 37 bf d4 dd 47 bf 43 b8 83 bf 3d 48 63 3e
       -0.7186876 -0.7807286 -1.0290607 0.22195525
000140 40 37 b4 bc eb 05 2c 3e 85 58 75 3f 7b 40 fd bb
       -0.021999002 0.16799133 0.95838195 -0.007728634
000150 32 09 a0 3e 68 4e b3 3c e3 a6 b7 3f 50 17 75 3e
       0.31257015 0.021887973 1.4347805 0.23934674
000160 36 35 3e be 86 e9 0a 3f c7 18 83 3f ba 44 91 3e
       -0.18574986 0.5426258 1.0241936 0.28372747
000170 43 b9 5f bf 14 36 05 c0 9f 55 af c0 78 07 da bf
       -0.8739206 -2.0814257 -5.479202 -1.7033529
000180 7c d3 5b 3e fd a6 eb 3d 69 38 1e 3f 1d 63 8f bc
       0.21467394 0.1150646 0.61804825 -0.017503316
000190 dd cb a0 3d cd 73 eb 3d 3d 35 95 3f ba 23 74 be
       0.07851384 0.114966966 1.1656872 -0.23841754
0001a0 ed 02 4e bf cc 88 c6 be cf 3f 93 bf 4c f6 b0 bd
       -0.80473214 -0.38776243 -1.1503848 -0.086407274
0001b0 61 3b 03 3f d6 ee 0d 40 35 b1 68 40 2a d0 c1 3f
       0.5126248 2.2177024 3.6358159 1.5141652
0001c0 58 99 32 bf 54 cb 63 c0 6d df c8 c0 4c d0 22 c0
       -0.69765234 -3.5592852 -6.2772737 -2.5439634
0001d0 4a 24 91 3d 43 09 9e 3e f8 75 a4 3f 15 3d ae 3e
       0.07087 0.3086644 1.2848501 0.34030977
0001e0 71 00 9b bc 13 71 55 3e f5 69 a2 3f 1d 49 2b 3e
       -0.018921109 0.20843916 1.2688586 0.16727109
0001f0 82 7b d2 3e 39 26 b2 bc 09 98 82 3f 8b 66 6f 3e
       0.41109854 -0.021746742 1.0202647 0.23378961
000200 cf cf f2 be 9f 08 e2 3e 6e 92 5f 3f 73 d1 d9 bd
       -0.4742417 0.44147202 0.8733281 -0.106356524
000210 6f 77 44 3e 5a 34 aa 3e 9e a0 b0 3f 18 81 4b 3b
       0.19186185 0.33243066 1.3799016 0.0031052288
000220 a2 b8 82 be 59 9b 39 3e e6 57 c6 3f ce 4f a0 3e
       -0.2553149 0.18125667 1.5495574 0.31310886
000230 59 a5 54 3f 26 de 14 c0 d6 d7 9b bf e5 af 28 bf
       0.830648 -2.3260589 -1.2175243 -0.65893394
000240 c9 f5 fd bf 8e ba a8 bf dc df 9c 40 4b 6a 70 3e
       -1.9840633 -1.3181932 4.9023266 0.23478048
000250 b1 16 90 bd f9 2d 8c bd 87 46 9a 3f e6 6d 8f 3e
       -0.07035578 -0.06844706 1.2052773 0.28013533
000260 b6 2e ae 3f ba 6b 8b 3f 4c 7f 8a 40 76 a4 93 3f
       1.3608005 1.089225 4.328039 1.1534564
000270 30 45 0e 3f 84 6e c1 bf 87 c9 c0 be 6c c4 13 bd
       0.5557432 -1.5111852 -0.37653753 -0.036075994
000280 b2 3b 1c 3c 89 53 01 3e 89 bd 6b 3f 97 5d 43 bd
       0.009535717 0.12629522 0.9208608 -0.047696676
000290 e6 e2 70 be 50 d1 ce 3d 3a 74 81 3f b5 e3 a5 3e
       -0.23524055 0.10098517 1.0113595 0.3240029
0002a0 c8 57 9f 3f 5e ee 9e 3f 92 f7 71 40 00 49 e7 3f
       1.2448664 1.2416494 3.7807355 1.8069153
0002b0 05 d9 a5 3e 4b 0c 67 3d a2 51 9a 3f 3c dc e3 3e
       0.32392135 0.056408208 1.2056162 0.44503963
0002c0 11 5a 73 3e 3c d0 df 3d 2f 44 b6 3e 5a b0 50 3e
       0.23764826 0.109283894 0.35598895 0.20379773
0002d0 5a 67 c7 3e 8e c0 e4 bd d3 09 e3 3f af 9e ed 3f
       0.38946038 -0.111695394 1.7737373 1.8564051
0002e0 fc ef 1a bf ca 4e 03 bf 13 5a 8a bf 9e 4c f2 bd
       -0.6052244 -0.512921 -1.0808738 -0.1183102
0002f0 a0 ba 5f 3f e5 59 0b c0 fc 34 c8 bf 0f b4 8d bf
       0.8739414 -2.1773617 -1.564117 -1.1070575
000300 fa 7e 6c bf 27 48 c2 be 24 d8 fb be a0 55 ab be
       -0.9238125 -0.37945673 -0.4918834 -0.33463764
000310 74 85 02 bd 4c 92 83 3e c5 01 71 3f ed e1 df 3d
       -0.031865552 0.25697553 0.94143325 0.10931764
000320 7b 17 0f bf 06 2c 32 c0 e9 a4 d4 c0 72 b2 1d c0
       -0.55895203 -2.783937 -6.6451306 -2.4640164
000330 d3 db 8d bf ce 55 e4 3d 21 39 c4 bf d3 c9 e1 bd
       -1.108271 0.111491784 -1.5329934 -0.11024823
000340 be cc 1e 3f 29 c3 cf be c3 8d 8c c0 82 ee 94 bf
       0.6203116 -0.40578583 -4.392305 -1.1635287
000350 3e d4 1d 3f 9c 8d 05 40 39 29 f9 3f e1 7c d2 3f
       0.6165198 2.0867682 1.9465705 1.644436
000360 6f 83 9a 3e d0 74 2f be 49 be 85 3f 6e f8 82 be
       0.301784 -0.17134404 1.0448695 -0.25580162
000370 da 84 da bd 80 17 ff 3c 6e 68 3d 3f 3c 32 9b be
       -0.10669871 0.031139135 0.7398747 -0.30311763
000380 06 ec e5 be 97 8d dc bf fe 48 a7 3f e0 91 cc 3e
       -0.44906634 -1.723071 1.306915 0.39955044
000390 a6 84 15 3d 3c 15 39 3e 75 d1 7d 3f 17 26 c9 3e
       0.036503457 0.18074507 0.9914773 0.39286873
0003a0 f5 c3 fc bf 3b 31 af bf 97 8c 81 3e 45 96 e1 be
       -1.9747301 -1.3686899 0.25302574 -0.4405996
0003b0 53 1f 5b bd 3a 4f 3b 3f 2d d6 6c 3f 0a d1 00 bf
       -0.05349667 0.73167765 0.92514306 -0.5031897
0003c0 8e 7d ec 3e 0a 09 a2 be 09 89 06 3f d1 ae a8 be
       0.4618954 -0.3164752 0.5255285 -0.32945874
0003d0 c4 bf 4d bf bf 86 17 c0 ca 12 b3 c0 e9 98 10 c0
       -0.80370736 -2.3675992 -5.5960436 -2.259333
0003e0 33 12 25 bf 1f 15 e6 be fa d2 5f bf 63 28 44 be
       -0.64480895 -0.4493799 -0.874313 -0.19156031
0003f0 91 f5 c2 3e d8 97 c6 be 34 f1 e6 3f 06 09 a1 3f
       0.38077977 -0.38787723 1.8042359 1.2580879

layers.0.bias f4 [128]
000000 4a d6 f7 3f e4 47 fa 3f 66 ba f5 3f f9 33 ec 3f
       1.9362271 1.9553189 1.9197509 1.8453361
000010 e9 70 84 3f ec 1c 03 40 5f 8e f2 3f fd 90 db 3f
       1.0346957 2.0486403 1.8949698 1.7153622
000020 9b 23 94 3f 02 31 ef 3f a3 80 07 be 9d 06 e5 3f
       1.1573366 1.8686831 -0.13232665 1.7892643
000030 d6 0d 40 3e c0 c2 f7 3f ab 13 03 40 a1 c0 e2 3f
       0.18755278 1.9356308 2.0480754 1.7715036
000040 26 59 f3 3f f3 d4 ff 3f 0e fc 06 40 50 86 e0 bd
       1.9011581 1.9986862 2.1091342 -0.10963118
000050 3c 53 d1 3f c3 e9 f3 3f ec a9 f4 3f 7d c4 ea bf
       1.6353526 1.9055713 1.9114356 -1.8341213
000060 98 01 ce 3f f6 34 fa 3f 1b db bc bc a7 ea 2c be
       1.6094236 1.9547412 -0.023053696 -0.16886388
000070 73 9b 3a 3d 53 a1 fc 3f 06 1c de 3f cf 62 f4 3f
       0.045558404 1.9736732 1.7352302 1.9092654
000080 de d2 ee 3f e0 0f f8 3f 36 15 f7 3f 47 f9 7e 3f
       1.8658102 1.9379845 1.9303348 0.9959912
000090 2a 85 1f 3f 0c 47 b7 3f 86 4f 0f be e6 1e cb 3f
       0.6231257 1.4318557 -0.1399518 1.5868804
0000a0 08 af 00 40 0a dc f2 3f e3 ab 4c bf 2d d2 00 40
       2.010683 1.89734 -0.7994978 2.012828
0000b0 3f 35 cd 3f ad 6e a7 bf 93 ae e7 bd a2 21 d3 3e
       1.6031874 -1.308065 -0.11312594 0.41236597
0000c0 bf 58 75 bd 9f 53 d3 3f 29 3b b4 be 42 96 41 ba
       -0.059899088 1.6509894 -0.35201386 -0.0007384756
0000d0 ed 91 bd bf d6 2c 98 3f f0 97 dd 3f b7 47 01 40
       -1.4810158 1.1888683 1.7311993 2.0200021
0000e0 5a 22 96 bf 2b be f3 3f 78 f7 2c c0 b6 b9 a0 3f
       -1.1729233 1.904241 -2.7026043 1.2556674
0000f0 7d ba f0 3f dc 83 cd bf ff 9f 37 bd be 70 b6 bf
       1.8806912 -1.6055865 -0.04483032 -1.4253156
000100 89 47 ef bd 90 70 99 3f 6a e6 0a 3f 97 c3 66 bd
       -0.11683566 1.1987476 0.54257834 -0.056338873
000110 39 85 5c be a4 c1 dd 3f 2b 0d d7 3f f6 00 35 3c
       -0.21535195 1.732472 1.6800894 0.011047592
000120 28 36 03 40 db fa de 3f cc a8 b3 3f 6c 84 98 3f
       2.0501804 1.7420305 1.4035888 1.1915412
000130 ca 76 ff be 4f 00 ff bd bb 58 3f bc 96 39 05 bf
       -0.49895316 -0.12451231 -0.01167887 -0.52040994
000140 99 1f ef 3f 0a d7 ce 3f 93 e1 d5 3f 85 cc bc 3f
       1.8681518 1.6159375 1.6709465 1.4749914
000150 7d bf ea 3f 1f 91 9f 3d c6 02 f2 3f b9 04 e5 bd
       1.8339688 0.077913515 1.8907096 -0.111825414
000160 8c 61 d1 3f 4e ac d1 3f 26 64 1f bf ec 83 f2 3f
       1.6357894 1.6380708 -0.6226219 1.8946509
000170 f2 56 89 3f 99 7b f6 3f f8 b1 22 be 6a 6f ff 3f
       1.0729659 1.9256469 -0.15888202 1.9955876
000180 21 dc 6d 3f d2 4a 9b 3f f1 af b6 bf 03 d4 f9 3e
       0.92914015 1.2132208 -1.4272443 0.48794565
000190 db e2 0a 40 dc 27 43 bd ae 1f d7 3f 2c 06 46 bd
       2.1700962 -0.047645435 1.6806543 -0.04834573
0001a0 38 4c 9c bf dd 55 d7 3f 07 c7 8c 3f ea a1 ef 3f
       -1.221076 1.6823078 1.0998238 1.8721287
0001b0 24 81 5f 3c 64 1c da bf 53 d2 53 3f d2 b4 f2 3f
       0.013641629 -1.7039914 0.82742804 1.8961432
0001c0 6d 98 82 3f 93 9b a7 bd d8 88 dd 3f 0f 26 ba bf
       1.0202767 -0.0818397 1.7307386 -1.4542865
0001d0 e1 5e 32 bf 56 41 b7 bd 56 8c 01 40 fd 17 e0 3f
       -0.69676024 -0.08948009 2.0241904 1.7507321
0001e0 ae e9 a6 3f 52 e2 3c 3f 85 25 9a bf 09 b6 fb 3f
       1.3040063 0.7378284 -1.20427 1.9664928
0001f0 60 da 0f 3f be 76 e8 3f 51 33 e0 3f 13 bc eb 3f
       0.5619259 1.8161237 1.751566 1.8416771

layers.2.weight f4 [2, 128]
000000 65 94 73 3f 4a 25 83 3f a6 ce 6b 3f cd 62 8c 3f
       0.9514831 1.0245755 0.92112195 1.0967652
000010 3b 0b e4 3f e2 96 7b 3f a7 34 84 3f 0b 32 7e 3f
       1.7815927 0.98277104 1.0328568 0.9929511
000020 4a 5e 74 c0 f6 cf 89 3f 9d 2b c7 3f c0 3b 59 3f
       -3.818255 1.076659 1.5560185 0.84856796
000030 12 05 b6 bf 38 ac 76 3f cf 35 97 3f fc 8e 91 3f
       -1.4220297 0.96356535 1.1813296 1.137176
000040 d9 c6 8b 3f 1c 41 7d 3f de 38 9d 3f 6c 1b 19 3f
       1.0920058 0.98927474 1.228298 0.5980747
000050 72 a8 9a 3f 00 21 83 3f 7c 37 89 3f 5b b3 7e c0
       1.2082655 1.0244446 1.0720057 -3.979697
000060 1e 6a 8e 3f cc 97 9e 3f 34 c8 56 3f ce a7 e8 bf
       1.1126134 1.2390075 0.83899236 -1.817621
000070 a8 5f 68 c0 2c 5b 5e 3f 23 d2 84 3f f7 ae 7d 3f
       -3.6308384 0.8685787 1.0376629 0.990951
000080 52 09 8e 3f be 7e 88 3f 3e c7 94 3f ea ad d5 3f
       1.1096594 1.0663679 1.1623304 1.6693699
000090 46 38 11 c0 8d 57 3a 3f 14 96 a5 bf 6e 42 c8 3f
       -2.2690597 0.7278984 -1.2936425 1.5645273
0000a0 b1 c5 9b 3f d0 09 8d 3f 52 d4 27 c0 a1 2b 62 3f
       1.2169706 1.101862 -2.622334 0.8834782
0000b0 52 13 53 3f f9 1d a4 bf bb 44 68 3f b3 da cd 3f
       0.82451355 -1.2821647 0.90729874 1.6082367
0000c0 43 44 8c 3f c6 82 8e 3f f1 1d 4d c0 42 fe 82 3f
       1.0958332 1.1133659 -3.2049525 1.0233843
0000d0 a0 2d 62 c0 00 20 f8 be 70 ee 9a 3f 86 e5 94 3f
       -3.5340347 -0.48461914 1.2104015 1.1632545
0000e0 6e 10 c6 bf 39 34 84 3f d7 86 a0 bf a9 8d 3d 3f
       -1.5473764 1.0328437 -1.254115 0.7404428
0000f0 e8 99 94 3f 26 96 6a c0 8a 65 89 3f c3 a5 ab bf
       1.1609468 -3.6654143 1.0734112 -1.3409961
000100 18 cb d0 bf 39 0c fc bf 4e 22 cc bf 47 74 88 3f
       -1.6311979 -1.969123 -1.5947969 1.0660485
000110 df 76 48 3f 75 c1 8b 3f 91 a8 8f 3f 81 06 c0 3e
       0.7830638 1.0918413 1.1223317 0.37504962
000120 59 33 a1 3f 2e 8e 80 3f 5c 98 52 c0 73 76 57 3f
       1.2593795 1.004339 -3.2905493 0.84165114
000130 7a b7 8a bd fe d7 89 3f 6e 80 b5 bf aa 6c d6 3f
       -0.067732766 1.076904 -1.4179819 1.6751912
000140 40 d6 af 3f d7 91 52 3f 08 33 0e 3f ef 5e 17 3f
       1.3737259 0.82253784 0.5554662 0.5912923
000150 5e f5 8e 3f a0 3e 05 40 33 b7 77 3f 35 2c 5c c0
       1.116863 2.0819473 0.96763915 -3.4401982
000160 fd 50 66 3f fe 47 96 3f d7 4d e6 bf 38 c9 85 3f
       0.8996733 1.174072 -1.7992505 1.0452032
000170 6a b1 07 bd 69 40 81 3f 2a f1 87 3f 99 7f 84 3f
       -0.03312818 1.0097781 1.0620472 1.035144
000180 52 df f1 bf 07 fd ed 3f 47 f5 ae bf 71 ee e3 3e
       -1.8896277 1.8592843 -1.3668603 0.44517854
000190 09 85 73 3f 9c 4c 80 3f 5f f8 80 3f 58 ef 90 3f
       0.9512487 1.0023379 1.0075797 1.1323042
0001a0 b5 8d 4f c0 cb a6 93 3f 38 b3 09 c0 46 fc 88 3f
       -3.243024 1.1535276 -2.1515636 1.0701988
0001b0 df 16 7f 3f 39 65 c5 bf 4d 03 18 c0 89 e7 8f 3f
       0.99644274 -1.5421516 -2.3752015 1.1242534
0001c0 32 ff 05 c0 b4 7a 7a 3f 37 6c 73 3f a5 07 b2 bf
       -2.093701 0.9784348 0.95087 -1.3908583
0001d0 80 76 f0 bf c3 7e 78 3f e7 39 9e 3f 36 b1 6a 3f
       -1.8786163 0.97068423 1.236142 0.9167665
0001e0 fd 9d d0 bf c7 c2 8c bf 60 93 18 c0 45 c4 89 3f
       -1.6298214 -1.0996941 -2.383995 1.0763022
0001f0 ef 57 0c c0 34 6e 88 3f 03 03 7f 3f 3d d4 9c 3f
       -2.192867 1.0658631 0.9961397 1.225227
000200 7c 39 7d 3f 89 57 b2 3f 42 97 90 3f 8c 78 b2 3f
       0.9891584 1.3932964 1.129616 1.3943038
000210 e9 ba d2 3f 35 72 5b 3f 05 9f 50 3f 43 08 6a 3f
       1.646329 0.8572114 0.81492645 0.91418856
000220 eb 62 44 c0 63 48 ae 3f f6 09 08 40 38 c5 85 3f
       -3.0685375 1.3615841 2.125608 1.0450811
000230 f2 97 9d bf 8e 79 9c 3f db 77 78 3f 14 6f 87 3f
       -1.2311995 1.2224596 0.97057885 1.0580773
000240 c0 12 9e 3f f8 64 88 3f bb 68 a4 3f a6 4f 10 bc
       1.2349472 1.0655813 1.2844461 -0.008808052
000250 52 ae 7f 3f 98 a8 8c 3f dd e9 81 3f 82 e0 46 c0
       0.99875367 1.0988951 1.0149494 -3.1074529
000260 2d 6a 5a 3f cc df 62 3f 5c 7e 35 3f df 53 20 c0
       0.8531826 0.88622737 0.70895934 -2.505119
000270 4e f6 77 c0 f5 1c 85 3f e6 a3 8f 3f d2 8f 83 3f
       -3.8744082 1.0399462 1.1221893 1.0278265
000280 63 2c 95 3f da 5a 50 3f 99 db ae 3f 6e cb d9 3f
       1.1654171 0.8138863 1.3660766 1.7015207
000290 65 61 48 c0 9a 43 c2 3f 9a bf fe bf 50 f2 ce 3f
       -3.1309445 1.517688 -1.9902222 1.6167698
0002a0 bc 7d 84 3f ed 71 a8 3f f8 c7 28 c0 b3 21 8f 3f
       1.0350871 1.3159767 -2.6372051 1.1182159
0002b0 68 c6 50 3f ba 07 de bf 0e 11 96 3f d6 7c fc 3f
       0.81552744 -1.7346108 1.1723955 1.9725597
0002c0 79 e5 4c 3f 16 69 80 3f f5 eb 48 c0 b3 1d e0 3e
       0.8003765 1.003207 -3.1394017 0.4377266
0002d0 1a bb 3e c0 77 b9 11 c0 d7 3f 71 3f 82 d8 6a 3f
       -2.9801698 -2.2769449 0.94238037 0.91736615
0002e0 b1 e6 b9 bf de 15 95 3f 9b 90 b1 bf 0f 22 b4 be
       -1.4523526 1.1647298 -1.3872255 -0.35182235
0002f0 96 a1 4a 3f 31 6a 57 c0 a0 dc 90 3f 4a 43 d4 bf
       0.7915281 -3.3658564 1.131733 -1.6583035
000300 3f 29 8f bf 0b 34 df bf 97 7f 13 bf 0a da bd 3f
       -1.1184462 -1.7437757 -0.5761656 1.4832165
000310 b8 57 c2 3f eb 1c 75 3f 73 58 c5 3f f7 51 51 3f
       1.518302 0.9574725 1.5417618 0.81765693
000320 f1 74 90 3f 33 1e a2 3f ac c5 33 c0 5a 5b 06 be
       1.1285688 1.2665466 -2.80894 -0.13120785
000330 e0 2e 36 3d 7d 0b ca 3f c4 ff 54 c0 99 66 48 40
       0.044478297 1.5784756 -3.3281107 3.131262
000340 1b 7e af 3f aa 1e b7 3f 66 b7 ad 3f 85 bb a0 3f
       1.3710359 1.4306233 1.3571594 1.2557226
000350 1b 47 91 3f ee 28 12 40 8a 98 6c 3f 93 66 43 c0
       1.1349825 2.2837481 0.92420256 -3.0531356
000360 92 63 65 3f c8 17 96 3f 7c 45 e3 bf ac a9 6d 3f
       0.8960506 1.1726007 -1.775558 0.92837024
000370 e2 2c a2 bf a4 4a 12 3f d3 43 ba 3f 39 35 8d 3f
       -1.2669947 0.5714514 1.4551948 1.1031867
000380 15 ed 04 c0 b7 4a c8 3f f4 40 cb bf 67 96 a3 bf
       -2.0769703 1.5647801 -1.5879197 -1.2780274
000390 6f e7 60 3f f0 1b 42 3f 68 4f c4 3f 6d a4 19 3f
       0.8785314 0.7582388 1.5336733 0.6001652
0003a0 4c cc 88 c0 f0 b8 41 3f 9d c8 07 c0 bd a2 48 3f
       -4.2749386 0.7567282 -2.1216195 0.7837332
0003b0 c1 21 0d 3d 23 1a b3 bf 38 68 08 c0 00 62 47 3f
       0.03445602 -1.3992351 -2.131361 0.7788391
0003c0 04 0a e2 bf 95 14 71 3f 61 b5 f3 3f 2a 3a 85 bf
       -1.7659307 0.9417203 1.9039727 -1.0408375
0003d0 87 f4 0a c0 84 ab 9a 3f 71 cc 8f 3f bb 8d 35 3f
       -2.1711748 1.2083592 1.1234266 0.7091939
0003e0 66 0f ff bf e2 b5 b6 be 4b b2 aa bf b9 43 89 3f
       -1.9926574 -0.3568564 -1.3335661 1.0723792
0003f0 cb 30 22 c0 df 20 a1 3f e5 aa b4 3f 82 59 89 3f
       -2.534228 1.2588156 1.4114653 1.0730441

layers.2.bias f4 [2]
000000 f1 b2 8c 3f e9 24 83 3f
       1.0992109 1.0245639
