models/cart_pole_v1_r1_300epoch.model (torch, 6343 bytes, 4 tensors)

layers.0.weight f4 [128, 4]
0	0x3f233242	0.6374856
1	0x3fa611d6	1.2974193
2	0x3fdc9123	1.7231792
3	0x3ed08863	0.40729055
4	0xbf2175f8	-0.6307063
5	0xbf063a6b	-0.5243289
6	0x3fb25461	1.3932
7	0x3d15214e	0.036408715
8	0xbebb0e41	-0.36534312
9	0xbf017ab4	-0.50577855
10	0x3f09535c	0.5364282
11	0x3dbc41d3	0.091922425
12	0x40156960	2.3345566
13	0x3f8d9a26	1.1062667
14	0xbf05b01d	-0.5222185
15	0x3f18d647	0.5970196
16	0x3e32d822	0.1746526
17	0x3cb490a7	0.022041632
18	0x3f8a09f3	1.0784286
19	0x3f644c7f	0.89179224
20	0x40039072	2.0556912
21	0x3f75b904	0.95985436
22	0x3fb5a239	1.4190131
23	0x3efa2518	0.48856425
24	0x40b7d3b8	5.7445946
25	0x3f7c22a5	0.98490363
26	0xbf57f6a3	-0.8436071
27	0x3f15a958	0.58461523
28	0xbf428c82	-0.7599565
29	0x3eecdd1e	0.4626245
30	0x40cf866d	6.4851594
31	0x401ce167	2.4512575
32	0xbf196c8c	-0.59931254
33	0xbeabfb69	-0.33590248
34	0x3facb5a2	1.349293
35	0x3e74ad16	0.23894152
36	0x3f0112d1	0.50419337
37	0x3fbe1591	1.4850332
38	0x3fdcafeb	1.7241186
39	0x3ef5c3bf	0.48000905
40	0x3dcba92a	0.09944375
41	0x3dda7177	0.10666173
42	0x3fd2e0d3	1.6474861
43	0x3f3ca263	0.7368528
44	0x3f17a108	0.5923009
45	0x3fb58211	1.4180318
46	0x40daebf2	6.841302
47	0x4042e7da	3.045401
48	0x3f20d457	0.62824005
49	0x3fc5b0f3	1.5444626
50	0x3f9f0e34	1.242621
51	0x3f1b8c4d	0.60760957
52	0x3f9fe14a	1.2490628
53	0x3fa64f8a	1.2993023
54	0x3f292f80	0.66088104
55	0x3f014672	0.50498116
56	0x3fb702c9	1.4297725
57	0x4018706e	2.3818622
58	0x4114c9e6	9.299292
59	0x403c1875	2.9389927
60	0x40d9db76	6.8080397
61	0x3fda3319	1.7046844
62	0xbfeb8252	-1.8399146
63	0xbc6503e3	-0.013977977
64	0x3c5b7bc9	0.013396212
65	0xbf07fb57	-0.5311789
66	0x3f94670c	1.1593947
67	0x3e70bd91	0.23509814
68	0xbd344b01	-0.04401684
69	0x3d21e7a1	0.03952754
70	0x3f78ca5b	0.9718377
71	0x3f58c5e0	0.84676933
72	0x3fc36d11	1.526766
73	0x3fadfc95	1.3592707
74	0x3f5e4d76	0.86836946
75	0x3ee314ea	0.44351894
76	0xbfdba285	-1.7158972
77	0x3e1efcdc	0.15526146
78	0x40966f3b	4.701078
79	0x3fe535c6	1.7907035
80	0x3fd233d4	1.6422067
81	0x3fb2f03b	1.3979563
82	0x3f261229	0.6487146
83	0x3f23f66f	0.640479
84	0xbf33e6f0	-0.7027426
85	0x3d1d5c09	0.03841785
86	0x3f957a55	1.1677958
87	0x3f274031	0.65332323
88	0x3f18fbea	0.5975939
89	0x3fbead47	1.489663
90	0x40be9fe4	5.957018
91	0x3fdba99c	1.7161136
92	0xbffc28ea	-1.9699986
93	0x3ea7afc4	0.32751286
94	0x40b07ce7	5.515247
95	0x402dcffa	2.715819
96	0xbeb6b56f	-0.35685298
97	0xbeffabea	-0.49935848
98	0x3f4e17f4	0.805053
99	0x3d5a0759	0.053229664
100	0xbccbb916	-0.02486853
101	0xbeee138c	-0.46499288
102	0x3ee35a98	0.44405055
103	0x3eb3055c	0.34965026
104	0x3ef03414	0.46914732
105	0x3f45b313	0.7722637
106	0x3fff19c1	1.9929734
107	0x3f82f019	1.0229522
108	0x3fab25f3	1.3370956
109	0x3fb8df26	1.44431
110	0x3f4965e7	0.78671116
111	0x3f01a548	0.50642824
112	0x3f64a411	0.89312845
113	0x3fbbd991	1.4675771
114	0x400655a5	2.0989773
115	0x3ed49e90	0.41527224
116	0x3ef2e6ba	0.47441655
117	0x3f4828bb	0.7818715
118	0x3fce336a	1.610944
119	0x3f80c3d7	1.0059766
120	0xbf25ca64	-0.6476195
121	0x3d1431ac	0.036180183
122	0x3f187ece	0.5956849
123	0x3f22dac4	0.6361506
124	0xbf4b57c8	-0.7943082
125	0x3eb98682	0.36235434
126	0x3fa75fae	1.3076074
127	0x3f663767	0.8992829
128	0xbf18974d	-0.59605867
129	0xbf1f4814	-0.6221936
130	0x3f72ff2f	0.9492063
131	0x3d0dae06	0.03458979
132	0xbeab5a62	-0.33467394
133	0xbf122183	-0.57082385
134	0x3f69669a	0.9117218
135	0x3d302a4f	0.0430091
136	0xbf01e5ea	-0.50741446
137	0x3e0514d4	0.12996227
138	0x3f33d890	0.70252323
139	0x3f441950	0.76601124
140	0xbf4c6505	-0.79841644
141	0x3dfcc14e	0.123415574
142	0x3ff56acc	1.9173217
143	0x3e988309	0.29787472
144	0xbf1abb76	-0.6044229
145	0x3b8c3b15	0.004279504
146	0x3ea86714	0.32891142
147	0x3f30a79f	0.6900577
148	0x3f6bc671	0.9209967
149	0x3faff85c	1.3747668
150	0x3fd26e42	1.6439898
151	0x3f02fb0f	0.51164335
152	0x3fc5b1ba	1.5444863
153	0x3faadd63	1.3348812
154	0x3f5dab9e	0.8658999
155	0x3ef1cf62	0.47228533
156	0xc0871de2	-4.222398
157	0xbe87f1b8	-0.26551604
158	0x40273ca4	2.6130762
159	0xbf0db1ca	-0.5534941
160	0x3fa0e894	1.2570977
161	0x3fbbf6f1	1.4684736
162	0x3fc35ca5	1.5262648
163	0x3f252af9	0.64518696
164	0x3f7ac6d2	0.97959626
165	0xbf5a0088	-0.8515706
166	0xc0c58966	-6.1730223
167	0xc08f5267	-4.478809
168	0x3f985ca3	1.190327
169	0x3fc52947	1.5403222
170	0x4098fcd6	4.780864
171	0x40048bfa	2.0710435
172	0xbf0d7f4c	-0.55272365
173	0xbde9991f	-0.11406159
174	0x3ed60d24	0.418069
175	0x3f0429d1	0.51626307
176	0x3dd61233	0.1045269
177	0x3fc662b9	1.5498878
178	0x401626cc	2.346118
179	0x3f0792f0	0.52958584
180	0x3f43d8fb	0.7650296
181	0xbe7a352a	-0.24434343
182	0xc0cb01b6	-6.343959
183	0xc0720160	-3.781334
184	0x3f017136	0.5056337
185	0x3ff7a5b0	1.9347439
186	0x40f1967b	7.549619
187	0x401f9396	2.493383
188	0xbf239d3a	-0.63911784
189	0xbe8451ff	-0.25843808
190	0x3ec9f0de	0.3944158
191	0x3e700e9d	0.23443075
192	0xbe79ac7b	-0.24382202
193	0x3f3c25d0	0.734952
194	0x40c60507	6.1881137
195	0x407fa09d	3.994178
196	0xbda27a75	-0.07933513
197	0xbe9fc1aa	-0.3120244
198	0x3f6ff079	0.9372631
199	0x3f12665b	0.5718743
200	0xbe6095af	-0.219321
201	0xbee26a99	-0.44221953
202	0x3f9a2dec	1.2045264
203	0x3ec3c5f4	0.38236964
204	0xbece7346	-0.40322322
205	0xbd0c2c8b	-0.034222167
206	0x3f51f2c9	0.82011086
207	0x3f30b684	0.69028497
208	0x3faee877	1.3664693
209	0xbf40db5d	-0.7533472
210	0xc0bb4f0e	-5.8534
211	0xc05c9cb2	-3.447064
212	0xbe024ddd	-0.12725015
213	0xbf10591a	-0.5638596
214	0x3fcd241e	1.6026647
215	0x3e5f3a28	0.21799529
216	0xc08191b0	-4.049034
217	0xc0008f96	-2.0087638
218	0x407def8a	3.9677453
219	0x3f437dee	0.7636403
220	0xbf0d112c	-0.5510433
221	0x3e9bf1d6	0.30457944
222	0x3fed2014	1.8525414
223	0x3eb3098f	0.3496823
224	0x3f882c45	1.063851
225	0x3fb68f7f	1.4262542
226	0x3fce2f00	1.6108093
227	0x3eccaa44	0.39973652
228	0xc0813c2c	-4.038595
229	0xbf0467f4	-0.5172112
230	0x40213a09	2.5191672
231	0xbf3fbcf5	-0.748977
232	0x3fd28d18	1.6449308
233	0x3fa681c1	1.3008348
234	0x3f490f7b	0.78539246
235	0x3f3674bc	0.7127187
236	0xbe48073a	-0.19534007
237	0xbe79db16	-0.24399981
238	0x3e833675	0.25627485
239	0x3f0e1f5d	0.55516607
240	0xbf014b44	-0.5050547
241	0xbe7106a8	-0.23537695
242	0x3fa9ec9b	1.3275331
243	0x3e92d13f	0.28675267
244	0x40cdf0be	6.4356375
245	0x4028ab9d	2.6354744
246	0xbfa23c82	-1.2674716
247	0xbeb74940	-0.35798073
248	0x3f9e58bf	1.2370833
249	0x3fc7fc92	1.5623953
250	0x3fbedf56	1.4911907
251	0x3f0adef8	0.54246473
252	0xbfb711fc	-1.4302363
253	0xbff146af	-1.8849696
254	0x3f042b74	0.51628804
255	0xbf1848f6	-0.5948633

layers.0.bias f4 [128]
0	0x3fba4c77	1.4554585
1	0x401a757d	2.413421
2	0x4002c268	2.0431156
3	0x3f5aecbc	0.8551748
4	0x4007c8f3	2.12164
5	0x3f2e351a	0.68049777
6	0xbfa467c9	-1.2844173
7	0x3fb4c78d	1.4123398
8	0x401b0126	2.421945
9	0x3fc77ace	1.5584352
10	0x3fd8f304	1.6949162
11	0xc010c534	-2.2620363
12	0x3fb8e8b9	1.4446021
13	0x3fbdab76	1.4817951
14	0xbf1a58ea	-0.6029192
15	0xbf896f8e	-1.0737169
16	0x400895d3	2.1341445
17	0x400f24ad	2.2366135
18	0x3fbfd811	1.4987813
19	0x3fa51303	1.2896427
20	0x3fa5fecf	1.2968386
21	0x4027186a	2.610865
22	0xbd5b2ac3	-0.053507578
23	0x3fd8c304	1.6934514
24	0x3ff8c89b	1.943622
25	0x400b5850	2.1772652
26	0x3fd710a6	1.6801956
27	0x3fcd3b30	1.6033688
28	0x3fd69cba	1.6766579
29	0x3fc9547a	1.5728905
30	0x401ae7d9	2.4204009
31	0x40201bda	2.5017
32	0x40219f5d	2.5253518
33	0x4006309a	2.0967164
34	0x4014573a	2.317824
35	0x3fe5bc75	1.7948138
36	0x4020c62e	2.512096
37	0x3fb10d64	1.3832211
38	0x3fb88d8f	1.44182
39	0x3f9bae0b	1.2162489
40	0x3fab5e64	1.3388181
41	0x40457a39	3.0855849
42	0xbfda459a	-1.7052491
43	0x401517ae	2.3295703
44	0x3fc21f61	1.5165826
45	0x402f312d	2.7373765
46	0xbf84bca9	-1.0370075
47	0x4004be2b	2.074107
48	0x3f6c7bd6	0.9237646
49	0x401f85b5	2.4925358
50	0x4026d016	2.6064506
51	0x401dc17f	2.464935
52	0xbda428d8	-0.08015603
53	0x401cb728	2.448679
54	0x3f0fc5bb	0.5616109
55	0x3fa873fb	1.3160394
56	0x3fd7c467	1.6856812
57	0x3f9ec6c1	1.2404405
58	0x3f74d33a	0.95634806
59	0x4012cec3	2.2938697
60	0x400abad3	2.1676528
61	0xbf261063	-0.64868754
62	0x3fce79d1	1.6130925
63	0x3f5fbedd	0.8740061
64	0x3f52adc5	0.822964
65	0x4012ce93	2.2938583
66	0x401f6dde	2.4910808
67	0x3f56f9bc	0.83974814
68	0x3fbc3709	1.4704295
69	0x3fd32dc3	1.649834
70	0x3fd91408	1.6959238
71	0xbf1aa44c	-0.6040695
72	0x3f8a4b7c	1.0804286
73	0x401e8d07	2.4773576
74	0x3fd02db0	1.6263943
75	0x40018eca	2.0243402
76	0x402313b9	2.5480788
77	0x400d8527	2.211252
78	0x401297d7	2.2905176
79	0x3f03c1bf	0.5146751
80	0x3e8dbd0c	0.27683294
81	0x3f99edc1	1.2025682
82	0xbea78f6c	-0.3272661
83	0x3f894414	1.0723901
84	0x3f89698a	1.0735333
85	0x3fceca08	1.6155405
86	0x3fba8673	1.4572281
87	0x3f90ba77	1.1306905
88	0xbb97770a	-0.004622345
89	0x3f47fb20	0.7811756
90	0x3f521848	0.820683
91	0x3fa0a25a	1.2549546
92	0x3ece6073	0.4030796
93	0x3fb69ec2	1.4267199
94	0x3fae7972	1.3630812
95	0x401e5ccd	2.474414
96	0x401562f9	2.3341658
97	0x3f4d1a83	0.8011858
98	0x3fc5162b	1.539739
99	0x3f3d41c5	0.7392848
100	0x3fcb0fbb	1.5864176
101	0x3fdc1961	1.7195245
102	0x3fb5d413	1.4205345
103	0x4009a72a	2.150828
104	0x3fa37b28	1.2771959
105	0x400b91ca	2.1807733
106	0x3fbf177f	1.4929045
107	0xbfd7510f	-1.6821612
108	0x3f41465b	0.7549798
109	0x3fcecc53	1.6156105
110	0x3ff02fb9	1.8764564
111	0x3fdbe21d	1.7178379
112	0x401b626d	2.4278824
113	0x3f11524d	0.56766206
114	0x3fe891ac	1.8169456
115	0x3fbfec6d	1.4994026
116	0x3f088e56	0.5334219
117	0x3fd15cd3	1.6356453
118	0x3f840669	1.0314456
119	0x3f77b72f	0.9676389
120	0x3fe91af2	1.8211348
121	0x3e048817	0.12942539
122	0x3f834d51	1.025797
123	0xbfed292c	-1.852819
124	0x3f919a7e	1.1375272
125	0x3fe003b0	1.7501125
126	0x3f7b1274	0.9807503
127	0x3f9306d0	1.1486454

layers.2.weight f4 [2, 128]
0	0x3fc07c70	1.5037975
1	0x3fcf36c0	1.6188583
2	0x3fba49be	1.4553754
3	0x3faa816f	1.332075
4	0x3f9b9b01	1.2156678
5	0x3fbba2d3	1.4659065
6	0xc000a9e6	-2.0103698
7	0xc02e4790	-2.7231178
8	0x3fd38ac5	1.6526724
9	0x3fc5d7e9	1.5456516
10	0x3fa8a133	1.3174194
11	0xc0016b6d	-2.0221817
12	0x3fb7ff8c	1.4374862
13	0x3f9f1bab	1.2430319
14	0xc05c111a	-3.4385438
15	0xc003dbf3	-2.0602996
16	0x3fc6e76a	1.5539372
17	0x3fabc1c1	1.3418504
18	0x3fc9a93d	1.5754772
19	0xc00672f4	-2.1007662
20	0x3fc2b380	1.5211029
21	0x3fcfec45	1.6243979
22	0xc0002a59	-2.0025847
23	0xc00b741e	-2.1789622
24	0x3fba90f5	1.4575487
25	0x3fd46a1f	1.6594886
26	0x3f94e1b3	1.1631378
27	0x3fcc3786	1.5954444
28	0x3fb6e5c2	1.4288867
29	0x3f9cb023	1.2241253
30	0x3fc391ee	1.5278909
31	0x3fdb9e16	1.7157619
32	0x3fcf791f	1.6208838
33	0x3fc45248	1.533761
34	0x3fca6337	1.5811528
35	0x3fb2012a	1.3906605
36	0x3fbfc33e	1.4981458
37	0x3fb3bd8b	1.4042219
38	0x3fbfcf4d	1.4985138
39	0x3fdc59a6	1.7214859
40	0x3fb7ca9a	1.4358704
41	0xbfa4d780	-1.2878265
42	0xbfa9889f	-1.3244818
43	0x3fb6f66e	1.4293954
44	0x3fc05d73	1.5028518
45	0xbf8db018	-1.1069365
46	0xc06cbdf7	-3.6990945
47	0x3fcf45ec	1.6193213
48	0xbf1c29d0	-0.610013
49	0x3fb3cb22	1.4046366
50	0x3fc80444	1.5626302
51	0x3fb9cad2	1.4515021
52	0xc03591dc	-2.8370275
53	0x3fc333cf	1.5250186
54	0x408e6ae2	4.450547
55	0x3f83ae8b	1.0287641
56	0x3fbc2420	1.4698524
57	0x3fd532ae	1.6656091
58	0x3fb8ba14	1.4431787
59	0x3f9cda97	1.2254208
60	0x3fcb95f2	1.5905135
61	0xc0035226	-2.051889
62	0x3fa7df5f	1.3115042
63	0xbfe47a76	-1.7849872
64	0xbfea4a81	-1.8303987
65	0x3fc97811	1.5739766
66	0x3fdf0caa	1.742574
67	0x3f820676	1.0158222
68	0x3fb5faac	1.4217124
69	0x3faa265a	1.3292954
70	0x3fda7d6d	1.7069527
71	0xc086efaf	-4.2167583
72	0x3f881709	1.063203
73	0x3fb6a07d	1.4267727
74	0x3fb59049	1.4184657
75	0x3f9fd1a8	1.2485857
76	0x3fba36cd	1.4547974
77	0x3fb87bc1	1.4412767
78	0x3f9e5dc2	1.2372363
79	0xc0bb3129	-5.849751
80	0xc0c04d33	-6.0094237
81	0x3fb22e66	1.392041
82	0x3b4c006e	0.0031128186
83	0x3f939396	1.1529415
84	0x3f9b342a	1.2125294
85	0x3faf8e09	1.3715221
86	0x3faad14c	1.3345122
87	0x3fbb9043	1.46534
88	0x3f973177	1.181197
89	0x3fed352b	1.853185
90	0xc00e3baf	-2.2223928
91	0x3fb5f6db	1.4215959
92	0xc0d27f73	-6.578058
93	0x3f9a5f6c	1.206037
94	0x3f68df61	0.9096585
95	0x3fc67ac3	1.5506214
96	0x3fbfa95d	1.497356
97	0x3f9de9ad	1.2336937
98	0x3fc4bce6	1.5370147
99	0xc04e6645	-3.224992
100	0x3fa566b3	1.2921966
101	0x3faef9ab	1.3669943
102	0x3fb78dbb	1.4340128
103	0x3fc05e3e	1.502876
104	0x3f92f34c	1.1480498
105	0x3fb6887f	1.4260405
106	0x3fba6000	1.4560547
107	0xc057d6c0	-3.3724823
108	0x3f9f06e4	1.2423978
109	0x3f9f2b61	1.2435113
110	0x3fa406a9	1.2814533
111	0x3fbcdc65	1.4754759
112	0x3fc4e6ce	1.5382936
113	0x3fa86bd2	1.3157904
114	0x3fb8fdc9	1.4452449
115	0x3fa3f631	1.2809507
116	0xbfa72ef3	-1.3061203
117	0x3fb1f716	1.390353
118	0x3fc31f04	1.524384
119	0x3fb1198b	1.383592
120	0x3fb1ff2c	1.3905997
121	0xbf974cbb	-1.1820291
122	0x3fb72b11	1.4310018
123	0xbfcf06c0	-1.6173935
124	0x3fdc8989	1.7229472
125	0x3fc2b11e	1.5210302
126	0x3f9b6fd3	1.2143501
127	0x3fdd9027	1.7309617
128	0x3fc89e03	1.5673221
129	0x3fcefc96	1.6170833
130	0x3fa7e884	1.3117833
131	0x3fddbdba	1.7323525
132	0x3fda55d6	1.7057445
133	0x3fa3ab36	1.2786624
134	0xbfd48e95	-1.6606013
135	0xbf7554e8	-0.9583268
136	0x3fdc34b4	1.7203584
137	0x3fc111d1	1.5083562
138	0x3fdbef71	1.7182447
139	0xc086eff8	-4.216793
140	0x3f91ff07	1.1405953
141	0x3fd33917	1.6501797
142	0xc05f892e	-3.4927478
143	0xbfdbe2d3	-1.7178596
144	0x3fe2f318	1.7730436
145	0x3fcb60f1	1.5888959
146	0x3ff06ce2	1.8783228
147	0xbf9996d4	-1.1999154
148	0x3faa1500	1.3287659
149	0x3fd46850	1.6594334
150	0xbfa315f4	-1.2741075
151	0xbfcfc996	-1.6233394
152	0x3f9c050d	1.2189041
153	0x3fee6bb3	1.8626617
154	0x3fb6dde3	1.4286464
155	0x3fed4e21	1.8539468
156	0x3f933c96	1.1502864
157	0x3fbe9225	1.488835
158	0x3fcf23df	1.6182822
159	0x3fe09a3c	1.7547069
160	0x3fc88ef5	1.5668627
161	0x3fa8a6cf	1.3175906
162	0x3fdcd5ef	1.7252787
163	0x3f805b83	1.0027927
164	0x3fdec0ce	1.7402589
165	0x3f894956	1.0725505
166	0x3fd162f7	1.6358327
167	0x3ffc4825	1.9709517
168	0x3f5a4022	0.8525411
169	0xc0455544	-3.0833292
170	0xc09461d5	-4.6369424
171	0x3fd5d949	1.6706935
172	0x3f5fcdd2	0.8742343
173	0xc07a900d	-3.9150422
174	0xc010835c	-2.2580175
175	0x3fe7ea84	1.8118443
176	0xc05450f9	-3.3174422
177	0x3fe364f6	1.7765186
178	0x3fcd68db	1.6047624
179	0x3fc629b4	1.5481477
180	0xbfa82b9f	-1.3138312
181	0x3fcfc274	1.6231217
182	0xbe77d7fb	-0.24203484
183	0x3f5eb378	0.869926
184	0x3fd1c2f6	1.6387622
185	0x3ff6465a	1.924022
186	0x3f7bddcd	0.98385316
187	0x3fb6c664	1.4279294
188	0x3fb4fbe1	1.4139367
189	0xbfbc9f8c	-1.473619
190	0x3f7d9294	0.99051785
191	0x3f0a9703	0.54136676
192	0x3f82a1ec	1.0205665
193	0x3feb3eae	1.8378503
194	0x3fe15fb6	1.7607334
195	0x3fb86265	1.4405028
196	0x3f8e9192	1.1138175
197	0x3f997a1c	1.199039
198	0x3fd9256d	1.6964546
199	0xc0a382e2	-5.109727
200	0x3fa6e666	1.3039062
201	0x3fd2cb94	1.6468377
202	0x3fe12919	1.7590667
203	0x3f9d7283	1.2300571
204	0x3fd65a8c	1.6746383
205	0x3fd445dc	1.6583819
206	0x3fc5bca8	1.5448198
207	0xc0786310	-3.8810463
208	0xc0ad72ae	-5.420249
209	0x3f63f490	0.8904505
210	0x3d55a7d9	0.052162025
211	0x3fcc963d	1.5983349
212	0x3f631d80	0.8871689
213	0x3fbb0bfd	1.4613034
214	0x3f8582bf	1.0430526
215	0x3fb32f45	1.39988
216	0x400b6d4c	2.178546
217	0x40016cbd	2.0222619
218	0xbfffcede	-1.9985006
219	0x3f850d40	1.0394669
220	0xc0ac33c2	-5.381318
221	0x3f6b98d6	0.92030084
222	0x3f914ee9	1.1352206
223	0x3fdd3db8	1.728446
224	0x3fd7b9d2	1.6853583
225	0x3fc6b80e	1.5524919
226	0x3f9b2338	1.2120123
227	0xc03a65db	-2.9124668
228	0x3f6417b2	0.89098656
229	0x3f846619	1.0343658
230	0x3f5441a4	0.8291266
231	0x3fb1c1a3	1.3887218
232	0x3f9685fc	1.1759639
233	0x3f9c56e6	1.2214019
234	0x3fb16f8a	1.3862164
235	0xc04b5149	-3.1768363
236	0x3fc428a7	1.5324906
237	0x3faac8f6	1.3342578
238	0x3fbbb4e2	1.4664576
239	0x3fb55e3b	1.4169382
240	0x3fd89b27	1.6922349
241	0x3f93092b	1.1487173
242	0x3faeec7b	1.3665918
243	0x3f739fa8	0.9516549
244	0xbfaf9f49	-1.3720485
245	0x3fa2a53f	1.2706679
246	0x3f94e1b2	1.1631377
247	0x3f8b8449	1.0899745
248	0x3fc53be0	1.5408897
249	0xc01423dd	-2.314689
250	0x3fe52232	1.790106
251	0xc00510c3	-2.079148
252	0x3ffad0b4	1.9594941
253	0x3fd427e0	1.6574669
254	0x3f5fdd03	0.8744661
255	0x401a3d95	2.4100087

layers.2.bias f4 [2]
0	0x3fa7dc90	1.3114185
1	0x3f9d857b	1.230636
